HloModule jit__hybrid_kernel, is_scheduled=true, entry_computation_layout={(f64[45,10494]{1,0}, f64[45,10494]{1,0}, f64[45,10494]{1,0}, f64[45,10494]{1,0})->f64[45,10494]{1,0}}, allow_spmd_sharding_propagation_to_parameters={true,true,true,true}, allow_spmd_sharding_propagation_to_output={true}, frontend_attributes={fingerprint_before_lhs="4726f9982e3c864c901f2e3b7fdc69f0"}

FileNames
1 "/tmp/wrf_gpu2_perfdesign/scripts/m6_perf_design_canary_1h.py"
2 "/tmp/wrf_gpu2_perfdesign/src/gpuwrf/dynamics/vertical_implicit_solver.py"

FunctionNames
1 "<module>"
2 "main"
3 "run_solver_bakeoff"
4 "_hybrid_kernel"
5 "hybrid_pcr_thomas_solve"
6 "solve_tridiagonal_thomas"
7 "solve_tridiagonal_thomas.<locals>.forward"
8 "solve_tridiagonal_thomas.<locals>.backward"
9 "pcr_solve"
10 "_shift_up"
11 "_shift_down"
12 "_tridiag_matvec"

FileLocations
1 {file_name_id=1 function_name_id=1 line=353 end_line=353 column=21 end_column=27}
2 {file_name_id=1 function_name_id=2 line=344 end_line=344 column=25 end_column=57}
3 {file_name_id=1 function_name_id=3 line=203 end_line=203 column=19 end_column=37}
4 {file_name_id=1 function_name_id=4 line=132 end_line=132 column=11 end_column=48}
5 {file_name_id=1 function_name_id=5 line=104 end_line=104 column=17 end_column=60}
6 {file_name_id=2 function_name_id=6 line=110 end_line=115 column=33 end_column=5}
7 {file_name_id=2 function_name_id=7 line=107 end_line=107 column=15 end_column=42}
8 {file_name_id=2 function_name_id=6 line=126 end_line=131 column=15 end_column=5}
9 {file_name_id=2 function_name_id=8 line=123 end_line=123 column=14 end_column=34}
10 {file_name_id=2 function_name_id=6 line=99 end_line=99 column=10 end_column=14}
11 {file_name_id=2 function_name_id=6 line=100 end_line=100 column=10 end_column=16}
12 {file_name_id=2 function_name_id=6 line=119 end_line=119 column=13 end_column=19}
13 {file_name_id=1 function_name_id=5 line=102 end_line=102 column=9 end_column=32}
14 {file_name_id=1 function_name_id=9 line=89 end_line=89 column=23 end_column=77}
15 {file_name_id=1 function_name_id=9 line=96 end_line=96 column=11 end_column=21}
16 {file_name_id=1 function_name_id=9 line=93 end_line=93 column=20 end_column=68}
17 {file_name_id=1 function_name_id=5 line=105 end_line=105 column=11 end_column=26}
18 {file_name_id=2 function_name_id=6 line=113 end_line=113 column=30 end_column=37}
19 {file_name_id=2 function_name_id=6 line=129 end_line=129 column=24 end_column=31}
20 {file_name_id=1 function_name_id=9 line=93 end_line=93 column=86 end_column=110}
21 {file_name_id=1 function_name_id=10 line=72 end_line=72 column=28 end_column=42}
22 {file_name_id=1 function_name_id=9 line=88 end_line=88 column=18 end_column=41}
23 {file_name_id=1 function_name_id=9 line=92 end_line=92 column=37 end_column=61}
24 {file_name_id=2 function_name_id=7 line=106 end_line=106 column=15 end_column=25}
25 {file_name_id=2 function_name_id=7 line=107 end_line=107 column=16 end_column=33}
26 {file_name_id=2 function_name_id=7 line=107 end_line=107 column=21 end_column=33}
27 {file_name_id=2 function_name_id=7 line=105 end_line=105 column=16 end_column=33}
28 {file_name_id=2 function_name_id=7 line=105 end_line=105 column=21 end_column=33}
29 {file_name_id=2 function_name_id=8 line=123 end_line=123 column=21 end_column=34}
30 {file_name_id=1 function_name_id=9 line=89 end_line=89 column=54 end_column=71}
31 {file_name_id=1 function_name_id=9 line=87 end_line=87 column=20 end_column=45}
32 {file_name_id=1 function_name_id=11 line=68 end_line=68 column=11 end_column=85}
33 {file_name_id=1 function_name_id=11 line=68 end_line=68 column=60 end_column=75}
34 {file_name_id=1 function_name_id=9 line=89 end_line=89 column=33 end_column=52}
35 {file_name_id=1 function_name_id=9 line=84 end_line=84 column=16 end_column=29}
36 {file_name_id=1 function_name_id=9 line=91 end_line=91 column=21 end_column=34}
37 {file_name_id=1 function_name_id=9 line=91 end_line=91 column=37 end_column=63}
38 {file_name_id=1 function_name_id=9 line=90 end_line=90 column=23 end_column=78}
39 {file_name_id=1 function_name_id=9 line=90 end_line=90 column=57 end_column=72}
40 {file_name_id=1 function_name_id=10 line=72 end_line=72 column=11 end_column=84}
41 {file_name_id=1 function_name_id=9 line=90 end_line=90 column=33 end_column=51}
42 {file_name_id=1 function_name_id=9 line=94 end_line=94 column=19 end_column=64}
43 {file_name_id=1 function_name_id=9 line=94 end_line=94 column=67 end_column=104}
44 {file_name_id=1 function_name_id=9 line=94 end_line=94 column=82 end_column=104}
45 {file_name_id=1 function_name_id=9 line=94 end_line=94 column=25 end_column=64}
46 {file_name_id=1 function_name_id=9 line=94 end_line=94 column=40 end_column=64}
47 {file_name_id=1 function_name_id=9 line=92 end_line=92 column=21 end_column=34}
48 {file_name_id=1 function_name_id=9 line=93 end_line=93 column=71 end_column=110}
49 {file_name_id=1 function_name_id=9 line=93 end_line=93 column=27 end_column=68}
50 {file_name_id=1 function_name_id=9 line=93 end_line=93 column=42 end_column=68}
51 {file_name_id=2 function_name_id=6 line=132 end_line=132 column=11 end_column=68}
52 {file_name_id=2 function_name_id=6 line=132 end_line=132 column=28 end_column=39}
53 {file_name_id=1 function_name_id=5 line=103 end_line=103 column=15 end_column=49}
54 {file_name_id=1 function_name_id=5 line=103 end_line=103 column=21 end_column=49}
55 {file_name_id=1 function_name_id=12 line=117 end_line=117 column=11 end_column=24}
56 {file_name_id=1 function_name_id=12 line=116 end_line=116 column=12 end_column=31}
57 {file_name_id=1 function_name_id=12 line=116 end_line=116 column=16 end_column=31}
58 {file_name_id=1 function_name_id=12 line=117 end_line=117 column=19 end_column=24}
59 {file_name_id=1 function_name_id=12 line=115 end_line=115 column=12 end_column=33}
60 {file_name_id=1 function_name_id=12 line=115 end_line=115 column=16 end_column=33}
61 {file_name_id=2 function_name_id=6 line=117 end_line=117 column=9 end_column=59}
62 {file_name_id=2 function_name_id=6 line=99 end_line=99 column=17 end_column=21}
63 {file_name_id=2 function_name_id=6 line=129 end_line=129 column=9 end_column=16}
64 {file_name_id=2 function_name_id=6 line=116 end_line=116 column=9 end_column=59}

StackFrames
1 {file_location_id=1 parent_frame_id=1}
2 {file_location_id=2 parent_frame_id=2}
3 {file_location_id=3 parent_frame_id=3}
4 {file_location_id=4 parent_frame_id=4}
5 {file_location_id=5 parent_frame_id=5}
6 {file_location_id=6 parent_frame_id=6}
7 {file_location_id=4 parent_frame_id=7}
8 {file_location_id=5 parent_frame_id=8}
9 {file_location_id=6 parent_frame_id=9}
10 {file_location_id=4 parent_frame_id=10}
11 {file_location_id=5 parent_frame_id=11}
12 {file_location_id=6 parent_frame_id=12}
13 {file_location_id=7 parent_frame_id=13}
14 {file_location_id=8 parent_frame_id=6}
15 {file_location_id=4 parent_frame_id=15}
16 {file_location_id=5 parent_frame_id=16}
17 {file_location_id=8 parent_frame_id=17}
18 {file_location_id=4 parent_frame_id=18}
19 {file_location_id=5 parent_frame_id=19}
20 {file_location_id=8 parent_frame_id=20}
21 {file_location_id=9 parent_frame_id=21}
22 {file_location_id=10 parent_frame_id=6}
23 {file_location_id=11 parent_frame_id=6}
24 {file_location_id=12 parent_frame_id=6}
25 {file_location_id=4 parent_frame_id=1}
26 {file_location_id=13 parent_frame_id=26}
27 {file_location_id=14 parent_frame_id=27}
28 {file_location_id=13 parent_frame_id=5}
29 {file_location_id=15 parent_frame_id=29}
30 {file_location_id=16 parent_frame_id=29}
31 {file_location_id=17 parent_frame_id=5}
32 {file_location_id=18 parent_frame_id=6}
33 {file_location_id=19 parent_frame_id=6}
34 {file_location_id=20 parent_frame_id=29}
35 {file_location_id=21 parent_frame_id=35}
36 {file_location_id=22 parent_frame_id=29}
37 {file_location_id=21 parent_frame_id=37}
38 {file_location_id=23 parent_frame_id=29}
39 {file_location_id=21 parent_frame_id=39}
40 {file_location_id=24 parent_frame_id=13}
41 {file_location_id=25 parent_frame_id=13}
42 {file_location_id=26 parent_frame_id=13}
43 {file_location_id=27 parent_frame_id=13}
44 {file_location_id=28 parent_frame_id=13}
45 {file_location_id=29 parent_frame_id=21}
46 {file_location_id=30 parent_frame_id=29}
47 {file_location_id=31 parent_frame_id=29}
48 {file_location_id=32 parent_frame_id=48}
49 {file_location_id=33 parent_frame_id=48}
50 {file_location_id=34 parent_frame_id=29}
51 {file_location_id=35 parent_frame_id=29}
52 {file_location_id=36 parent_frame_id=29}
53 {file_location_id=37 parent_frame_id=29}
54 {file_location_id=32 parent_frame_id=54}
55 {file_location_id=33 parent_frame_id=54}
56 {file_location_id=38 parent_frame_id=27}
57 {file_location_id=39 parent_frame_id=29}
58 {file_location_id=40 parent_frame_id=37}
59 {file_location_id=41 parent_frame_id=29}
60 {file_location_id=42 parent_frame_id=29}
61 {file_location_id=43 parent_frame_id=29}
62 {file_location_id=44 parent_frame_id=29}
63 {file_location_id=40 parent_frame_id=63}
64 {file_location_id=21 parent_frame_id=63}
65 {file_location_id=45 parent_frame_id=29}
66 {file_location_id=46 parent_frame_id=29}
67 {file_location_id=32 parent_frame_id=67}
68 {file_location_id=33 parent_frame_id=67}
69 {file_location_id=47 parent_frame_id=29}
70 {file_location_id=40 parent_frame_id=39}
71 {file_location_id=48 parent_frame_id=29}
72 {file_location_id=40 parent_frame_id=35}
73 {file_location_id=49 parent_frame_id=29}
74 {file_location_id=50 parent_frame_id=29}
75 {file_location_id=32 parent_frame_id=75}
76 {file_location_id=33 parent_frame_id=75}
77 {file_location_id=51 parent_frame_id=6}
78 {file_location_id=52 parent_frame_id=6}
79 {file_location_id=53 parent_frame_id=5}
80 {file_location_id=54 parent_frame_id=5}
81 {file_location_id=55 parent_frame_id=81}
82 {file_location_id=56 parent_frame_id=81}
83 {file_location_id=57 parent_frame_id=81}
84 {file_location_id=40 parent_frame_id=84}
85 {file_location_id=21 parent_frame_id=84}
86 {file_location_id=58 parent_frame_id=81}
87 {file_location_id=59 parent_frame_id=81}
88 {file_location_id=60 parent_frame_id=81}
89 {file_location_id=32 parent_frame_id=89}
90 {file_location_id=33 parent_frame_id=89}
91 {file_location_id=61 parent_frame_id=6}
92 {file_location_id=62 parent_frame_id=6}
93 {file_location_id=63 parent_frame_id=6}
94 {file_location_id=64 parent_frame_id=6}


%fused_dynamic_update_slice (param_0: f64[44,10494], param_1.1: s64[], param_2.20: f64[10494]) -> f64[44,10494] {
  %param_0 = f64[44,10494]{1,0} parameter(0)
  %param_2.20 = f64[10494]{0} parameter(2)
  %bitcast.5.1 = f64[1,10494]{1,0} bitcast(%param_2.20), metadata={op_name="jit(_hybrid_kernel)/while/body/closed_call/div" stack_frame_id=13}
  %param_1.1 = s64[] parameter(1)
  %constant_19_2 = s64[] constant(0)
  ROOT %dynamic_update_slice.3.1 = f64[44,10494]{1,0} dynamic-update-slice(%param_0, %bitcast.5.1, %param_1.1, %constant_19_2), metadata={op_name="jit(_hybrid_kernel)/while/body/dynamic_update_slice" stack_frame_id=12}
}

%fused_dynamic_update_slice.1 (param_0.1: f64[44,10494], param_1.3: s64[], param_2.19: f64[10494]) -> f64[44,10494] {
  %param_0.1 = f64[44,10494]{1,0} parameter(0)
  %param_2.19 = f64[10494]{0} parameter(2)
  %bitcast.4.1 = f64[1,10494]{1,0} bitcast(%param_2.19), metadata={op_name="jit(_hybrid_kernel)/while/body/closed_call/div" stack_frame_id=40}
  %param_1.3 = s64[] parameter(1)
  %constant_19_1 = s64[] constant(0)
  ROOT %dynamic_update_slice.2.1 = f64[44,10494]{1,0} dynamic-update-slice(%param_0.1, %bitcast.4.1, %param_1.3, %constant_19_1), metadata={op_name="jit(_hybrid_kernel)/while/body/dynamic_update_slice" stack_frame_id=12}
}

%fused_divide (param_0.22: f64[10494], param_1.32: f64[10494], param_2.18: f64[44,10494], param_3.16: s64[], param_4.11: f64[44,10494], param_5.7: f64[44,10494], param_6.121: f64[44,10494]) -> (f64[10494], f64[10494]) {
  %param_2.18 = f64[44,10494]{1,0} parameter(2)
  %param_3.16 = s64[] parameter(3)
  %constant_19_4 = s64[] constant(0)
  %dynamic_slice.7.1 = f64[1,10494]{1,0} dynamic-slice(%param_2.18, %param_3.16, %constant_19_4), dynamic_slice_sizes={1,10494}, metadata={op_name="jit(_hybrid_kernel)/while/body/dynamic_slice" stack_frame_id=12}
  %bitcast.3.3 = f64[10494]{0} bitcast(%dynamic_slice.7.1), metadata={op_name="jit(_hybrid_kernel)/while/body/dynamic_slice" stack_frame_id=12}
  %param_5.7 = f64[44,10494]{1,0} parameter(5)
  %dynamic_slice.4.2 = f64[1,10494]{1,0} dynamic-slice(%param_5.7, %param_3.16, %constant_19_4), dynamic_slice_sizes={1,10494}, metadata={op_name="jit(_hybrid_kernel)/while/body/dynamic_slice" stack_frame_id=12}
  %bitcast.2.4 = f64[10494]{0} bitcast(%dynamic_slice.4.2), metadata={op_name="jit(_hybrid_kernel)/while/body/dynamic_slice" stack_frame_id=12}
  %param_0.22 = f64[10494]{0} parameter(0)
  %mul.1.3 = f64[10494]{0} multiply(%bitcast.2.4, %param_0.22), metadata={op_name="jit(_hybrid_kernel)/while/body/closed_call/mul" stack_frame_id=42}
  %sub.1.3 = f64[10494]{0} subtract(%bitcast.3.3, %mul.1.3), metadata={op_name="jit(_hybrid_kernel)/while/body/closed_call/sub" stack_frame_id=41}
  %param_4.11 = f64[44,10494]{1,0} parameter(4)
  %dynamic_slice.5.1 = f64[1,10494]{1,0} dynamic-slice(%param_4.11, %param_3.16, %constant_19_4), dynamic_slice_sizes={1,10494}, metadata={op_name="jit(_hybrid_kernel)/while/body/dynamic_slice" stack_frame_id=12}
  %bitcast.1.5 = f64[10494]{0} bitcast(%dynamic_slice.5.1), metadata={op_name="jit(_hybrid_kernel)/while/body/dynamic_slice" stack_frame_id=12}
  %param_1.32 = f64[10494]{0} parameter(1)
  %mul.0.3 = f64[10494]{0} multiply(%bitcast.2.4, %param_1.32), metadata={op_name="jit(_hybrid_kernel)/while/body/closed_call/mul" stack_frame_id=44}
  %sub.0.5 = f64[10494]{0} subtract(%bitcast.1.5, %mul.0.3), metadata={op_name="jit(_hybrid_kernel)/while/body/closed_call/sub" stack_frame_id=43}
  %div.1.1 = f64[10494]{0} divide(%sub.1.3, %sub.0.5), metadata={op_name="jit(_hybrid_kernel)/while/body/closed_call/div" stack_frame_id=13}
  %param_6.121 = f64[44,10494]{1,0} parameter(6)
  %dynamic_slice.6.1.clone.1 = f64[1,10494]{1,0} dynamic-slice(%param_6.121, %param_3.16, %constant_19_4), dynamic_slice_sizes={1,10494}, metadata={op_name="jit(_hybrid_kernel)/while/body/dynamic_slice" stack_frame_id=12}
  %bitcast.25.clone.1 = f64[10494]{0} bitcast(%dynamic_slice.6.1.clone.1), metadata={op_name="jit(_hybrid_kernel)/while/body/dynamic_slice" stack_frame_id=12}
  %div.0.1.clone.1 = f64[10494]{0} divide(%bitcast.25.clone.1, %sub.0.5), metadata={op_name="jit(_hybrid_kernel)/while/body/closed_call/div" stack_frame_id=40}
  ROOT %tuple.4 = (f64[10494]{0}, f64[10494]{0}) tuple(%div.1.1, %div.0.1.clone.1)
}

%fused_add (param_0.25: s64[]) -> s64[] {
  %param_0.25 = s64[] parameter(0)
  %constant_18_1 = s64[] constant(1)
  ROOT %add.9.1 = s64[] add(%param_0.25, %constant_18_1), metadata={op_name="jit(_hybrid_kernel)/while/body/add" stack_frame_id=12}
}

%region_0.3 (arg_tuple.1: (s64[], f64[10494], f64[10494], f64[44,10494], f64[44,10494], /*index=5*/f64[44,10494], f64[44,10494], f64[44,10494], f64[44,10494])) -> (s64[], f64[10494], f64[10494], f64[44,10494], f64[44,10494], /*index=5*/f64[44,10494], f64[44,10494], f64[44,10494], f64[44,10494]) {
  %arg_tuple.1 = (s64[], f64[10494]{0}, f64[10494]{0}, f64[44,10494]{1,0}, f64[44,10494]{1,0}, /*index=5*/f64[44,10494]{1,0}, f64[44,10494]{1,0}, f64[44,10494]{1,0}, f64[44,10494]{1,0}) parameter(0)
  %get-tuple-element.60 = s64[] get-tuple-element(%arg_tuple.1), index=0
  %get-tuple-element.74 = f64[44,10494]{1,0} get-tuple-element(%arg_tuple.1), index=5
  %get-tuple-element.75 = f64[44,10494]{1,0} get-tuple-element(%arg_tuple.1), index=6
  %get-tuple-element.76 = f64[44,10494]{1,0} get-tuple-element(%arg_tuple.1), index=7
  %get-tuple-element.77 = f64[44,10494]{1,0} get-tuple-element(%arg_tuple.1), index=8
  %get-tuple-element.61 = f64[10494]{0} get-tuple-element(%arg_tuple.1), index=1
  %get-tuple-element.62 = f64[10494]{0} get-tuple-element(%arg_tuple.1), index=2
  %loop_divide_fusion = (f64[10494]{0}, f64[10494]{0}) fusion(%get-tuple-element.62, %get-tuple-element.61, %get-tuple-element.77, %get-tuple-element.60, %get-tuple-element.75, /*index=5*/%get-tuple-element.74, %get-tuple-element.76), kind=kLoop, calls=%fused_divide, metadata={op_name="jit(_hybrid_kernel)/while/body/closed_call/div" stack_frame_id=13}
  %get-tuple-element.71 = f64[10494]{0} get-tuple-element(%loop_divide_fusion), index=0, metadata={op_name="jit(_hybrid_kernel)/while/body/closed_call/div" stack_frame_id=13}
  %get-tuple-element.64 = f64[44,10494]{1,0} get-tuple-element(%arg_tuple.1), index=4
  %loop_dynamic_update_slice_fusion = f64[44,10494]{1,0} fusion(%get-tuple-element.64, %get-tuple-element.60, %get-tuple-element.71), kind=kLoop, calls=%fused_dynamic_update_slice, metadata={op_name="jit(_hybrid_kernel)/while/body/dynamic_update_slice" deduplicated_name="loop_dynamic_update_slice_fusion" stack_frame_id=12}, backend_config={"operation_queue_id":"0","fusion_backend_config":{"kind":"__dynamic_memcpy","dynamic_memcpy_config":{"depends_on_loop":true,"src_offset_bytes":["0","0","0","0","0","0","0","0","0","0","0","0","0","0","0","0","0","0","0","0","0","0","0","0","0","0","0","0","0","0","0","0","0","0","0","0","0","0","0","0","0","0","0","0"],"dst_offset_bytes":["0","83952","167904","251856","335808","419760","503712","587664","671616","755568","839520","923472","1007424","1091376","1175328","1259280","1343232","1427184","1511136","1595088","1679040","1762992","1846944","1930896","2014848","2098800","2182752","2266704","2350656","2434608","2518560","2602512","2686464","2770416","2854368","2938320","3022272","3106224","3190176","3274128","3358080","3442032","3525984","3609936"]}},"force_earliest_schedule":false,"reification_cost":[],"device_type":"DEVICE_TYPE_INVALID"}
  %get-tuple-element.70 = f64[10494]{0} get-tuple-element(%loop_divide_fusion), index=1, metadata={op_name="jit(_hybrid_kernel)/while/body/closed_call/div" stack_frame_id=13}
  %get-tuple-element.63 = f64[44,10494]{1,0} get-tuple-element(%arg_tuple.1), index=3
  %loop_dynamic_update_slice_fusion.1 = f64[44,10494]{1,0} fusion(%get-tuple-element.63, %get-tuple-element.60, %get-tuple-element.70), kind=kLoop, calls=%fused_dynamic_update_slice.1, metadata={op_name="jit(_hybrid_kernel)/while/body/dynamic_update_slice" deduplicated_name="loop_dynamic_update_slice_fusion" stack_frame_id=12}, backend_config={"operation_queue_id":"0","fusion_backend_config":{"kind":"__dynamic_memcpy","dynamic_memcpy_config":{"depends_on_loop":true,"src_offset_bytes":["0","0","0","0","0","0","0","0","0","0","0","0","0","0","0","0","0","0","0","0","0","0","0","0","0","0","0","0","0","0","0","0","0","0","0","0","0","0","0","0","0","0","0","0"],"dst_offset_bytes":["0","83952","167904","251856","335808","419760","503712","587664","671616","755568","839520","923472","1007424","1091376","1175328","1259280","1343232","1427184","1511136","1595088","1679040","1762992","1846944","1930896","2014848","2098800","2182752","2266704","2350656","2434608","2518560","2602512","2686464","2770416","2854368","2938320","3022272","3106224","3190176","3274128","3358080","3442032","3525984","3609936"]}},"force_earliest_schedule":false,"reification_cost":[],"device_type":"DEVICE_TYPE_INVALID"}
  %loop_add_fusion = s64[] fusion(%get-tuple-element.60), kind=kLoop, calls=%fused_add, control-predecessors={%loop_dynamic_update_slice_fusion.1, %loop_dynamic_update_slice_fusion, %loop_divide_fusion}, metadata={op_name="jit(_hybrid_kernel)/while/body/add" deduplicated_name="loop_add_fusion" stack_frame_id=12}
  ROOT %tuple.23 = (s64[], f64[10494]{0}, f64[10494]{0}, f64[44,10494]{1,0}, f64[44,10494]{1,0}, /*index=5*/f64[44,10494]{1,0}, f64[44,10494]{1,0}, f64[44,10494]{1,0}, f64[44,10494]{1,0}) tuple(%loop_add_fusion, %get-tuple-element.70, %get-tuple-element.71, %loop_dynamic_update_slice_fusion.1, %loop_dynamic_update_slice_fusion, /*index=5*/%get-tuple-element.74, %get-tuple-element.75, %get-tuple-element.76, %get-tuple-element.77)
}

%fused_compare (param_0.26: s64[]) -> pred[] {
  %param_0.26 = s64[] parameter(0)
  %constant_21_1 = s64[] constant(44)
  ROOT %lt.7.1 = pred[] compare(%param_0.26, %constant_21_1), direction=LT, metadata={op_name="jit(_hybrid_kernel)/while/cond/lt" stack_frame_id=12}
}

%region_1.4 (arg_tuple.3: (s64[], f64[10494], f64[10494], f64[44,10494], f64[44,10494], /*index=5*/f64[44,10494], f64[44,10494], f64[44,10494], f64[44,10494])) -> pred[] {
  %arg_tuple.3 = (s64[], f64[10494]{0}, f64[10494]{0}, f64[44,10494]{1,0}, f64[44,10494]{1,0}, /*index=5*/f64[44,10494]{1,0}, f64[44,10494]{1,0}, f64[44,10494]{1,0}, f64[44,10494]{1,0}) parameter(0)
  %get-tuple-element.27.0 = s64[] get-tuple-element(%arg_tuple.3), index=0
  ROOT %loop_compare_fusion = pred[] fusion(%get-tuple-element.27.0), kind=kLoop, calls=%fused_compare, metadata={op_name="jit(_hybrid_kernel)/while/cond/lt" deduplicated_name="loop_compare_fusion" stack_frame_id=12}
}

%fused_dynamic_update_slice.2 (param_0.27: f64[44,10494], param_1.36: s64[], param_2.27: f64[10494]) -> f64[44,10494] {
  %param_0.27 = f64[44,10494]{1,0} parameter(0)
  %param_2.27 = f64[10494]{0} parameter(2)
  %bitcast.8.1 = f64[1,10494]{1,0} bitcast(%param_2.27), metadata={op_name="jit(_hybrid_kernel)/while/body/closed_call/sub" stack_frame_id=21}
  %param_1.36 = s64[] parameter(1)
  %constant_25_1 = s64[] constant(0)
  ROOT %dynamic_update_slice.5.1 = f64[44,10494]{1,0} dynamic-update-slice(%param_0.27, %bitcast.8.1, %param_1.36, %constant_25_1), metadata={op_name="jit(_hybrid_kernel)/while/body/dynamic_update_slice" stack_frame_id=20}
}

%fused_subtract (param_0.34: f64[10494], param_1.45: f64[44,10494], param_2.26: s64[], param_3.22: f64[44,10494]) -> f64[10494] {
  %param_1.45 = f64[44,10494]{1,0} parameter(1)
  %param_2.26 = s64[] parameter(2)
  %constant_25_2 = s64[] constant(0)
  %dynamic_slice.11.1 = f64[1,10494]{1,0} dynamic-slice(%param_1.45, %param_2.26, %constant_25_2), dynamic_slice_sizes={1,10494}, metadata={op_name="jit(_hybrid_kernel)/while/body/dynamic_slice" stack_frame_id=20}
  %bitcast.6.1 = f64[10494]{0} bitcast(%dynamic_slice.11.1), metadata={op_name="jit(_hybrid_kernel)/while/body/dynamic_slice" stack_frame_id=20}
  %param_3.22 = f64[44,10494]{1,0} parameter(3)
  %dynamic_slice.10.1 = f64[1,10494]{1,0} dynamic-slice(%param_3.22, %param_2.26, %constant_25_2), dynamic_slice_sizes={1,10494}, metadata={op_name="jit(_hybrid_kernel)/while/body/dynamic_slice" stack_frame_id=20}
  %bitcast.7.3 = f64[10494]{0} bitcast(%dynamic_slice.10.1), metadata={op_name="jit(_hybrid_kernel)/while/body/dynamic_slice" stack_frame_id=20}
  %param_0.34 = f64[10494]{0} parameter(0)
  %mul.2.3 = f64[10494]{0} multiply(%bitcast.7.3, %param_0.34), metadata={op_name="jit(_hybrid_kernel)/while/body/closed_call/mul" stack_frame_id=45}
  ROOT %sub.2.1 = f64[10494]{0} subtract(%bitcast.6.1, %mul.2.3), metadata={op_name="jit(_hybrid_kernel)/while/body/closed_call/sub" stack_frame_id=21}
}

%fused_add.1 (param_0.35: s64[]) -> s64[] {
  %param_0.35 = s64[] parameter(0)
  %constant_24_1 = s64[] constant(1)
  ROOT %add.11.1 = s64[] add(%param_0.35, %constant_24_1), metadata={op_name="jit(_hybrid_kernel)/while/body/add" stack_frame_id=20}
}

%region_2.6 (arg_tuple.5: (s64[], f64[10494], f64[44,10494], f64[44,10494], f64[44,10494])) -> (s64[], f64[10494], f64[44,10494], f64[44,10494], f64[44,10494]) {
  %arg_tuple.5 = (s64[], f64[10494]{0}, f64[44,10494]{1,0}, f64[44,10494]{1,0}, f64[44,10494]{1,0}) parameter(0)
  %get-tuple-element.83 = s64[] get-tuple-element(%arg_tuple.5), index=0
  %get-tuple-element.91 = f64[44,10494]{1,0} get-tuple-element(%arg_tuple.5), index=3
  %get-tuple-element.92 = f64[44,10494]{1,0} get-tuple-element(%arg_tuple.5), index=4
  %get-tuple-element.84 = f64[10494]{0} get-tuple-element(%arg_tuple.5), index=1
  %loop_subtract_fusion = f64[10494]{0} fusion(%get-tuple-element.84, %get-tuple-element.92, %get-tuple-element.83, %get-tuple-element.91), kind=kLoop, calls=%fused_subtract, metadata={op_name="jit(_hybrid_kernel)/while/body/closed_call/sub" stack_frame_id=21}
  %get-tuple-element.85 = f64[44,10494]{1,0} get-tuple-element(%arg_tuple.5), index=2
  %loop_dynamic_update_slice_fusion.2 = f64[44,10494]{1,0} fusion(%get-tuple-element.85, %get-tuple-element.83, %loop_subtract_fusion), kind=kLoop, calls=%fused_dynamic_update_slice.2, metadata={op_name="jit(_hybrid_kernel)/while/body/dynamic_update_slice" deduplicated_name="loop_dynamic_update_slice_fusion" stack_frame_id=20}, backend_config={"operation_queue_id":"0","fusion_backend_config":{"kind":"__dynamic_memcpy","dynamic_memcpy_config":{"depends_on_loop":true,"src_offset_bytes":["0","0","0","0","0","0","0","0","0","0","0","0","0","0","0","0","0","0","0","0","0","0","0","0","0","0","0","0","0","0","0","0","0","0","0","0","0","0","0","0","0","0","0","0"],"dst_offset_bytes":["0","83952","167904","251856","335808","419760","503712","587664","671616","755568","839520","923472","1007424","1091376","1175328","1259280","1343232","1427184","1511136","1595088","1679040","1762992","1846944","1930896","2014848","2098800","2182752","2266704","2350656","2434608","2518560","2602512","2686464","2770416","2854368","2938320","3022272","3106224","3190176","3274128","3358080","3442032","3525984","3609936"]}},"force_earliest_schedule":false,"reification_cost":[],"device_type":"DEVICE_TYPE_INVALID"}
  %loop_add_fusion.1 = s64[] fusion(%get-tuple-element.83), kind=kLoop, calls=%fused_add.1, control-predecessors={%loop_dynamic_update_slice_fusion.2, %loop_subtract_fusion}, metadata={op_name="jit(_hybrid_kernel)/while/body/add" deduplicated_name="loop_add_fusion" stack_frame_id=20}
  ROOT %tuple.26 = (s64[], f64[10494]{0}, f64[44,10494]{1,0}, f64[44,10494]{1,0}, f64[44,10494]{1,0}) tuple(%loop_add_fusion.1, %loop_subtract_fusion, %loop_dynamic_update_slice_fusion.2, %get-tuple-element.91, %get-tuple-element.92)
}

%fused_compare.1 (param_0.36: s64[]) -> pred[] {
  %param_0.36 = s64[] parameter(0)
  %constant_27_1 = s64[] constant(44)
  ROOT %lt.9.1 = pred[] compare(%param_0.36, %constant_27_1), direction=LT, metadata={op_name="jit(_hybrid_kernel)/while/cond/lt" stack_frame_id=20}
}

%region_3.7 (arg_tuple.7: (s64[], f64[10494], f64[44,10494], f64[44,10494], f64[44,10494])) -> pred[] {
  %arg_tuple.7 = (s64[], f64[10494]{0}, f64[44,10494]{1,0}, f64[44,10494]{1,0}, f64[44,10494]{1,0}) parameter(0)
  %get-tuple-element.51.0 = s64[] get-tuple-element(%arg_tuple.7), index=0
  ROOT %loop_compare_fusion.1 = pred[] fusion(%get-tuple-element.51.0), kind=kLoop, calls=%fused_compare.1, metadata={op_name="jit(_hybrid_kernel)/while/cond/lt" deduplicated_name="loop_compare_fusion" stack_frame_id=20}
}

%fused_multiply_select_subtract (param_0.409: f64[45,10494], param_1.439: f64[45,10494], param_2.360: f64[45,10494], param_3.269: f64[45,10494], param_4.209: f64[45,10494], param_5.187: f64[45,10494], param_6.147: f64[45,10494]) -> (f64[45,10494], f64[45,10494], f64[45,10494], f64[45,10494], f64[45,10494]) {
  %iota.30 = s64[45,1]{1,0} iota(), iota_dimension=0, metadata={op_name="jit(_hybrid_kernel)/iota" stack_frame_id=51}
  %constant_33_2 = s64[] constant(8)
  %broadcast.19.4 = s64[45,1]{1,0} broadcast(%constant_33_2), dimensions={}
  %ge.9.3 = pred[45,1]{1,0} compare(%iota.30, %broadcast.19.4), direction=GE, metadata={op_name="jit(_hybrid_kernel)/ge" stack_frame_id=50}
  %bitcast.15.3 = pred[45]{0} bitcast(%ge.9.3), metadata={op_name="jit(_hybrid_kernel)/ge" stack_frame_id=50}
  %broadcast_in_dim.80.3 = pred[45,10494]{1,0} broadcast(%bitcast.15.3), dimensions={0}, metadata={op_name="jit(_hybrid_kernel)/jit(_where)/broadcast_in_dim" stack_frame_id=27}
  %param_3.269 = f64[45,10494]{1,0} parameter(3)
  %neg.14.1.clone.1 = f64[45,10494]{1,0} negate(%param_3.269), metadata={op_name="jit(_hybrid_kernel)/neg" stack_frame_id=52}
  %param_2.360 = f64[45,10494]{1,0} parameter(2)
  %neg.12.5.clone.1 = f64[45,10494]{1,0} negate(%param_2.360), metadata={op_name="jit(_hybrid_kernel)/neg" stack_frame_id=52}
  %param_1.439 = f64[45,10494]{1,0} parameter(1)
  %slice.69.5.clone.1 = f64[43,10494]{1,0} slice(%param_1.439), slice={[0:43], [0:10494]}, metadata={op_name="jit(_hybrid_kernel)/slice" stack_frame_id=55}
  %constant_41_3 = f64[] constant(0)
  %pad.12.5.clone.1 = f64[45,10494]{1,0} pad(%slice.69.5.clone.1, %constant_41_3), padding=2_0x0_0, metadata={op_name="jit(_hybrid_kernel)/concatenate" stack_frame_id=54}
  %mul.49.5.clone.1 = f64[45,10494]{1,0} multiply(%neg.12.5.clone.1, %pad.12.5.clone.1), metadata={op_name="jit(_hybrid_kernel)/mul" stack_frame_id=52}
  %slice.77.1.clone.1 = f64[41,10494]{1,0} slice(%mul.49.5.clone.1), slice={[0:41], [0:10494]}, metadata={op_name="jit(_hybrid_kernel)/slice" stack_frame_id=55}
  %pad.20.1.clone.1 = f64[45,10494]{1,0} pad(%slice.77.1.clone.1, %constant_41_3), padding=4_0x0_0, metadata={op_name="jit(_hybrid_kernel)/concatenate" stack_frame_id=54}
  %mul.55.1.clone.1 = f64[45,10494]{1,0} multiply(%neg.14.1.clone.1, %pad.20.1.clone.1), metadata={op_name="jit(_hybrid_kernel)/mul" stack_frame_id=52}
  %param_0.409 = f64[45,10494]{1,0} parameter(0)
  %slice.83.1 = f64[37,10494]{1,0} slice(%param_0.409), slice={[0:37], [0:10494]}, metadata={op_name="jit(_hybrid_kernel)/slice" stack_frame_id=49}
  %pad.23.1 = f64[45,10494]{1,0} pad(%slice.83.1, %constant_41_3), padding=8_0x0_0, metadata={op_name="jit(_hybrid_kernel)/concatenate" stack_frame_id=48}
  %div.25.1 = f64[45,10494]{1,0} divide(%mul.55.1.clone.1, %pad.23.1), metadata={op_name="jit(_hybrid_kernel)/div" stack_frame_id=46}
  %broadcast_in_dim.57.7 = f64[45,10494]{1,0} broadcast(%constant_41_3), dimensions={}, metadata={op_name="jit(_hybrid_kernel)/jit(_where)/broadcast_in_dim" stack_frame_id=27}
  %select_n.18.1 = f64[45,10494]{1,0} select(%broadcast_in_dim.80.3, %div.25.1, %broadcast_in_dim.57.7), metadata={op_name="jit(_hybrid_kernel)/jit(_where)/select_n" stack_frame_id=27}
  %iota.36.clone.1 = s64[45,1]{1,0} iota(), iota_dimension=0, metadata={op_name="jit(_hybrid_kernel)/iota" stack_frame_id=51}
  %add.16.5.clone.1 = s64[45,1]{1,0} add(%iota.36.clone.1, %broadcast.19.4), metadata={op_name="jit(_hybrid_kernel)/add" stack_frame_id=59}
  %constant_39_5_clone_1 = s64[] constant(45)
  %broadcast.25.8.clone.1 = s64[45,1]{1,0} broadcast(%constant_39_5_clone_1), dimensions={}
  %lt.13.3.clone.1 = pred[45,1]{1,0} compare(%add.16.5.clone.1, %broadcast.25.8.clone.1), direction=LT, metadata={op_name="jit(_hybrid_kernel)/lt" stack_frame_id=59}
  %bitcast.16.3.clone.1 = pred[45]{0} bitcast(%lt.13.3.clone.1), metadata={op_name="jit(_hybrid_kernel)/lt" stack_frame_id=59}
  %broadcast_in_dim.84.3.clone.1 = pred[45,10494]{1,0} broadcast(%bitcast.16.3.clone.1), dimensions={0}, metadata={op_name="jit(_hybrid_kernel)/jit(_where)/broadcast_in_dim" stack_frame_id=56}
  %iota.54.clone.1 = s64[45,1]{1,0} iota(), iota_dimension=0, metadata={op_name="jit(_hybrid_kernel)/iota" stack_frame_id=51}
  %constant_35_1_clone_1 = s64[] constant(4)
  %broadcast.21.8.clone.1 = s64[45,1]{1,0} broadcast(%constant_35_1_clone_1), dimensions={}
  %add.15.7.clone.1 = s64[45,1]{1,0} add(%iota.54.clone.1, %broadcast.21.8.clone.1), metadata={op_name="jit(_hybrid_kernel)/add" stack_frame_id=59}
  %lt.12.5.clone.1 = pred[45,1]{1,0} compare(%add.15.7.clone.1, %broadcast.25.8.clone.1), direction=LT, metadata={op_name="jit(_hybrid_kernel)/lt" stack_frame_id=59}
  %bitcast.14.3.clone.1 = pred[45]{0} bitcast(%lt.12.5.clone.1), metadata={op_name="jit(_hybrid_kernel)/lt" stack_frame_id=59}
  %broadcast_in_dim.76.3.clone.1 = pred[45,10494]{1,0} broadcast(%bitcast.14.3.clone.1), dimensions={0}, metadata={op_name="jit(_hybrid_kernel)/jit(_where)/broadcast_in_dim" stack_frame_id=56}
  %param_5.187 = f64[45,10494]{1,0} parameter(5)
  %param_6.147 = f64[45,10494]{1,0} parameter(6)
  %slice.76.7.clone.1 = f64[41,10494]{1,0} slice(%param_6.147), slice={[4:45], [0:10494]}, metadata={op_name="jit(_hybrid_kernel)/slice" stack_frame_id=37}
  %pad.18.7.clone.1 = f64[45,10494]{1,0} pad(%slice.76.7.clone.1, %constant_41_3), padding=0_4x0_0, metadata={op_name="jit(_hybrid_kernel)/concatenate" stack_frame_id=58}
  %div.24.7.clone.1 = f64[45,10494]{1,0} divide(%param_5.187, %pad.18.7.clone.1), metadata={op_name="jit(_hybrid_kernel)/div" stack_frame_id=57}
  %select_n.17.7.clone.1 = f64[45,10494]{1,0} select(%broadcast_in_dim.76.3.clone.1, %div.24.7.clone.1, %broadcast_in_dim.57.7), metadata={op_name="jit(_hybrid_kernel)/jit(_where)/select_n" stack_frame_id=56}
  %neg.15.1.clone.1 = f64[45,10494]{1,0} negate(%select_n.17.7.clone.1), metadata={op_name="jit(_hybrid_kernel)/neg" stack_frame_id=69}
  %slice.78.1.clone.1 = f64[41,10494]{1,0} slice(%param_5.187), slice={[4:45], [0:10494]}, metadata={op_name="jit(_hybrid_kernel)/slice" stack_frame_id=39}
  %pad.25.1.clone.1 = f64[45,10494]{1,0} pad(%slice.78.1.clone.1, %constant_41_3), padding=0_4x0_0, metadata={op_name="jit(_hybrid_kernel)/concatenate" stack_frame_id=70}
  %mul.56.1.clone.1 = f64[45,10494]{1,0} multiply(%neg.15.1.clone.1, %pad.25.1.clone.1), metadata={op_name="jit(_hybrid_kernel)/mul" stack_frame_id=69}
  %slice.84.1.clone.1 = f64[37,10494]{1,0} slice(%param_0.409), slice={[8:45], [0:10494]}, metadata={op_name="jit(_hybrid_kernel)/slice" stack_frame_id=37}
  %pad.26.1.clone.1 = f64[45,10494]{1,0} pad(%slice.84.1.clone.1, %constant_41_3), padding=0_8x0_0, metadata={op_name="jit(_hybrid_kernel)/concatenate" stack_frame_id=58}
  %div.26.1.clone.1 = f64[45,10494]{1,0} divide(%mul.56.1.clone.1, %pad.26.1.clone.1), metadata={op_name="jit(_hybrid_kernel)/div" stack_frame_id=57}
  %select_n.19.1.clone.1 = f64[45,10494]{1,0} select(%broadcast_in_dim.84.3.clone.1, %div.26.1.clone.1, %broadcast_in_dim.57.7), metadata={op_name="jit(_hybrid_kernel)/jit(_where)/select_n" stack_frame_id=56}
  %param_4.209 = f64[45,10494]{1,0} parameter(4)
  %slice.81.1.clone.1 = f64[41,10494]{1,0} slice(%param_4.209), slice={[0:41], [0:10494]}, metadata={op_name="jit(_hybrid_kernel)/slice" stack_frame_id=68}
  %pad.16.3.clone.1 = f64[45,10494]{1,0} pad(%slice.81.1.clone.1, %constant_41_3), padding=4_0x0_0, metadata={op_name="jit(_hybrid_kernel)/concatenate" stack_frame_id=67}
  %mul.59.3.clone.1 = f64[45,10494]{1,0} multiply(%param_3.269, %pad.16.3.clone.1), metadata={op_name="jit(_hybrid_kernel)/mul" stack_frame_id=65}
  %sub.41.1.clone.1 = f64[45,10494]{1,0} subtract(%param_4.209, %mul.59.3.clone.1), metadata={op_name="jit(_hybrid_kernel)/sub" stack_frame_id=60}
  %slice.82.1.clone.1 = f64[41,10494]{1,0} slice(%param_4.209), slice={[4:45], [0:10494]}, metadata={op_name="jit(_hybrid_kernel)/slice" stack_frame_id=64}
  %pad.19.3.clone.1 = f64[45,10494]{1,0} pad(%slice.82.1.clone.1, %constant_41_3), padding=0_4x0_0, metadata={op_name="jit(_hybrid_kernel)/concatenate" stack_frame_id=63}
  %mul.60.3.clone.1 = f64[45,10494]{1,0} multiply(%select_n.17.7.clone.1, %pad.19.3.clone.1), metadata={op_name="jit(_hybrid_kernel)/mul" stack_frame_id=61}
  %sub.42.1.clone.1 = f64[45,10494]{1,0} subtract(%sub.41.1.clone.1, %mul.60.3.clone.1), metadata={op_name="jit(_hybrid_kernel)/sub" stack_frame_id=60}
  ROOT %tuple.12 = (f64[45,10494]{1,0}, f64[45,10494]{1,0}, f64[45,10494]{1,0}, f64[45,10494]{1,0}, f64[45,10494]{1,0}) tuple(%select_n.18.1, %mul.55.1.clone.1, %select_n.19.1.clone.1, %sub.42.1.clone.1, %mul.56.1.clone.1)
}

%fused_select (param_0.403: f64[45,10494], param_1.432: f64[45,10494], param_2.347: f64[45,10494], param_3.256: f64[45,10494], param_4.195: f64[45,10494]) -> (f64[45,10494], f64[45,10494]) {
  %iota.42 = s64[45,1]{1,0} iota(), iota_dimension=0, metadata={op_name="jit(_hybrid_kernel)/iota" stack_frame_id=51}
  %constant_31_2 = s64[] constant(16)
  %broadcast.17.4 = s64[45,1]{1,0} broadcast(%constant_31_2), dimensions={}
  %ge.10.3 = pred[45,1]{1,0} compare(%iota.42, %broadcast.17.4), direction=GE, metadata={op_name="jit(_hybrid_kernel)/ge" stack_frame_id=50}
  %bitcast.17.3 = pred[45]{0} bitcast(%ge.10.3), metadata={op_name="jit(_hybrid_kernel)/ge" stack_frame_id=50}
  %broadcast_in_dim.88.3 = pred[45,10494]{1,0} broadcast(%bitcast.17.3), dimensions={0}, metadata={op_name="jit(_hybrid_kernel)/jit(_where)/broadcast_in_dim" stack_frame_id=27}
  %param_1.432 = f64[45,10494]{1,0} parameter(1)
  %neg.16.3 = f64[45,10494]{1,0} negate(%param_1.432), metadata={op_name="jit(_hybrid_kernel)/neg" stack_frame_id=52}
  %param_0.403 = f64[45,10494]{1,0} parameter(0)
  %slice.85.3 = f64[37,10494]{1,0} slice(%param_0.403), slice={[0:37], [0:10494]}, metadata={op_name="jit(_hybrid_kernel)/slice" stack_frame_id=55}
  %constant_41_16 = f64[] constant(0)
  %pad.28.3 = f64[45,10494]{1,0} pad(%slice.85.3, %constant_41_16), padding=8_0x0_0, metadata={op_name="jit(_hybrid_kernel)/concatenate" stack_frame_id=54}
  %mul.61.3 = f64[45,10494]{1,0} multiply(%neg.16.3, %pad.28.3), metadata={op_name="jit(_hybrid_kernel)/mul" stack_frame_id=52}
  %param_3.256 = f64[45,10494]{1,0} parameter(3)
  %param_4.195 = f64[45,10494]{1,0} parameter(4)
  %slice.87.3 = f64[37,10494]{1,0} slice(%param_4.195), slice={[0:37], [0:10494]}, metadata={op_name="jit(_hybrid_kernel)/slice" stack_frame_id=76}
  %pad.29.5 = f64[45,10494]{1,0} pad(%slice.87.3, %constant_41_16), padding=8_0x0_0, metadata={op_name="jit(_hybrid_kernel)/concatenate" stack_frame_id=75}
  %mul.63.5 = f64[45,10494]{1,0} multiply(%param_1.432, %pad.29.5), metadata={op_name="jit(_hybrid_kernel)/mul" stack_frame_id=73}
  %sub.43.3 = f64[45,10494]{1,0} subtract(%param_3.256, %mul.63.5), metadata={op_name="jit(_hybrid_kernel)/sub" stack_frame_id=30}
  %param_2.347 = f64[45,10494]{1,0} parameter(2)
  %slice.88.3 = f64[37,10494]{1,0} slice(%param_0.403), slice={[8:45], [0:10494]}, metadata={op_name="jit(_hybrid_kernel)/slice" stack_frame_id=35}
  %pad.30.5 = f64[45,10494]{1,0} pad(%slice.88.3, %constant_41_16), padding=0_8x0_0, metadata={op_name="jit(_hybrid_kernel)/concatenate" stack_frame_id=72}
  %mul.64.5 = f64[45,10494]{1,0} multiply(%param_2.347, %pad.30.5), metadata={op_name="jit(_hybrid_kernel)/mul" stack_frame_id=71}
  %sub.44.3 = f64[45,10494]{1,0} subtract(%sub.43.3, %mul.64.5), metadata={op_name="jit(_hybrid_kernel)/sub" stack_frame_id=30}
  %slice.91.1 = f64[29,10494]{1,0} slice(%sub.44.3), slice={[0:29], [0:10494]}, metadata={op_name="jit(_hybrid_kernel)/slice" stack_frame_id=49}
  %pad.31.1 = f64[45,10494]{1,0} pad(%slice.91.1, %constant_41_16), padding=16_0x0_0, metadata={op_name="jit(_hybrid_kernel)/concatenate" stack_frame_id=48}
  %div.27.1 = f64[45,10494]{1,0} divide(%mul.61.3, %pad.31.1), metadata={op_name="jit(_hybrid_kernel)/div" stack_frame_id=46}
  %broadcast_in_dim.57.9 = f64[45,10494]{1,0} broadcast(%constant_41_16), dimensions={}, metadata={op_name="jit(_hybrid_kernel)/jit(_where)/broadcast_in_dim" stack_frame_id=27}
  %select_n.20.1 = f64[45,10494]{1,0} select(%broadcast_in_dim.88.3, %div.27.1, %broadcast_in_dim.57.9), metadata={op_name="jit(_hybrid_kernel)/jit(_where)/select_n" stack_frame_id=27}
  %iota.44.clone.1 = s64[45,1]{1,0} iota(), iota_dimension=0, metadata={op_name="jit(_hybrid_kernel)/iota" stack_frame_id=51}
  %add.17.5.clone.1 = s64[45,1]{1,0} add(%iota.44.clone.1, %broadcast.17.4), metadata={op_name="jit(_hybrid_kernel)/add" stack_frame_id=59}
  %constant_39_6_clone_1 = s64[] constant(45)
  %broadcast.25.14.clone.1 = s64[45,1]{1,0} broadcast(%constant_39_6_clone_1), dimensions={}
  %lt.14.3.clone.1 = pred[45,1]{1,0} compare(%add.17.5.clone.1, %broadcast.25.14.clone.1), direction=LT, metadata={op_name="jit(_hybrid_kernel)/lt" stack_frame_id=59}
  %bitcast.18.3.clone.1 = pred[45]{0} bitcast(%lt.14.3.clone.1), metadata={op_name="jit(_hybrid_kernel)/lt" stack_frame_id=59}
  %broadcast_in_dim.92.3.clone.1 = pred[45,10494]{1,0} broadcast(%bitcast.18.3.clone.1), dimensions={0}, metadata={op_name="jit(_hybrid_kernel)/jit(_where)/broadcast_in_dim" stack_frame_id=56}
  %neg.17.3.clone.1 = f64[45,10494]{1,0} negate(%param_2.347), metadata={op_name="jit(_hybrid_kernel)/neg" stack_frame_id=69}
  %slice.86.3.clone.1 = f64[37,10494]{1,0} slice(%param_4.195), slice={[8:45], [0:10494]}, metadata={op_name="jit(_hybrid_kernel)/slice" stack_frame_id=39}
  %pad.33.3.clone.1 = f64[45,10494]{1,0} pad(%slice.86.3.clone.1, %constant_41_16), padding=0_8x0_0, metadata={op_name="jit(_hybrid_kernel)/concatenate" stack_frame_id=70}
  %mul.62.3.clone.1 = f64[45,10494]{1,0} multiply(%neg.17.3.clone.1, %pad.33.3.clone.1), metadata={op_name="jit(_hybrid_kernel)/mul" stack_frame_id=69}
  %slice.92.1.clone.1 = f64[29,10494]{1,0} slice(%sub.44.3), slice={[16:45], [0:10494]}, metadata={op_name="jit(_hybrid_kernel)/slice" stack_frame_id=37}
  %pad.34.1.clone.1 = f64[45,10494]{1,0} pad(%slice.92.1.clone.1, %constant_41_16), padding=0_16x0_0, metadata={op_name="jit(_hybrid_kernel)/concatenate" stack_frame_id=58}
  %div.28.1.clone.1 = f64[45,10494]{1,0} divide(%mul.62.3.clone.1, %pad.34.1.clone.1), metadata={op_name="jit(_hybrid_kernel)/div" stack_frame_id=57}
  %select_n.21.1.clone.1 = f64[45,10494]{1,0} select(%broadcast_in_dim.92.3.clone.1, %div.28.1.clone.1, %broadcast_in_dim.57.9), metadata={op_name="jit(_hybrid_kernel)/jit(_where)/select_n" stack_frame_id=56}
  ROOT %tuple.6 = (f64[45,10494]{1,0}, f64[45,10494]{1,0}) tuple(%select_n.20.1, %select_n.21.1.clone.1)
}

%fused_divide.1 (param_0.400: f64[45,10494], param_1.429: f64[45,10494], param_2.344: f64[45,10494], param_3.253: f64[45,10494], param_4.192: f64[45,10494], param_5.156: f64[45,10494], param_6.115: f64[45,10494], param_7.86: f64[45,10494]) -> f64[45,10494] {
  %param_7.86 = f64[45,10494]{1,0} parameter(7)
  %param_5.156 = f64[45,10494]{1,0} parameter(5)
  %slice.89.3 = f64[37,10494]{1,0} slice(%param_7.86), slice={[0:37], [0:10494]}, metadata={op_name="jit(_hybrid_kernel)/slice" stack_frame_id=68}
  %constant_41_13 = f64[] constant(0)
  %pad.24.5 = f64[45,10494]{1,0} pad(%slice.89.3, %constant_41_13), padding=8_0x0_0, metadata={op_name="jit(_hybrid_kernel)/concatenate" stack_frame_id=67}
  %mul.65.5 = f64[45,10494]{1,0} multiply(%param_5.156, %pad.24.5), metadata={op_name="jit(_hybrid_kernel)/mul" stack_frame_id=65}
  %sub.45.3 = f64[45,10494]{1,0} subtract(%param_7.86, %mul.65.5), metadata={op_name="jit(_hybrid_kernel)/sub" stack_frame_id=60}
  %param_3.253 = f64[45,10494]{1,0} parameter(3)
  %slice.90.3 = f64[37,10494]{1,0} slice(%param_7.86), slice={[8:45], [0:10494]}, metadata={op_name="jit(_hybrid_kernel)/slice" stack_frame_id=64}
  %pad.27.5 = f64[45,10494]{1,0} pad(%slice.90.3, %constant_41_13), padding=0_8x0_0, metadata={op_name="jit(_hybrid_kernel)/concatenate" stack_frame_id=63}
  %mul.66.5 = f64[45,10494]{1,0} multiply(%param_3.253, %pad.27.5), metadata={op_name="jit(_hybrid_kernel)/mul" stack_frame_id=61}
  %sub.46.3 = f64[45,10494]{1,0} subtract(%sub.45.3, %mul.66.5), metadata={op_name="jit(_hybrid_kernel)/sub" stack_frame_id=60}
  %param_1.429 = f64[45,10494]{1,0} parameter(1)
  %slice.97.3 = f64[29,10494]{1,0} slice(%sub.46.3), slice={[0:29], [0:10494]}, metadata={op_name="jit(_hybrid_kernel)/slice" stack_frame_id=68}
  %pad.32.5 = f64[45,10494]{1,0} pad(%slice.97.3, %constant_41_13), padding=16_0x0_0, metadata={op_name="jit(_hybrid_kernel)/concatenate" stack_frame_id=67}
  %mul.71.5 = f64[45,10494]{1,0} multiply(%param_1.429, %pad.32.5), metadata={op_name="jit(_hybrid_kernel)/mul" stack_frame_id=65}
  %sub.49.3 = f64[45,10494]{1,0} subtract(%sub.46.3, %mul.71.5), metadata={op_name="jit(_hybrid_kernel)/sub" stack_frame_id=60}
  %param_0.400 = f64[45,10494]{1,0} parameter(0)
  %slice.98.3 = f64[29,10494]{1,0} slice(%sub.46.3), slice={[16:45], [0:10494]}, metadata={op_name="jit(_hybrid_kernel)/slice" stack_frame_id=64}
  %pad.35.5 = f64[45,10494]{1,0} pad(%slice.98.3, %constant_41_13), padding=0_16x0_0, metadata={op_name="jit(_hybrid_kernel)/concatenate" stack_frame_id=63}
  %mul.72.5 = f64[45,10494]{1,0} multiply(%param_0.400, %pad.35.5), metadata={op_name="jit(_hybrid_kernel)/mul" stack_frame_id=61}
  %sub.50.3 = f64[45,10494]{1,0} subtract(%sub.49.3, %mul.72.5), metadata={op_name="jit(_hybrid_kernel)/sub" stack_frame_id=60}
  %iota.28 = s64[45,1]{1,0} iota(), iota_dimension=0, metadata={op_name="jit(_hybrid_kernel)/iota" stack_frame_id=51}
  %constant_29_1 = s64[] constant(32)
  %broadcast.15.4 = s64[45,1]{1,0} broadcast(%constant_29_1), dimensions={}
  %ge.11.3 = pred[45,1]{1,0} compare(%iota.28, %broadcast.15.4), direction=GE, metadata={op_name="jit(_hybrid_kernel)/ge" stack_frame_id=50}
  %bitcast.19.3 = pred[45]{0} bitcast(%ge.11.3), metadata={op_name="jit(_hybrid_kernel)/ge" stack_frame_id=50}
  %broadcast_in_dim.96.3 = pred[45,10494]{1,0} broadcast(%bitcast.19.3), dimensions={0}, metadata={op_name="jit(_hybrid_kernel)/jit(_where)/broadcast_in_dim" stack_frame_id=27}
  %neg.18.4 = f64[45,10494]{1,0} negate(%param_1.429), metadata={op_name="jit(_hybrid_kernel)/neg" stack_frame_id=52}
  %neg.16.27 = f64[45,10494]{1,0} negate(%param_5.156), metadata={op_name="jit(_hybrid_kernel)/neg" stack_frame_id=52}
  %param_4.192 = f64[45,10494]{1,0} parameter(4)
  %slice.85.27 = f64[37,10494]{1,0} slice(%param_4.192), slice={[0:37], [0:10494]}, metadata={op_name="jit(_hybrid_kernel)/slice" stack_frame_id=55}
  %pad.28.27 = f64[45,10494]{1,0} pad(%slice.85.27, %constant_41_13), padding=8_0x0_0, metadata={op_name="jit(_hybrid_kernel)/concatenate" stack_frame_id=54}
  %mul.61.27 = f64[45,10494]{1,0} multiply(%neg.16.27, %pad.28.27), metadata={op_name="jit(_hybrid_kernel)/mul" stack_frame_id=52}
  %slice.93.7 = f64[29,10494]{1,0} slice(%mul.61.27), slice={[0:29], [0:10494]}, metadata={op_name="jit(_hybrid_kernel)/slice" stack_frame_id=55}
  %pad.36.4 = f64[45,10494]{1,0} pad(%slice.93.7, %constant_41_13), padding=16_0x0_0, metadata={op_name="jit(_hybrid_kernel)/concatenate" stack_frame_id=54}
  %mul.67.6 = f64[45,10494]{1,0} multiply(%neg.18.4, %pad.36.4), metadata={op_name="jit(_hybrid_kernel)/mul" stack_frame_id=52}
  %param_6.115 = f64[45,10494]{1,0} parameter(6)
  %param_2.344 = f64[45,10494]{1,0} parameter(2)
  %slice.87.19 = f64[37,10494]{1,0} slice(%param_2.344), slice={[0:37], [0:10494]}, metadata={op_name="jit(_hybrid_kernel)/slice" stack_frame_id=76}
  %pad.29.21 = f64[45,10494]{1,0} pad(%slice.87.19, %constant_41_13), padding=8_0x0_0, metadata={op_name="jit(_hybrid_kernel)/concatenate" stack_frame_id=75}
  %mul.63.21 = f64[45,10494]{1,0} multiply(%param_5.156, %pad.29.21), metadata={op_name="jit(_hybrid_kernel)/mul" stack_frame_id=73}
  %sub.43.19 = f64[45,10494]{1,0} subtract(%param_6.115, %mul.63.21), metadata={op_name="jit(_hybrid_kernel)/sub" stack_frame_id=30}
  %slice.88.19 = f64[37,10494]{1,0} slice(%param_4.192), slice={[8:45], [0:10494]}, metadata={op_name="jit(_hybrid_kernel)/slice" stack_frame_id=35}
  %pad.30.21 = f64[45,10494]{1,0} pad(%slice.88.19, %constant_41_13), padding=0_8x0_0, metadata={op_name="jit(_hybrid_kernel)/concatenate" stack_frame_id=72}
  %mul.64.21 = f64[45,10494]{1,0} multiply(%param_3.253, %pad.30.21), metadata={op_name="jit(_hybrid_kernel)/mul" stack_frame_id=71}
  %sub.44.19 = f64[45,10494]{1,0} subtract(%sub.43.19, %mul.64.21), metadata={op_name="jit(_hybrid_kernel)/sub" stack_frame_id=30}
  %neg.17.27 = f64[45,10494]{1,0} negate(%param_3.253), metadata={op_name="jit(_hybrid_kernel)/neg" stack_frame_id=69}
  %slice.86.27 = f64[37,10494]{1,0} slice(%param_2.344), slice={[8:45], [0:10494]}, metadata={op_name="jit(_hybrid_kernel)/slice" stack_frame_id=39}
  %pad.33.27 = f64[45,10494]{1,0} pad(%slice.86.27, %constant_41_13), padding=0_8x0_0, metadata={op_name="jit(_hybrid_kernel)/concatenate" stack_frame_id=70}
  %mul.62.27 = f64[45,10494]{1,0} multiply(%neg.17.27, %pad.33.27), metadata={op_name="jit(_hybrid_kernel)/mul" stack_frame_id=69}
  %slice.95.15 = f64[29,10494]{1,0} slice(%mul.62.27), slice={[0:29], [0:10494]}, metadata={op_name="jit(_hybrid_kernel)/slice" stack_frame_id=76}
  %pad.37.15 = f64[45,10494]{1,0} pad(%slice.95.15, %constant_41_13), padding=16_0x0_0, metadata={op_name="jit(_hybrid_kernel)/concatenate" stack_frame_id=75}
  %mul.69.15 = f64[45,10494]{1,0} multiply(%param_1.429, %pad.37.15), metadata={op_name="jit(_hybrid_kernel)/mul" stack_frame_id=73}
  %sub.47.13 = f64[45,10494]{1,0} subtract(%sub.44.19, %mul.69.15), metadata={op_name="jit(_hybrid_kernel)/sub" stack_frame_id=30}
  %slice.96.15 = f64[29,10494]{1,0} slice(%mul.61.27), slice={[16:45], [0:10494]}, metadata={op_name="jit(_hybrid_kernel)/slice" stack_frame_id=35}
  %pad.38.15 = f64[45,10494]{1,0} pad(%slice.96.15, %constant_41_13), padding=0_16x0_0, metadata={op_name="jit(_hybrid_kernel)/concatenate" stack_frame_id=72}
  %mul.70.15 = f64[45,10494]{1,0} multiply(%param_0.400, %pad.38.15), metadata={op_name="jit(_hybrid_kernel)/mul" stack_frame_id=71}
  %sub.48.13 = f64[45,10494]{1,0} subtract(%sub.47.13, %mul.70.15), metadata={op_name="jit(_hybrid_kernel)/sub" stack_frame_id=30}
  %slice.99.5 = f64[13,10494]{1,0} slice(%sub.48.13), slice={[0:13], [0:10494]}, metadata={op_name="jit(_hybrid_kernel)/slice" stack_frame_id=49}
  %pad.39.3 = f64[45,10494]{1,0} pad(%slice.99.5, %constant_41_13), padding=32_0x0_0, metadata={op_name="jit(_hybrid_kernel)/concatenate" stack_frame_id=48}
  %div.29.5 = f64[45,10494]{1,0} divide(%mul.67.6, %pad.39.3), metadata={op_name="jit(_hybrid_kernel)/div" stack_frame_id=46}
  %broadcast_in_dim.57.28 = f64[45,10494]{1,0} broadcast(%constant_41_13), dimensions={}, metadata={op_name="jit(_hybrid_kernel)/jit(_where)/broadcast_in_dim" stack_frame_id=27}
  %select_n.22.3 = f64[45,10494]{1,0} select(%broadcast_in_dim.96.3, %div.29.5, %broadcast_in_dim.57.28), metadata={op_name="jit(_hybrid_kernel)/jit(_where)/select_n" stack_frame_id=27}
  %slice.103.1 = f64[13,10494]{1,0} slice(%sub.50.3), slice={[0:13], [0:10494]}, metadata={op_name="jit(_hybrid_kernel)/slice" stack_frame_id=68}
  %pad.40.5 = f64[45,10494]{1,0} pad(%slice.103.1, %constant_41_13), padding=32_0x0_0, metadata={op_name="jit(_hybrid_kernel)/concatenate" stack_frame_id=67}
  %mul.75.5 = f64[45,10494]{1,0} multiply(%select_n.22.3, %pad.40.5), metadata={op_name="jit(_hybrid_kernel)/mul" stack_frame_id=65}
  %sub.53.3 = f64[45,10494]{1,0} subtract(%sub.50.3, %mul.75.5), metadata={op_name="jit(_hybrid_kernel)/sub" stack_frame_id=60}
  %iota.40 = s64[45,1]{1,0} iota(), iota_dimension=0, metadata={op_name="jit(_hybrid_kernel)/iota" stack_frame_id=51}
  %add.18.5 = s64[45,1]{1,0} add(%iota.40, %broadcast.15.4), metadata={op_name="jit(_hybrid_kernel)/add" stack_frame_id=59}
  %constant_39_1 = s64[] constant(45)
  %broadcast.25.12 = s64[45,1]{1,0} broadcast(%constant_39_1), dimensions={}
  %lt.15.3 = pred[45,1]{1,0} compare(%add.18.5, %broadcast.25.12), direction=LT, metadata={op_name="jit(_hybrid_kernel)/lt" stack_frame_id=59}
  %bitcast.20.3 = pred[45]{0} bitcast(%lt.15.3), metadata={op_name="jit(_hybrid_kernel)/lt" stack_frame_id=59}
  %broadcast_in_dim.100.3 = pred[45,10494]{1,0} broadcast(%bitcast.20.3), dimensions={0}, metadata={op_name="jit(_hybrid_kernel)/jit(_where)/broadcast_in_dim" stack_frame_id=56}
  %neg.19.4 = f64[45,10494]{1,0} negate(%param_0.400), metadata={op_name="jit(_hybrid_kernel)/neg" stack_frame_id=69}
  %slice.94.7 = f64[29,10494]{1,0} slice(%mul.62.27), slice={[16:45], [0:10494]}, metadata={op_name="jit(_hybrid_kernel)/slice" stack_frame_id=39}
  %pad.41.4 = f64[45,10494]{1,0} pad(%slice.94.7, %constant_41_13), padding=0_16x0_0, metadata={op_name="jit(_hybrid_kernel)/concatenate" stack_frame_id=70}
  %mul.68.6 = f64[45,10494]{1,0} multiply(%neg.19.4, %pad.41.4), metadata={op_name="jit(_hybrid_kernel)/mul" stack_frame_id=69}
  %slice.100.3 = f64[13,10494]{1,0} slice(%sub.48.13), slice={[32:45], [0:10494]}, metadata={op_name="jit(_hybrid_kernel)/slice" stack_frame_id=37}
  %pad.42.3 = f64[45,10494]{1,0} pad(%slice.100.3, %constant_41_13), padding=0_32x0_0, metadata={op_name="jit(_hybrid_kernel)/concatenate" stack_frame_id=58}
  %div.30.5 = f64[45,10494]{1,0} divide(%mul.68.6, %pad.42.3), metadata={op_name="jit(_hybrid_kernel)/div" stack_frame_id=57}
  %select_n.23.3 = f64[45,10494]{1,0} select(%broadcast_in_dim.100.3, %div.30.5, %broadcast_in_dim.57.28), metadata={op_name="jit(_hybrid_kernel)/jit(_where)/select_n" stack_frame_id=56}
  %slice.104.1 = f64[13,10494]{1,0} slice(%sub.50.3), slice={[32:45], [0:10494]}, metadata={op_name="jit(_hybrid_kernel)/slice" stack_frame_id=64}
  %pad.43.5 = f64[45,10494]{1,0} pad(%slice.104.1, %constant_41_13), padding=0_32x0_0, metadata={op_name="jit(_hybrid_kernel)/concatenate" stack_frame_id=63}
  %mul.76.5 = f64[45,10494]{1,0} multiply(%select_n.23.3, %pad.43.5), metadata={op_name="jit(_hybrid_kernel)/mul" stack_frame_id=61}
  %sub.54.3 = f64[45,10494]{1,0} subtract(%sub.53.3, %mul.76.5), metadata={op_name="jit(_hybrid_kernel)/sub" stack_frame_id=60}
  %slice.101.3 = f64[13,10494]{1,0} slice(%mul.68.6), slice={[0:13], [0:10494]}, metadata={op_name="jit(_hybrid_kernel)/slice" stack_frame_id=76}
  %pad.44.5 = f64[45,10494]{1,0} pad(%slice.101.3, %constant_41_13), padding=32_0x0_0, metadata={op_name="jit(_hybrid_kernel)/concatenate" stack_frame_id=75}
  %mul.73.5 = f64[45,10494]{1,0} multiply(%select_n.22.3, %pad.44.5), metadata={op_name="jit(_hybrid_kernel)/mul" stack_frame_id=73}
  %sub.51.3 = f64[45,10494]{1,0} subtract(%sub.48.13, %mul.73.5), metadata={op_name="jit(_hybrid_kernel)/sub" stack_frame_id=30}
  %slice.102.3 = f64[13,10494]{1,0} slice(%mul.67.6), slice={[32:45], [0:10494]}, metadata={op_name="jit(_hybrid_kernel)/slice" stack_frame_id=35}
  %pad.45.1 = f64[45,10494]{1,0} pad(%slice.102.3, %constant_41_13), padding=0_32x0_0, metadata={op_name="jit(_hybrid_kernel)/concatenate" stack_frame_id=72}
  %mul.74.1 = f64[45,10494]{1,0} multiply(%select_n.23.3, %pad.45.1), metadata={op_name="jit(_hybrid_kernel)/mul" stack_frame_id=71}
  %sub.52.1 = f64[45,10494]{1,0} subtract(%sub.51.3, %mul.74.1), metadata={op_name="jit(_hybrid_kernel)/sub" stack_frame_id=30}
  ROOT %div.31.1 = f64[45,10494]{1,0} divide(%sub.54.3, %sub.52.1), metadata={op_name="jit(_hybrid_kernel)/div" stack_frame_id=29}
}

%fused_select_subtract (param_0.402: f64[45,10494], param_1.440: f64[45,10494], param_2.361: f64[45,10494], param_3.270: f64[45,10494], param_4.212: f64[45,10494], param_5.192: f64[45,10494], param_6.153: f64[44,10494], param_7.121: f64[45,10494]) -> (f64[45,10494], f64[45,10494], f64[45,10494]) {
  %param_0.402 = f64[45,10494]{1,0} parameter(0)
  %iota.32.clone.1 = s64[45,1]{1,0} iota(), iota_dimension=0, metadata={op_name="jit(_hybrid_kernel)/iota" stack_frame_id=51}
  %constant_35_3 = s64[] constant(4)
  %broadcast.21.4.clone.1 = s64[45,1]{1,0} broadcast(%constant_35_3), dimensions={}
  %ge.8.3.clone.1 = pred[45,1]{1,0} compare(%iota.32.clone.1, %broadcast.21.4.clone.1), direction=GE, metadata={op_name="jit(_hybrid_kernel)/ge" stack_frame_id=50}
  %bitcast.13.3.clone.1 = pred[45]{0} bitcast(%ge.8.3.clone.1), metadata={op_name="jit(_hybrid_kernel)/ge" stack_frame_id=50}
  %broadcast_in_dim.72.3.clone.1 = pred[45,10494]{1,0} broadcast(%bitcast.13.3.clone.1), dimensions={0}, metadata={op_name="jit(_hybrid_kernel)/jit(_where)/broadcast_in_dim" stack_frame_id=27}
  %param_3.270 = f64[45,10494]{1,0} parameter(3)
  %neg.12.3.clone.1 = f64[45,10494]{1,0} negate(%param_3.270), metadata={op_name="jit(_hybrid_kernel)/neg" stack_frame_id=52}
  %param_2.361 = f64[45,10494]{1,0} parameter(2)
  %slice.69.3.clone.1 = f64[43,10494]{1,0} slice(%param_2.361), slice={[0:43], [0:10494]}, metadata={op_name="jit(_hybrid_kernel)/slice" stack_frame_id=55}
  %constant_41_15 = f64[] constant(0)
  %pad.12.3.clone.1 = f64[45,10494]{1,0} pad(%slice.69.3.clone.1, %constant_41_15), padding=2_0x0_0, metadata={op_name="jit(_hybrid_kernel)/concatenate" stack_frame_id=54}
  %mul.49.3.clone.1 = f64[45,10494]{1,0} multiply(%neg.12.3.clone.1, %pad.12.3.clone.1), metadata={op_name="jit(_hybrid_kernel)/mul" stack_frame_id=52}
  %slice.75.1.clone.1 = f64[41,10494]{1,0} slice(%param_0.402), slice={[0:41], [0:10494]}, metadata={op_name="jit(_hybrid_kernel)/slice" stack_frame_id=49}
  %pad.15.1.clone.1 = f64[45,10494]{1,0} pad(%slice.75.1.clone.1, %constant_41_15), padding=4_0x0_0, metadata={op_name="jit(_hybrid_kernel)/concatenate" stack_frame_id=48}
  %div.23.1.clone.1 = f64[45,10494]{1,0} divide(%mul.49.3.clone.1, %pad.15.1.clone.1), metadata={op_name="jit(_hybrid_kernel)/div" stack_frame_id=46}
  %broadcast_in_dim.57.5.clone.1 = f64[45,10494]{1,0} broadcast(%constant_41_15), dimensions={}, metadata={op_name="jit(_hybrid_kernel)/jit(_where)/broadcast_in_dim" stack_frame_id=27}
  %select_n.16.1.clone.1 = f64[45,10494]{1,0} select(%broadcast_in_dim.72.3.clone.1, %div.23.1.clone.1, %broadcast_in_dim.57.5.clone.1), metadata={op_name="jit(_hybrid_kernel)/jit(_where)/select_n" stack_frame_id=27}
  %param_1.440 = f64[45,10494]{1,0} parameter(1)
  %slice.79.1 = f64[41,10494]{1,0} slice(%param_1.440), slice={[0:41], [0:10494]}, metadata={op_name="jit(_hybrid_kernel)/slice" stack_frame_id=76}
  %pad.21.3 = f64[45,10494]{1,0} pad(%slice.79.1, %constant_41_15), padding=4_0x0_0, metadata={op_name="jit(_hybrid_kernel)/concatenate" stack_frame_id=75}
  %mul.57.3 = f64[45,10494]{1,0} multiply(%select_n.16.1.clone.1, %pad.21.3), metadata={op_name="jit(_hybrid_kernel)/mul" stack_frame_id=73}
  %sub.39.1 = f64[45,10494]{1,0} subtract(%param_0.402, %mul.57.3), metadata={op_name="jit(_hybrid_kernel)/sub" stack_frame_id=30}
  %iota.52 = s64[45,1]{1,0} iota(), iota_dimension=0, metadata={op_name="jit(_hybrid_kernel)/iota" stack_frame_id=51}
  %add.15.5 = s64[45,1]{1,0} add(%iota.52, %broadcast.21.4.clone.1), metadata={op_name="jit(_hybrid_kernel)/add" stack_frame_id=59}
  %constant_39_7 = s64[] constant(45)
  %broadcast.25.16 = s64[45,1]{1,0} broadcast(%constant_39_7), dimensions={}
  %lt.12.3 = pred[45,1]{1,0} compare(%add.15.5, %broadcast.25.16), direction=LT, metadata={op_name="jit(_hybrid_kernel)/lt" stack_frame_id=59}
  %bitcast.14.7 = pred[45]{0} bitcast(%lt.12.3), metadata={op_name="jit(_hybrid_kernel)/lt" stack_frame_id=59}
  %broadcast_in_dim.76.7 = pred[45,10494]{1,0} broadcast(%bitcast.14.7), dimensions={0}, metadata={op_name="jit(_hybrid_kernel)/jit(_where)/broadcast_in_dim" stack_frame_id=56}
  %slice.76.5 = f64[41,10494]{1,0} slice(%param_0.402), slice={[4:45], [0:10494]}, metadata={op_name="jit(_hybrid_kernel)/slice" stack_frame_id=37}
  %pad.18.5 = f64[45,10494]{1,0} pad(%slice.76.5, %constant_41_15), padding=0_4x0_0, metadata={op_name="jit(_hybrid_kernel)/concatenate" stack_frame_id=58}
  %div.24.5 = f64[45,10494]{1,0} divide(%param_1.440, %pad.18.5), metadata={op_name="jit(_hybrid_kernel)/div" stack_frame_id=57}
  %select_n.17.5 = f64[45,10494]{1,0} select(%broadcast_in_dim.76.7, %div.24.5, %broadcast_in_dim.57.5.clone.1), metadata={op_name="jit(_hybrid_kernel)/jit(_where)/select_n" stack_frame_id=56}
  %slice.80.1 = f64[41,10494]{1,0} slice(%mul.49.3.clone.1), slice={[4:45], [0:10494]}, metadata={op_name="jit(_hybrid_kernel)/slice" stack_frame_id=35}
  %pad.22.3 = f64[45,10494]{1,0} pad(%slice.80.1, %constant_41_15), padding=0_4x0_0, metadata={op_name="jit(_hybrid_kernel)/concatenate" stack_frame_id=72}
  %mul.58.3 = f64[45,10494]{1,0} multiply(%select_n.17.5, %pad.22.3), metadata={op_name="jit(_hybrid_kernel)/mul" stack_frame_id=71}
  %sub.40.1 = f64[45,10494]{1,0} subtract(%sub.39.1, %mul.58.3), metadata={op_name="jit(_hybrid_kernel)/sub" stack_frame_id=30}
  %param_4.212 = f64[45,10494]{1,0} parameter(4)
  %slice.73.1.clone.1 = f64[43,10494]{1,0} slice(%param_4.212), slice={[0:43], [0:10494]}, metadata={op_name="jit(_hybrid_kernel)/slice" stack_frame_id=68}
  %pad.8.3.clone.1 = f64[45,10494]{1,0} pad(%slice.73.1.clone.1, %constant_41_15), padding=2_0x0_0, metadata={op_name="jit(_hybrid_kernel)/concatenate" stack_frame_id=67}
  %mul.53.3.clone.1 = f64[45,10494]{1,0} multiply(%param_3.270, %pad.8.3.clone.1), metadata={op_name="jit(_hybrid_kernel)/mul" stack_frame_id=65}
  %sub.37.1.clone.1 = f64[45,10494]{1,0} subtract(%param_4.212, %mul.53.3.clone.1), metadata={op_name="jit(_hybrid_kernel)/sub" stack_frame_id=60}
  %iota.62.clone.1 = s64[45,1]{1,0} iota(), iota_dimension=0, metadata={op_name="jit(_hybrid_kernel)/iota" stack_frame_id=51}
  %constant_37_1_clone_1 = s64[] constant(2)
  %broadcast.23.10.clone.1 = s64[45,1]{1,0} broadcast(%constant_37_1_clone_1), dimensions={}
  %add.14.9.clone.1 = s64[45,1]{1,0} add(%iota.62.clone.1, %broadcast.23.10.clone.1), metadata={op_name="jit(_hybrid_kernel)/add" stack_frame_id=59}
  %lt.11.7.clone.1 = pred[45,1]{1,0} compare(%add.14.9.clone.1, %broadcast.25.16), direction=LT, metadata={op_name="jit(_hybrid_kernel)/lt" stack_frame_id=59}
  %bitcast.12.5.clone.1 = pred[45]{0} bitcast(%lt.11.7.clone.1), metadata={op_name="jit(_hybrid_kernel)/lt" stack_frame_id=59}
  %broadcast_in_dim.68.5.clone.1 = pred[45,10494]{1,0} broadcast(%bitcast.12.5.clone.1), dimensions={0}, metadata={op_name="jit(_hybrid_kernel)/jit(_where)/broadcast_in_dim" stack_frame_id=56}
  %param_7.121 = f64[45,10494]{1,0} parameter(7)
  %neg.11.3.clone.1 = f64[45,10494]{1,0} negate(%param_7.121), metadata={op_name="jit(_hybrid_kernel)/neg" stack_frame_id=69}
  %param_6.153 = f64[44,10494]{1,0} parameter(6)
  %pad.9.3.clone.1 = f64[45,10494]{1,0} pad(%param_6.153, %constant_41_15), padding=0_1x0_0, metadata={op_name="jit(_hybrid_kernel)/concatenate" stack_frame_id=70}
  %mul.44.3.clone.1 = f64[45,10494]{1,0} multiply(%neg.11.3.clone.1, %pad.9.3.clone.1), metadata={op_name="jit(_hybrid_kernel)/mul" stack_frame_id=69}
  %param_5.192 = f64[45,10494]{1,0} parameter(5)
  %slice.68.3.clone.1 = f64[43,10494]{1,0} slice(%param_5.192), slice={[2:45], [0:10494]}, metadata={op_name="jit(_hybrid_kernel)/slice" stack_frame_id=37}
  %pad.10.3.clone.1 = f64[45,10494]{1,0} pad(%slice.68.3.clone.1, %constant_41_15), padding=0_2x0_0, metadata={op_name="jit(_hybrid_kernel)/concatenate" stack_frame_id=58}
  %div.22.3.clone.1 = f64[45,10494]{1,0} divide(%mul.44.3.clone.1, %pad.10.3.clone.1), metadata={op_name="jit(_hybrid_kernel)/div" stack_frame_id=57}
  %select_n.15.3.clone.1 = f64[45,10494]{1,0} select(%broadcast_in_dim.68.5.clone.1, %div.22.3.clone.1, %broadcast_in_dim.57.5.clone.1), metadata={op_name="jit(_hybrid_kernel)/jit(_where)/select_n" stack_frame_id=56}
  %slice.74.1.clone.1 = f64[43,10494]{1,0} slice(%param_4.212), slice={[2:45], [0:10494]}, metadata={op_name="jit(_hybrid_kernel)/slice" stack_frame_id=64}
  %pad.11.3.clone.1 = f64[45,10494]{1,0} pad(%slice.74.1.clone.1, %constant_41_15), padding=0_2x0_0, metadata={op_name="jit(_hybrid_kernel)/concatenate" stack_frame_id=63}
  %mul.54.3.clone.1 = f64[45,10494]{1,0} multiply(%select_n.15.3.clone.1, %pad.11.3.clone.1), metadata={op_name="jit(_hybrid_kernel)/mul" stack_frame_id=61}
  %sub.38.1.clone.1 = f64[45,10494]{1,0} subtract(%sub.37.1.clone.1, %mul.54.3.clone.1), metadata={op_name="jit(_hybrid_kernel)/sub" stack_frame_id=60}
  ROOT %tuple.13 = (f64[45,10494]{1,0}, f64[45,10494]{1,0}, f64[45,10494]{1,0}) tuple(%sub.40.1, %select_n.16.1.clone.1, %sub.38.1.clone.1)
}

%fused_multiply_select_subtract.1 (param_0.397: f64[45,10494], param_1.441: f64[45,10494], param_2.362: f64[44,10494], param_3.271: f64[45,10494]) -> (f64[45,10494], f64[45,10494], f64[45,10494]) {
  %param_0.397 = f64[45,10494]{1,0} parameter(0)
  %iota.34.clone.1 = s64[45,1]{1,0} iota(), iota_dimension=0, metadata={op_name="jit(_hybrid_kernel)/iota" stack_frame_id=51}
  %constant_37_3 = s64[] constant(2)
  %broadcast.23.4.clone.1 = s64[45,1]{1,0} broadcast(%constant_37_3), dimensions={}
  %ge.7.3.clone.1 = pred[45,1]{1,0} compare(%iota.34.clone.1, %broadcast.23.4.clone.1), direction=GE, metadata={op_name="jit(_hybrid_kernel)/ge" stack_frame_id=50}
  %bitcast.11.3.clone.1 = pred[45]{0} bitcast(%ge.7.3.clone.1), metadata={op_name="jit(_hybrid_kernel)/ge" stack_frame_id=50}
  %broadcast_in_dim.64.3.clone.1 = pred[45,10494]{1,0} broadcast(%bitcast.11.3.clone.1), dimensions={0}, metadata={op_name="jit(_hybrid_kernel)/jit(_where)/broadcast_in_dim" stack_frame_id=27}
  %param_1.441 = f64[45,10494]{1,0} parameter(1)
  %slice.67.1.clone.1 = f64[43,10494]{1,0} slice(%param_0.397), slice={[0:43], [0:10494]}, metadata={op_name="jit(_hybrid_kernel)/slice" stack_frame_id=49}
  %constant_41_9 = f64[] constant(0)
  %pad.7.1.clone.1 = f64[45,10494]{1,0} pad(%slice.67.1.clone.1, %constant_41_9), padding=2_0x0_0, metadata={op_name="jit(_hybrid_kernel)/concatenate" stack_frame_id=48}
  %div.21.1.clone.1 = f64[45,10494]{1,0} divide(%param_1.441, %pad.7.1.clone.1), metadata={op_name="jit(_hybrid_kernel)/div" stack_frame_id=46}
  %broadcast_in_dim.57.3.clone.1 = f64[45,10494]{1,0} broadcast(%constant_41_9), dimensions={}, metadata={op_name="jit(_hybrid_kernel)/jit(_where)/broadcast_in_dim" stack_frame_id=27}
  %select_n.14.1.clone.1 = f64[45,10494]{1,0} select(%broadcast_in_dim.64.3.clone.1, %div.21.1.clone.1, %broadcast_in_dim.57.3.clone.1), metadata={op_name="jit(_hybrid_kernel)/jit(_where)/select_n" stack_frame_id=27}
  %param_3.271 = f64[45,10494]{1,0} parameter(3)
  %neg.11.5 = f64[45,10494]{1,0} negate(%param_3.271), metadata={op_name="jit(_hybrid_kernel)/neg" stack_frame_id=69}
  %param_2.362 = f64[44,10494]{1,0} parameter(2)
  %pad.9.5 = f64[45,10494]{1,0} pad(%param_2.362, %constant_41_9), padding=0_1x0_0, metadata={op_name="jit(_hybrid_kernel)/concatenate" stack_frame_id=70}
  %mul.44.5 = f64[45,10494]{1,0} multiply(%neg.11.5, %pad.9.5), metadata={op_name="jit(_hybrid_kernel)/mul" stack_frame_id=69}
  %slice.71.1 = f64[43,10494]{1,0} slice(%mul.44.5), slice={[0:43], [0:10494]}, metadata={op_name="jit(_hybrid_kernel)/slice" stack_frame_id=76}
  %pad.13.3 = f64[45,10494]{1,0} pad(%slice.71.1, %constant_41_9), padding=2_0x0_0, metadata={op_name="jit(_hybrid_kernel)/concatenate" stack_frame_id=75}
  %mul.51.3 = f64[45,10494]{1,0} multiply(%select_n.14.1.clone.1, %pad.13.3), metadata={op_name="jit(_hybrid_kernel)/mul" stack_frame_id=73}
  %sub.35.1 = f64[45,10494]{1,0} subtract(%param_0.397, %mul.51.3), metadata={op_name="jit(_hybrid_kernel)/sub" stack_frame_id=30}
  %iota.58 = s64[45,1]{1,0} iota(), iota_dimension=0, metadata={op_name="jit(_hybrid_kernel)/iota" stack_frame_id=51}
  %add.14.5 = s64[45,1]{1,0} add(%iota.58, %broadcast.23.4.clone.1), metadata={op_name="jit(_hybrid_kernel)/add" stack_frame_id=59}
  %constant_39_9 = s64[] constant(45)
  %broadcast.25.22 = s64[45,1]{1,0} broadcast(%constant_39_9), dimensions={}
  %lt.11.3 = pred[45,1]{1,0} compare(%add.14.5, %broadcast.25.22), direction=LT, metadata={op_name="jit(_hybrid_kernel)/lt" stack_frame_id=59}
  %bitcast.12.7 = pred[45]{0} bitcast(%lt.11.3), metadata={op_name="jit(_hybrid_kernel)/lt" stack_frame_id=59}
  %broadcast_in_dim.68.7 = pred[45,10494]{1,0} broadcast(%bitcast.12.7), dimensions={0}, metadata={op_name="jit(_hybrid_kernel)/jit(_where)/broadcast_in_dim" stack_frame_id=56}
  %slice.68.5 = f64[43,10494]{1,0} slice(%param_0.397), slice={[2:45], [0:10494]}, metadata={op_name="jit(_hybrid_kernel)/slice" stack_frame_id=37}
  %pad.10.5 = f64[45,10494]{1,0} pad(%slice.68.5, %constant_41_9), padding=0_2x0_0, metadata={op_name="jit(_hybrid_kernel)/concatenate" stack_frame_id=58}
  %div.22.5 = f64[45,10494]{1,0} divide(%mul.44.5, %pad.10.5), metadata={op_name="jit(_hybrid_kernel)/div" stack_frame_id=57}
  %select_n.15.5 = f64[45,10494]{1,0} select(%broadcast_in_dim.68.7, %div.22.5, %broadcast_in_dim.57.3.clone.1), metadata={op_name="jit(_hybrid_kernel)/jit(_where)/select_n" stack_frame_id=56}
  %slice.72.1 = f64[43,10494]{1,0} slice(%param_1.441), slice={[2:45], [0:10494]}, metadata={op_name="jit(_hybrid_kernel)/slice" stack_frame_id=35}
  %pad.14.3 = f64[45,10494]{1,0} pad(%slice.72.1, %constant_41_9), padding=0_2x0_0, metadata={op_name="jit(_hybrid_kernel)/concatenate" stack_frame_id=72}
  %mul.52.3 = f64[45,10494]{1,0} multiply(%select_n.15.5, %pad.14.3), metadata={op_name="jit(_hybrid_kernel)/mul" stack_frame_id=71}
  %sub.36.1 = f64[45,10494]{1,0} subtract(%sub.35.1, %mul.52.3), metadata={op_name="jit(_hybrid_kernel)/sub" stack_frame_id=30}
  %neg.13.1.clone.1 = f64[45,10494]{1,0} negate(%select_n.15.5), metadata={op_name="jit(_hybrid_kernel)/neg" stack_frame_id=69}
  %slice.70.1.clone.1 = f64[43,10494]{1,0} slice(%mul.44.5), slice={[2:45], [0:10494]}, metadata={op_name="jit(_hybrid_kernel)/slice" stack_frame_id=39}
  %pad.17.1.clone.1 = f64[45,10494]{1,0} pad(%slice.70.1.clone.1, %constant_41_9), padding=0_2x0_0, metadata={op_name="jit(_hybrid_kernel)/concatenate" stack_frame_id=70}
  %mul.50.1.clone.1 = f64[45,10494]{1,0} multiply(%neg.13.1.clone.1, %pad.17.1.clone.1), metadata={op_name="jit(_hybrid_kernel)/mul" stack_frame_id=69}
  ROOT %tuple.15 = (f64[45,10494]{1,0}, f64[45,10494]{1,0}, f64[45,10494]{1,0}) tuple(%sub.36.1, %select_n.14.1.clone.1, %mul.50.1.clone.1)
}

%fused_multiply_select_subtract.2 (param_0.410: f64[44,10494], param_1.442: f64[45,10494], param_2.363: f64[45,10494], param_3.272: f64[45,10494], param_4.224: f64[45,10494], param_5.218: f64[44,10494]) -> (f64[45,10494], f64[45,10494], f64[45,10494], f64[45,10494]) {
  %param_1.442 = f64[45,10494]{1,0} parameter(1)
  %iota.48 = s64[45,1]{1,0} iota(), iota_dimension=0, metadata={op_name="jit(_hybrid_kernel)/iota" stack_frame_id=51}
  %constant_40_4 = s64[] constant(1)
  %broadcast.26.8 = s64[45,1]{1,0} broadcast(%constant_40_4), dimensions={}
  %ge.6.5 = pred[45,1]{1,0} compare(%iota.48, %broadcast.26.8), direction=GE, metadata={op_name="jit(_hybrid_kernel)/ge" stack_frame_id=50}
  %bitcast.9.3 = pred[45]{0} bitcast(%ge.6.5), metadata={op_name="jit(_hybrid_kernel)/ge" stack_frame_id=50}
  %broadcast_in_dim.56.3 = pred[45,10494]{1,0} broadcast(%bitcast.9.3), dimensions={0}, metadata={op_name="jit(_hybrid_kernel)/jit(_where)/broadcast_in_dim" stack_frame_id=27}
  %param_3.272 = f64[45,10494]{1,0} parameter(3)
  %slice.59.7 = f64[44,10494]{1,0} slice(%param_1.442), slice={[0:44], [0:10494]}, metadata={op_name="jit(_hybrid_kernel)/slice" stack_frame_id=49}
  %constant_41_8 = f64[] constant(0)
  %pad.55 = f64[45,10494]{1,0} pad(%slice.59.7, %constant_41_8), padding=1_0x0_0, metadata={op_name="jit(_hybrid_kernel)/concatenate" stack_frame_id=48}
  %div.19.7 = f64[45,10494]{1,0} divide(%param_3.272, %pad.55), metadata={op_name="jit(_hybrid_kernel)/div" stack_frame_id=46}
  %broadcast_in_dim.57.34 = f64[45,10494]{1,0} broadcast(%constant_41_8), dimensions={}, metadata={op_name="jit(_hybrid_kernel)/jit(_where)/broadcast_in_dim" stack_frame_id=27}
  %select_n.12.7 = f64[45,10494]{1,0} select(%broadcast_in_dim.56.3, %div.19.7, %broadcast_in_dim.57.34), metadata={op_name="jit(_hybrid_kernel)/jit(_where)/select_n" stack_frame_id=27}
  %param_2.363 = f64[45,10494]{1,0} parameter(2)
  %slice.63.1 = f64[44,10494]{1,0} slice(%param_2.363), slice={[0:44], [0:10494]}, metadata={op_name="jit(_hybrid_kernel)/slice" stack_frame_id=76}
  %pad.5.3 = f64[45,10494]{1,0} pad(%slice.63.1, %constant_41_8), padding=1_0x0_0, metadata={op_name="jit(_hybrid_kernel)/concatenate" stack_frame_id=75}
  %mul.45.3 = f64[45,10494]{1,0} multiply(%select_n.12.7, %pad.5.3), metadata={op_name="jit(_hybrid_kernel)/mul" stack_frame_id=73}
  %sub.31.1 = f64[45,10494]{1,0} subtract(%param_1.442, %mul.45.3), metadata={op_name="jit(_hybrid_kernel)/sub" stack_frame_id=30}
  %iota.38.clone.1 = s64[45,1]{1,0} iota(), iota_dimension=0, metadata={op_name="jit(_hybrid_kernel)/iota" stack_frame_id=51}
  %add.13.5.clone.1 = s64[45,1]{1,0} add(%iota.38.clone.1, %broadcast.26.8), metadata={op_name="jit(_hybrid_kernel)/add" stack_frame_id=59}
  %constant_39_2_clone_1 = s64[] constant(45)
  %broadcast.25.10.clone.1 = s64[45,1]{1,0} broadcast(%constant_39_2_clone_1), dimensions={}
  %lt.10.3.clone.1 = pred[45,1]{1,0} compare(%add.13.5.clone.1, %broadcast.25.10.clone.1), direction=LT, metadata={op_name="jit(_hybrid_kernel)/lt" stack_frame_id=59}
  %bitcast.10.3.clone.1 = pred[45]{0} bitcast(%lt.10.3.clone.1), metadata={op_name="jit(_hybrid_kernel)/lt" stack_frame_id=59}
  %broadcast_in_dim.60.3.clone.1 = pred[45,10494]{1,0} broadcast(%bitcast.10.3.clone.1), dimensions={0}, metadata={op_name="jit(_hybrid_kernel)/jit(_where)/broadcast_in_dim" stack_frame_id=56}
  %param_5.218 = f64[44,10494]{1,0} parameter(5)
  %pad.2.1.clone.1 = f64[45,10494]{1,0} pad(%param_5.218, %constant_41_8), padding=0_1x0_0, metadata={op_name="jit(_hybrid_kernel)/concatenate" stack_frame_id=58}
  %div.20.1.clone.1 = f64[45,10494]{1,0} divide(%param_2.363, %pad.2.1.clone.1), metadata={op_name="jit(_hybrid_kernel)/div" stack_frame_id=57}
  %select_n.13.1.clone.1 = f64[45,10494]{1,0} select(%broadcast_in_dim.60.3.clone.1, %div.20.1.clone.1, %broadcast_in_dim.57.34), metadata={op_name="jit(_hybrid_kernel)/jit(_where)/select_n" stack_frame_id=56}
  %param_0.410 = f64[44,10494]{1,0} parameter(0)
  %pad.6.3 = f64[45,10494]{1,0} pad(%param_0.410, %constant_41_8), padding=0_1x0_0, metadata={op_name="jit(_hybrid_kernel)/concatenate" stack_frame_id=72}
  %mul.46.3 = f64[45,10494]{1,0} multiply(%select_n.13.1.clone.1, %pad.6.3), metadata={op_name="jit(_hybrid_kernel)/mul" stack_frame_id=71}
  %sub.32.1 = f64[45,10494]{1,0} subtract(%sub.31.1, %mul.46.3), metadata={op_name="jit(_hybrid_kernel)/sub" stack_frame_id=30}
  %neg.10.1.clone.1 = f64[45,10494]{1,0} negate(%select_n.12.7), metadata={op_name="jit(_hybrid_kernel)/neg" stack_frame_id=52}
  %slice.61.1.clone.1 = f64[44,10494]{1,0} slice(%param_3.272), slice={[0:44], [0:10494]}, metadata={op_name="jit(_hybrid_kernel)/slice" stack_frame_id=55}
  %pad.4.1.clone.1 = f64[45,10494]{1,0} pad(%slice.61.1.clone.1, %constant_41_8), padding=1_0x0_0, metadata={op_name="jit(_hybrid_kernel)/concatenate" stack_frame_id=54}
  %mul.43.1.clone.1 = f64[45,10494]{1,0} multiply(%neg.10.1.clone.1, %pad.4.1.clone.1), metadata={op_name="jit(_hybrid_kernel)/mul" stack_frame_id=52}
  %param_4.224 = f64[45,10494]{1,0} parameter(4)
  %slice.65.1.clone.1 = f64[44,10494]{1,0} slice(%param_4.224), slice={[0:44], [0:10494]}, metadata={op_name="jit(_hybrid_kernel)/slice" stack_frame_id=68}
  %pad.1.3.clone.1 = f64[45,10494]{1,0} pad(%slice.65.1.clone.1, %constant_41_8), padding=1_0x0_0, metadata={op_name="jit(_hybrid_kernel)/concatenate" stack_frame_id=67}
  %mul.47.3.clone.1 = f64[45,10494]{1,0} multiply(%select_n.12.7, %pad.1.3.clone.1), metadata={op_name="jit(_hybrid_kernel)/mul" stack_frame_id=65}
  %sub.33.1.clone.1 = f64[45,10494]{1,0} subtract(%param_4.224, %mul.47.3.clone.1), metadata={op_name="jit(_hybrid_kernel)/sub" stack_frame_id=60}
  %slice.66.1.clone.1 = f64[44,10494]{1,0} slice(%param_4.224), slice={[1:45], [0:10494]}, metadata={op_name="jit(_hybrid_kernel)/slice" stack_frame_id=64}
  %pad.3.3.clone.1 = f64[45,10494]{1,0} pad(%slice.66.1.clone.1, %constant_41_8), padding=0_1x0_0, metadata={op_name="jit(_hybrid_kernel)/concatenate" stack_frame_id=63}
  %mul.48.3.clone.1 = f64[45,10494]{1,0} multiply(%select_n.13.1.clone.1, %pad.3.3.clone.1), metadata={op_name="jit(_hybrid_kernel)/mul" stack_frame_id=61}
  %sub.34.1.clone.1 = f64[45,10494]{1,0} subtract(%sub.33.1.clone.1, %mul.48.3.clone.1), metadata={op_name="jit(_hybrid_kernel)/sub" stack_frame_id=60}
  ROOT %tuple.18 = (f64[45,10494]{1,0}, f64[45,10494]{1,0}, f64[45,10494]{1,0}, f64[45,10494]{1,0}) tuple(%sub.32.1, %mul.43.1.clone.1, %sub.34.1.clone.1, %select_n.13.1.clone.1)
}

%fused_concatenate (param_0.195: f64[45,10494], param_1.374: f64[44,10494], param_2.317: f64[44,10494]) -> f64[45,10494] {
  %param_0.195 = f64[45,10494]{1,0} parameter(0)
  %param_1.374 = f64[44,10494]{1,0} parameter(1)
  %rev.5.1 = f64[44,10494]{1,0} reverse(%param_1.374), dimensions={0}, metadata={op_name="jit(_hybrid_kernel)/rev" stack_frame_id=78}
  %param_2.317 = f64[44,10494]{1,0} parameter(2)
  %slice.115.1 = f64[1,10494]{1,0} slice(%param_2.317), slice={[43:44], [0:10494]}, metadata={op_name="jit(_hybrid_kernel)/slice" stack_frame_id=24}
  %concatenate.101.1 = f64[45,10494]{1,0} concatenate(%rev.5.1, %slice.115.1), dimensions={0}, metadata={op_name="jit(_hybrid_kernel)/concatenate" stack_frame_id=77}
  ROOT %add.21.1 = f64[45,10494]{1,0} add(%param_0.195, %concatenate.101.1), metadata={op_name="jit(_hybrid_kernel)/add" stack_frame_id=31}
}

%fused_slice (param_0.204: f64[45,10494], param_1.250: f64[45,10494], param_2.333: f64[45,10494], param_3.246: f64[45,10494], param_4.187: f64[45,10494]) -> f64[44,10494] {
  %param_0.204 = f64[45,10494]{1,0} parameter(0)
  %param_4.187 = f64[45,10494]{1,0} parameter(4)
  %param_2.333 = f64[45,10494]{1,0} parameter(2)
  %slice.105.7 = f64[44,10494]{1,0} slice(%param_2.333), slice={[0:44], [0:10494]}, metadata={op_name="jit(_hybrid_kernel)/slice" stack_frame_id=90}
  %constant_41_1 = f64[] constant(0)
  %pad.46.9 = f64[45,10494]{1,0} pad(%slice.105.7, %constant_41_1), padding=1_0x0_0, metadata={op_name="jit(_hybrid_kernel)/concatenate" stack_frame_id=89}
  %mul.77.9 = f64[45,10494]{1,0} multiply(%param_4.187, %pad.46.9), metadata={op_name="jit(_hybrid_kernel)/mul" stack_frame_id=87}
  %param_3.246 = f64[45,10494]{1,0} parameter(3)
  %mul.79.7 = f64[45,10494]{1,0} multiply(%param_3.246, %param_2.333), metadata={op_name="jit(_hybrid_kernel)/mul" stack_frame_id=86}
  %add.19.7 = f64[45,10494]{1,0} add(%mul.77.9, %mul.79.7), metadata={op_name="jit(_hybrid_kernel)/add" stack_frame_id=81}
  %param_1.250 = f64[45,10494]{1,0} parameter(1)
  %slice.106.5 = f64[44,10494]{1,0} slice(%param_2.333), slice={[1:45], [0:10494]}, metadata={op_name="jit(_hybrid_kernel)/slice" stack_frame_id=85}
  %pad.47.9 = f64[45,10494]{1,0} pad(%slice.106.5, %constant_41_1), padding=0_1x0_0, metadata={op_name="jit(_hybrid_kernel)/concatenate" stack_frame_id=84}
  %mul.78.9 = f64[45,10494]{1,0} multiply(%param_1.250, %pad.47.9), metadata={op_name="jit(_hybrid_kernel)/mul" stack_frame_id=82}
  %add.20.7 = f64[45,10494]{1,0} add(%add.19.7, %mul.78.9), metadata={op_name="jit(_hybrid_kernel)/add" stack_frame_id=81}
  %sub.55.5 = f64[45,10494]{1,0} subtract(%param_0.204, %add.20.7), metadata={op_name="jit(_hybrid_kernel)/sub" stack_frame_id=79}
  ROOT %slice.114.1 = f64[44,10494]{1,0} slice(%sub.55.5), slice={[1:45], [0:10494]}, metadata={op_name="jit(_hybrid_kernel)/slice" stack_frame_id=32}
}

%fused_reverse (param_0.386: f64[44,10494], param_1.414: f64[45,10494], param_2.331: f64[45,10494], param_3.242: f64[45,10494], param_4.199: f64[45,10494], param_5.162: f64[45,10494], param_6.193: f64[44,10494]) -> (f64[44,10494], f64[44,10494]) {
  %param_2.331 = f64[45,10494]{1,0} parameter(2)
  %param_5.162 = f64[45,10494]{1,0} parameter(5)
  %param_4.199 = f64[45,10494]{1,0} parameter(4)
  %slice.105.11 = f64[44,10494]{1,0} slice(%param_4.199), slice={[0:44], [0:10494]}, metadata={op_name="jit(_hybrid_kernel)/slice" stack_frame_id=90}
  %constant_41_22 = f64[] constant(0)
  %pad.46.13 = f64[45,10494]{1,0} pad(%slice.105.11, %constant_41_22), padding=1_0x0_0, metadata={op_name="jit(_hybrid_kernel)/concatenate" stack_frame_id=89}
  %mul.77.13 = f64[45,10494]{1,0} multiply(%param_5.162, %pad.46.13), metadata={op_name="jit(_hybrid_kernel)/mul" stack_frame_id=87}
  %param_1.414 = f64[45,10494]{1,0} parameter(1)
  %mul.79.11 = f64[45,10494]{1,0} multiply(%param_1.414, %param_4.199), metadata={op_name="jit(_hybrid_kernel)/mul" stack_frame_id=86}
  %add.19.11 = f64[45,10494]{1,0} add(%mul.77.13, %mul.79.11), metadata={op_name="jit(_hybrid_kernel)/add" stack_frame_id=81}
  %param_3.242 = f64[45,10494]{1,0} parameter(3)
  %slice.106.9 = f64[44,10494]{1,0} slice(%param_4.199), slice={[1:45], [0:10494]}, metadata={op_name="jit(_hybrid_kernel)/slice" stack_frame_id=85}
  %pad.47.13 = f64[45,10494]{1,0} pad(%slice.106.9, %constant_41_22), padding=0_1x0_0, metadata={op_name="jit(_hybrid_kernel)/concatenate" stack_frame_id=84}
  %mul.78.13 = f64[45,10494]{1,0} multiply(%param_3.242, %pad.47.13), metadata={op_name="jit(_hybrid_kernel)/mul" stack_frame_id=82}
  %add.20.11 = f64[45,10494]{1,0} add(%add.19.11, %mul.78.13), metadata={op_name="jit(_hybrid_kernel)/add" stack_frame_id=81}
  %sub.55.9 = f64[45,10494]{1,0} subtract(%param_2.331, %add.20.11), metadata={op_name="jit(_hybrid_kernel)/sub" stack_frame_id=79}
  %slice.109.5 = f64[1,10494]{1,0} slice(%sub.55.9), slice={[0:1], [0:10494]}, metadata={op_name="jit(_hybrid_kernel)/slice" stack_frame_id=23}
  %slice.108.6 = f64[1,10494]{1,0} slice(%param_1.414), slice={[0:1], [0:10494]}, metadata={op_name="jit(_hybrid_kernel)/slice" stack_frame_id=92}
  %div.3.3 = f64[1,10494]{1,0} divide(%slice.109.5, %slice.108.6), metadata={op_name="jit(_hybrid_kernel)/div" stack_frame_id=23}
  %param_0.386 = f64[44,10494]{1,0} parameter(0)
  %concatenate.100.3 = f64[45,10494]{1,0} concatenate(%div.3.3, %param_0.386), dimensions={0}, metadata={op_name="jit(_hybrid_kernel)/concatenate" stack_frame_id=91}
  %slice.117.3 = f64[44,10494]{1,0} slice(%concatenate.100.3), slice={[0:44], [0:10494]}, metadata={op_name="jit(_hybrid_kernel)/slice" stack_frame_id=33}
  %rev.4.1 = f64[44,10494]{1,0} reverse(%slice.117.3), dimensions={0}, metadata={op_name="jit(_hybrid_kernel)/rev" stack_frame_id=33}
  %slice.107.3.clone.1 = f64[1,10494]{1,0} slice(%param_3.242), slice={[0:1], [0:10494]}, metadata={op_name="jit(_hybrid_kernel)/slice" stack_frame_id=22}
  %div.2.3.clone.1 = f64[1,10494]{1,0} divide(%slice.107.3.clone.1, %slice.108.6), metadata={op_name="jit(_hybrid_kernel)/div" stack_frame_id=22}
  %param_6.193 = f64[44,10494]{1,0} parameter(6)
  %concatenate.99.3.clone.1 = f64[45,10494]{1,0} concatenate(%div.2.3.clone.1, %param_6.193), dimensions={0}, metadata={op_name="jit(_hybrid_kernel)/concatenate" stack_frame_id=94}
  %slice.116.3.clone.1 = f64[44,10494]{1,0} slice(%concatenate.99.3.clone.1), slice={[0:44], [0:10494]}, metadata={op_name="jit(_hybrid_kernel)/slice" stack_frame_id=93}
  %rev.3.1.clone.1 = f64[44,10494]{1,0} reverse(%slice.116.3.clone.1), dimensions={0}, metadata={op_name="jit(_hybrid_kernel)/rev" stack_frame_id=93}
  ROOT %tuple.20 = (f64[44,10494]{1,0}, f64[44,10494]{1,0}) tuple(%rev.4.1, %rev.3.1.clone.1)
}

%fused_divide.2 (param_0.315: f64[45,10494], param_1.361: f64[45,10494], param_2.366: f64[45,10494], param_3.277: f64[45,10494], param_4.230: f64[45,10494]) -> (f64[1,10494], f64[1,10494]) {
  %param_1.361 = f64[45,10494]{1,0} parameter(1)
  %slice.107.1 = f64[1,10494]{1,0} slice(%param_1.361), slice={[0:1], [0:10494]}, metadata={op_name="jit(_hybrid_kernel)/slice" stack_frame_id=22}
  %param_0.315 = f64[45,10494]{1,0} parameter(0)
  %slice.108.1 = f64[1,10494]{1,0} slice(%param_0.315), slice={[0:1], [0:10494]}, metadata={op_name="jit(_hybrid_kernel)/slice" stack_frame_id=92}
  %div.2.1 = f64[1,10494]{1,0} divide(%slice.107.1, %slice.108.1), metadata={op_name="jit(_hybrid_kernel)/div" stack_frame_id=22}
  %param_2.366 = f64[45,10494]{1,0} parameter(2)
  %param_4.230 = f64[45,10494]{1,0} parameter(4)
  %param_3.277 = f64[45,10494]{1,0} parameter(3)
  %slice.105.9.clone.1 = f64[44,10494]{1,0} slice(%param_3.277), slice={[0:44], [0:10494]}, metadata={op_name="jit(_hybrid_kernel)/slice" stack_frame_id=90}
  %constant_41_2_clone_1 = f64[] constant(0)
  %pad.46.11.clone.1 = f64[45,10494]{1,0} pad(%slice.105.9.clone.1, %constant_41_2_clone_1), padding=1_0x0_0, metadata={op_name="jit(_hybrid_kernel)/concatenate" stack_frame_id=89}
  %mul.77.11.clone.1 = f64[45,10494]{1,0} multiply(%param_4.230, %pad.46.11.clone.1), metadata={op_name="jit(_hybrid_kernel)/mul" stack_frame_id=87}
  %mul.79.9.clone.1 = f64[45,10494]{1,0} multiply(%param_0.315, %param_3.277), metadata={op_name="jit(_hybrid_kernel)/mul" stack_frame_id=86}
  %add.19.9.clone.1 = f64[45,10494]{1,0} add(%mul.77.11.clone.1, %mul.79.9.clone.1), metadata={op_name="jit(_hybrid_kernel)/add" stack_frame_id=81}
  %slice.106.7.clone.1 = f64[44,10494]{1,0} slice(%param_3.277), slice={[1:45], [0:10494]}, metadata={op_name="jit(_hybrid_kernel)/slice" stack_frame_id=85}
  %pad.47.11.clone.1 = f64[45,10494]{1,0} pad(%slice.106.7.clone.1, %constant_41_2_clone_1), padding=0_1x0_0, metadata={op_name="jit(_hybrid_kernel)/concatenate" stack_frame_id=84}
  %mul.78.11.clone.1 = f64[45,10494]{1,0} multiply(%param_1.361, %pad.47.11.clone.1), metadata={op_name="jit(_hybrid_kernel)/mul" stack_frame_id=82}
  %add.20.9.clone.1 = f64[45,10494]{1,0} add(%add.19.9.clone.1, %mul.78.11.clone.1), metadata={op_name="jit(_hybrid_kernel)/add" stack_frame_id=81}
  %sub.55.7.clone.1 = f64[45,10494]{1,0} subtract(%param_2.366, %add.20.9.clone.1), metadata={op_name="jit(_hybrid_kernel)/sub" stack_frame_id=79}
  %slice.109.3.clone.1 = f64[1,10494]{1,0} slice(%sub.55.7.clone.1), slice={[0:1], [0:10494]}, metadata={op_name="jit(_hybrid_kernel)/slice" stack_frame_id=23}
  %div.3.1.clone.1 = f64[1,10494]{1,0} divide(%slice.109.3.clone.1, %slice.108.1), metadata={op_name="jit(_hybrid_kernel)/div" stack_frame_id=23}
  ROOT %tuple.19 = (f64[1,10494]{1,0}, f64[1,10494]{1,0}) tuple(%div.2.1, %div.3.1.clone.1)
}

%fused_broadcast () -> (f64[44,10494], f64[44,10494], f64[44,10494]) {
  %constant_41_12 = f64[] constant(0)
  %broadcast.14.1 = f64[44,10494]{1,0} broadcast(%constant_41_12), dimensions={}
  %copy.28 = f64[44,10494]{1,0} copy(%broadcast.14.1)
  %copy.29 = f64[44,10494]{1,0} copy(%broadcast.14.1)
  ROOT %tuple.27 = (f64[44,10494]{1,0}, f64[44,10494]{1,0}, f64[44,10494]{1,0}) tuple(%broadcast.14.1, %copy.28, %copy.29)
}

%wrapped_slice_computation (param_0.411: f64[45,10494]) -> f64[44,10494] {
  %param_0.411 = f64[45,10494]{1,0} parameter(0)
  ROOT %slice.64.1 = f64[44,10494]{1,0} slice(%param_0.411), slice={[1:45], [0:10494]}, metadata={op_name="jit(_hybrid_kernel)/slice" stack_frame_id=35}
}

%wrapped_slice_computation.1 (param_0.412: f64[45,10494]) -> f64[44,10494] {
  %param_0.412 = f64[45,10494]{1,0} parameter(0)
  ROOT %slice.60.1 = f64[44,10494]{1,0} slice(%param_0.412), slice={[1:45], [0:10494]}, metadata={op_name="jit(_hybrid_kernel)/slice" stack_frame_id=37}
}

%wrapped_slice_computation.2 (param_0.413: f64[45,10494]) -> f64[44,10494] {
  %param_0.413 = f64[45,10494]{1,0} parameter(0)
  ROOT %slice.62.1 = f64[44,10494]{1,0} slice(%param_0.413), slice={[1:45], [0:10494]}, metadata={op_name="jit(_hybrid_kernel)/slice" stack_frame_id=39}
}

%wrapped_slice_computation.3 (param_0.414: f64[44,10494]) -> f64[1,10494] {
  %param_0.414 = f64[44,10494]{1,0} parameter(0)
  ROOT %slice.115.2 = f64[1,10494]{1,0} slice(%param_0.414), slice={[43:44], [0:10494]}, metadata={op_name="jit(_hybrid_kernel)/slice" stack_frame_id=24}
}

ENTRY %main.8 (a.1: f64[45,10494], b.1: f64[45,10494], c.1: f64[45,10494], rhs.1: f64[45,10494]) -> f64[45,10494] {
  %a.1 = f64[45,10494]{1,0} parameter(0), metadata={op_name="a"}
  %wrapped_slice = f64[44,10494]{1,0} fusion(%a.1), kind=kLoop, calls=%wrapped_slice_computation, metadata={op_name="jit(_hybrid_kernel)/slice" stack_frame_id=35}
  %b.1 = f64[45,10494]{1,0} parameter(1), metadata={op_name="b"}
  %wrapped_slice.1 = f64[44,10494]{1,0} fusion(%b.1), kind=kLoop, calls=%wrapped_slice_computation.1, metadata={op_name="jit(_hybrid_kernel)/slice" stack_frame_id=37}
  %c.1 = f64[45,10494]{1,0} parameter(2), metadata={op_name="c"}
  %rhs.1 = f64[45,10494]{1,0} parameter(3), metadata={op_name="rhs"}
  %loop_multiply_select_subtract_fusion.2 = (f64[45,10494]{1,0}, f64[45,10494]{1,0}, f64[45,10494]{1,0}, f64[45,10494]{1,0}) fusion(%wrapped_slice, %b.1, %c.1, %a.1, %rhs.1, /*index=5*/%wrapped_slice.1), kind=kLoop, calls=%fused_multiply_select_subtract.2, metadata={op_name="jit(_hybrid_kernel)/sub" stack_frame_id=30}
  %get-tuple-element.25 = f64[45,10494]{1,0} get-tuple-element(%loop_multiply_select_subtract_fusion.2), index=1, metadata={op_name="jit(_hybrid_kernel)/sub" stack_frame_id=30}
  %get-tuple-element.24 = f64[45,10494]{1,0} get-tuple-element(%loop_multiply_select_subtract_fusion.2), index=0, metadata={op_name="jit(_hybrid_kernel)/sub" stack_frame_id=30}
  %get-tuple-element.36 = f64[45,10494]{1,0} get-tuple-element(%loop_multiply_select_subtract_fusion.2), index=3, metadata={op_name="jit(_hybrid_kernel)/sub" stack_frame_id=30}
  %wrapped_slice.2 = f64[44,10494]{1,0} fusion(%c.1), kind=kLoop, calls=%wrapped_slice_computation.2, metadata={op_name="jit(_hybrid_kernel)/slice" stack_frame_id=39}
  %loop_multiply_select_subtract_fusion.1 = (f64[45,10494]{1,0}, f64[45,10494]{1,0}, f64[45,10494]{1,0}) fusion(%get-tuple-element.24, %get-tuple-element.25, %wrapped_slice.2, %get-tuple-element.36), kind=kLoop, calls=%fused_multiply_select_subtract.1, metadata={op_name="jit(_hybrid_kernel)/sub" stack_frame_id=30}
  %get-tuple-element.21 = f64[45,10494]{1,0} get-tuple-element(%loop_multiply_select_subtract_fusion.1), index=0, metadata={op_name="jit(_hybrid_kernel)/sub" stack_frame_id=30}
  %get-tuple-element.22 = f64[45,10494]{1,0} get-tuple-element(%loop_multiply_select_subtract_fusion.1), index=1, metadata={op_name="jit(_hybrid_kernel)/sub" stack_frame_id=30}
  %get-tuple-element.23 = f64[45,10494]{1,0} get-tuple-element(%loop_multiply_select_subtract_fusion.1), index=2, metadata={op_name="jit(_hybrid_kernel)/sub" stack_frame_id=30}
  %get-tuple-element.26 = f64[45,10494]{1,0} get-tuple-element(%loop_multiply_select_subtract_fusion.2), index=2, metadata={op_name="jit(_hybrid_kernel)/sub" stack_frame_id=30}
  %loop_select_subtract_fusion = (f64[45,10494]{1,0}, f64[45,10494]{1,0}, f64[45,10494]{1,0}) fusion(%get-tuple-element.21, %get-tuple-element.23, %get-tuple-element.25, %get-tuple-element.22, %get-tuple-element.26, /*index=5*/%get-tuple-element.24, %wrapped_slice.2, %get-tuple-element.36), kind=kLoop, calls=%fused_select_subtract, metadata={op_name="jit(_hybrid_kernel)/sub" stack_frame_id=30}
  %get-tuple-element.18 = f64[45,10494]{1,0} get-tuple-element(%loop_select_subtract_fusion), index=1, metadata={op_name="jit(_hybrid_kernel)/sub" stack_frame_id=30}
  %get-tuple-element.20 = f64[45,10494]{1,0} get-tuple-element(%loop_select_subtract_fusion), index=2, metadata={op_name="jit(_hybrid_kernel)/sub" stack_frame_id=30}
  %get-tuple-element.8 = f64[45,10494]{1,0} get-tuple-element(%loop_select_subtract_fusion), index=0, metadata={op_name="jit(_hybrid_kernel)/sub" stack_frame_id=30}
  %loop_multiply_select_subtract_fusion = (f64[45,10494]{1,0}, f64[45,10494]{1,0}, f64[45,10494]{1,0}, f64[45,10494]{1,0}, f64[45,10494]{1,0}) fusion(%get-tuple-element.8, %get-tuple-element.25, %get-tuple-element.22, %get-tuple-element.18, %get-tuple-element.20, /*index=5*/%get-tuple-element.23, %get-tuple-element.21), kind=kLoop, calls=%fused_multiply_select_subtract, metadata={op_name="jit(_hybrid_kernel)/jit(_where)/select_n" stack_frame_id=27}
  %get-tuple-element.19 = f64[45,10494]{1,0} get-tuple-element(%loop_multiply_select_subtract_fusion), index=4, metadata={op_name="jit(_hybrid_kernel)/jit(_where)/select_n" stack_frame_id=27}
  %get-tuple-element.4 = f64[45,10494]{1,0} get-tuple-element(%loop_multiply_select_subtract_fusion), index=0, metadata={op_name="jit(_hybrid_kernel)/jit(_where)/select_n" stack_frame_id=27}
  %get-tuple-element.5 = f64[45,10494]{1,0} get-tuple-element(%loop_multiply_select_subtract_fusion), index=1, metadata={op_name="jit(_hybrid_kernel)/jit(_where)/select_n" stack_frame_id=27}
  %get-tuple-element.6 = f64[45,10494]{1,0} get-tuple-element(%loop_multiply_select_subtract_fusion), index=2, metadata={op_name="jit(_hybrid_kernel)/jit(_where)/select_n" stack_frame_id=27}
  %loop_select_fusion = (f64[45,10494]{1,0}, f64[45,10494]{1,0}) fusion(%get-tuple-element.5, %get-tuple-element.4, %get-tuple-element.6, %get-tuple-element.8, %get-tuple-element.19), kind=kLoop, calls=%fused_select, metadata={op_name="jit(_hybrid_kernel)/jit(_where)/select_n" stack_frame_id=27}
  %get-tuple-element.2 = f64[45,10494]{1,0} get-tuple-element(%loop_select_fusion), index=0, metadata={op_name="jit(_hybrid_kernel)/jit(_where)/select_n" stack_frame_id=27}
  %get-tuple-element.3 = f64[45,10494]{1,0} get-tuple-element(%loop_select_fusion), index=1, metadata={op_name="jit(_hybrid_kernel)/jit(_where)/select_n" stack_frame_id=27}
  %get-tuple-element.7 = f64[45,10494]{1,0} get-tuple-element(%loop_multiply_select_subtract_fusion), index=3, metadata={op_name="jit(_hybrid_kernel)/jit(_where)/select_n" stack_frame_id=27}
  %loop_divide_fusion.1 = f64[45,10494]{1,0} fusion(%get-tuple-element.3, %get-tuple-element.2, %get-tuple-element.19, %get-tuple-element.6, %get-tuple-element.5, /*index=5*/%get-tuple-element.4, %get-tuple-element.8, %get-tuple-element.7), kind=kLoop, calls=%fused_divide.1, metadata={op_name="jit(_hybrid_kernel)/div" stack_frame_id=29}
  %loop_slice_fusion = f64[44,10494]{1,0} fusion(%rhs.1, %c.1, %loop_divide_fusion.1, %b.1, %a.1), kind=kLoop, calls=%fused_slice, metadata={op_name="jit(_hybrid_kernel)/slice" stack_frame_id=32}
  %loop_divide_fusion.2 = (f64[1,10494]{1,0}, f64[1,10494]{1,0}) fusion(%b.1, %c.1, %rhs.1, %loop_divide_fusion.1, %a.1), kind=kLoop, calls=%fused_divide.2, metadata={op_name="jit(_hybrid_kernel)/div" stack_frame_id=22}
  %get-tuple-element.37 = f64[1,10494]{1,0} get-tuple-element(%loop_divide_fusion.2), index=0, metadata={op_name="jit(_hybrid_kernel)/div" stack_frame_id=22}
  %bitcast.21.0 = f64[10494]{0} bitcast(%get-tuple-element.37), metadata={op_name="jit(_hybrid_kernel)/div" stack_frame_id=22}
  %get-tuple-element.38 = f64[1,10494]{1,0} get-tuple-element(%loop_divide_fusion.2), index=1, metadata={op_name="jit(_hybrid_kernel)/div" stack_frame_id=22}
  %bitcast.22.0 = f64[10494]{0} bitcast(%get-tuple-element.38), metadata={op_name="jit(_hybrid_kernel)/div" stack_frame_id=23}
  %loop_broadcast_fusion = (f64[44,10494]{1,0}, f64[44,10494]{1,0}, f64[44,10494]{1,0}) fusion(), kind=kLoop, calls=%fused_broadcast
  %get-tuple-element.94 = f64[44,10494]{1,0} get-tuple-element(%loop_broadcast_fusion), index=1
  %get-tuple-element.95 = f64[44,10494]{1,0} get-tuple-element(%loop_broadcast_fusion), index=2
  %constant_42_0 = s64[] constant(0)
  %copy.30 = s64[] copy(%constant_42_0)
  %copy.3 = s64[] copy(%copy.30)
  %tuple.21 = (s64[], f64[10494]{0}, f64[10494]{0}, f64[44,10494]{1,0}, f64[44,10494]{1,0}, /*index=5*/f64[44,10494]{1,0}, f64[44,10494]{1,0}, f64[44,10494]{1,0}, f64[44,10494]{1,0}) tuple(%copy.3, %bitcast.21.0, %bitcast.22.0, %get-tuple-element.95, %get-tuple-element.94, /*index=5*/%wrapped_slice, %wrapped_slice.1, %wrapped_slice.2, %loop_slice_fusion)
  %while.13 = (s64[], f64[10494]{0}, f64[10494]{0}, f64[44,10494]{1,0}, f64[44,10494]{1,0}, /*index=5*/f64[44,10494]{1,0}, f64[44,10494]{1,0}, f64[44,10494]{1,0}, f64[44,10494]{1,0}) while(%tuple.21), condition=%region_1.4, body=%region_0.3, metadata={op_name="jit(_hybrid_kernel)/while" stack_frame_id=9}, backend_config={"known_trip_count":{"n":"44"},"known_init_step":{"init":"0","step":"1"},"known_induction_variable":{"tuple_index":"0"},"dynamic_variable_tuple_indices":[]}
  %while.17.0 = f64[44,10494]{1,0} get-tuple-element(%while.13), index=3, metadata={op_name="jit(_hybrid_kernel)/while" stack_frame_id=9}
  %while.18.0 = f64[44,10494]{1,0} get-tuple-element(%while.13), index=4, metadata={op_name="jit(_hybrid_kernel)/while" stack_frame_id=9}
  %loop_reverse_fusion = (f64[44,10494]{1,0}, f64[44,10494]{1,0}) fusion(%while.18.0, %b.1, %rhs.1, %c.1, %loop_divide_fusion.1, /*index=5*/%a.1, %while.17.0), kind=kLoop, calls=%fused_reverse, metadata={op_name="jit(_hybrid_kernel)/rev" stack_frame_id=33}
  %get-tuple-element.81 = f64[44,10494]{1,0} get-tuple-element(%loop_reverse_fusion), index=1, metadata={op_name="jit(_hybrid_kernel)/rev" stack_frame_id=33}
  %get-tuple-element.82 = f64[44,10494]{1,0} get-tuple-element(%loop_reverse_fusion), index=0, metadata={op_name="jit(_hybrid_kernel)/rev" stack_frame_id=33}
  %wrapped_slice.3 = f64[1,10494]{1,0} fusion(%while.18.0), kind=kLoop, calls=%wrapped_slice_computation.3, metadata={op_name="jit(_hybrid_kernel)/slice" stack_frame_id=24}
  %bitcast.23.0 = f64[10494]{0} bitcast(%wrapped_slice.3), metadata={op_name="jit(_hybrid_kernel)/slice" stack_frame_id=24}
  %get-tuple-element.93 = f64[44,10494]{1,0} get-tuple-element(%loop_broadcast_fusion), index=0
  %tuple.24 = (s64[], f64[10494]{0}, f64[44,10494]{1,0}, f64[44,10494]{1,0}, f64[44,10494]{1,0}) tuple(%copy.30, %bitcast.23.0, %get-tuple-element.93, %get-tuple-element.81, %get-tuple-element.82)
  %while.20 = (s64[], f64[10494]{0}, f64[44,10494]{1,0}, f64[44,10494]{1,0}, f64[44,10494]{1,0}) while(%tuple.24), condition=%region_3.7, body=%region_2.6, metadata={op_name="jit(_hybrid_kernel)/while" stack_frame_id=17}, backend_config={"known_trip_count":{"n":"44"},"known_init_step":{"init":"0","step":"1"},"known_induction_variable":{"tuple_index":"0"},"dynamic_variable_tuple_indices":[]}
  %while.23.0 = f64[44,10494]{1,0} get-tuple-element(%while.20), index=2, metadata={op_name="jit(_hybrid_kernel)/while" stack_frame_id=17}
  ROOT %input_concatenate_fusion = f64[45,10494]{1,0} fusion(%loop_divide_fusion.1, %while.23.0, %while.18.0), kind=kInput, calls=%fused_concatenate, metadata={op_name="jit(_hybrid_kernel)/add" stack_frame_id=31}
}
