HloModule jit__thomas_kernel, is_scheduled=true, entry_computation_layout={(f64[45,10494]{1,0}, f64[45,10494]{1,0}, f64[45,10494]{1,0}, f64[45,10494]{1,0})->f64[45,10494]{1,0}}, allow_spmd_sharding_propagation_to_parameters={true,true,true,true}, allow_spmd_sharding_propagation_to_output={true}, frontend_attributes={fingerprint_before_lhs="44aea53497a8b1a84ec2c4ed4d189606"}

FileNames
1 "/tmp/wrf_gpu2_perfdesign/scripts/m6_perf_design_canary_1h.py"
2 "/tmp/wrf_gpu2_perfdesign/src/gpuwrf/dynamics/vertical_implicit_solver.py"

FunctionNames
1 "<module>"
2 "main"
3 "run_solver_bakeoff"
4 "_thomas_kernel"
5 "m6b2_wrf_thomas_solve"
6 "solve_tridiagonal_thomas"
7 "solve_tridiagonal_thomas.<locals>.forward"
8 "solve_tridiagonal_thomas.<locals>.backward"

FileLocations
1 {file_name_id=1 function_name_id=1 line=353 end_line=353 column=21 end_column=27}
2 {file_name_id=1 function_name_id=2 line=344 end_line=344 column=25 end_column=57}
3 {file_name_id=1 function_name_id=3 line=199 end_line=199 column=23 end_column=47}
4 {file_name_id=1 function_name_id=4 line=122 end_line=122 column=11 end_column=46}
5 {file_name_id=1 function_name_id=5 line=111 end_line=111 column=11 end_column=49}
6 {file_name_id=2 function_name_id=6 line=110 end_line=115 column=33 end_column=5}
7 {file_name_id=2 function_name_id=7 line=107 end_line=107 column=15 end_column=42}
8 {file_name_id=2 function_name_id=6 line=126 end_line=131 column=15 end_column=5}
9 {file_name_id=2 function_name_id=8 line=123 end_line=123 column=14 end_column=34}
10 {file_name_id=2 function_name_id=6 line=99 end_line=99 column=10 end_column=14}
11 {file_name_id=2 function_name_id=6 line=100 end_line=100 column=10 end_column=16}
12 {file_name_id=2 function_name_id=6 line=119 end_line=119 column=13 end_column=19}
13 {file_name_id=2 function_name_id=6 line=129 end_line=129 column=9 end_column=16}
14 {file_name_id=2 function_name_id=6 line=132 end_line=132 column=11 end_column=68}
15 {file_name_id=2 function_name_id=6 line=113 end_line=113 column=9 end_column=14}
16 {file_name_id=2 function_name_id=6 line=113 end_line=113 column=16 end_column=21}
17 {file_name_id=2 function_name_id=6 line=113 end_line=113 column=23 end_column=28}
18 {file_name_id=2 function_name_id=6 line=113 end_line=113 column=30 end_column=37}
19 {file_name_id=2 function_name_id=7 line=106 end_line=106 column=15 end_column=25}
20 {file_name_id=2 function_name_id=7 line=107 end_line=107 column=16 end_column=33}
21 {file_name_id=2 function_name_id=7 line=107 end_line=107 column=21 end_column=33}
22 {file_name_id=2 function_name_id=7 line=105 end_line=105 column=16 end_column=33}
23 {file_name_id=2 function_name_id=7 line=105 end_line=105 column=21 end_column=33}
24 {file_name_id=2 function_name_id=8 line=123 end_line=123 column=21 end_column=34}
25 {file_name_id=2 function_name_id=6 line=116 end_line=116 column=9 end_column=59}
26 {file_name_id=2 function_name_id=6 line=99 end_line=99 column=17 end_column=21}
27 {file_name_id=2 function_name_id=6 line=129 end_line=129 column=24 end_column=31}
28 {file_name_id=2 function_name_id=6 line=117 end_line=117 column=9 end_column=59}
29 {file_name_id=2 function_name_id=6 line=132 end_line=132 column=28 end_column=39}

StackFrames
1 {file_location_id=1 parent_frame_id=1}
2 {file_location_id=2 parent_frame_id=2}
3 {file_location_id=3 parent_frame_id=3}
4 {file_location_id=4 parent_frame_id=4}
5 {file_location_id=5 parent_frame_id=5}
6 {file_location_id=6 parent_frame_id=6}
7 {file_location_id=4 parent_frame_id=7}
8 {file_location_id=5 parent_frame_id=8}
9 {file_location_id=6 parent_frame_id=9}
10 {file_location_id=4 parent_frame_id=10}
11 {file_location_id=5 parent_frame_id=11}
12 {file_location_id=6 parent_frame_id=12}
13 {file_location_id=7 parent_frame_id=13}
14 {file_location_id=8 parent_frame_id=6}
15 {file_location_id=4 parent_frame_id=15}
16 {file_location_id=5 parent_frame_id=16}
17 {file_location_id=8 parent_frame_id=17}
18 {file_location_id=4 parent_frame_id=18}
19 {file_location_id=5 parent_frame_id=19}
20 {file_location_id=8 parent_frame_id=20}
21 {file_location_id=9 parent_frame_id=21}
22 {file_location_id=10 parent_frame_id=6}
23 {file_location_id=11 parent_frame_id=6}
24 {file_location_id=12 parent_frame_id=6}
25 {file_location_id=13 parent_frame_id=6}
26 {file_location_id=14 parent_frame_id=6}
27 {file_location_id=15 parent_frame_id=6}
28 {file_location_id=16 parent_frame_id=6}
29 {file_location_id=17 parent_frame_id=6}
30 {file_location_id=18 parent_frame_id=6}
31 {file_location_id=19 parent_frame_id=13}
32 {file_location_id=20 parent_frame_id=13}
33 {file_location_id=21 parent_frame_id=13}
34 {file_location_id=22 parent_frame_id=13}
35 {file_location_id=23 parent_frame_id=13}
36 {file_location_id=24 parent_frame_id=21}
37 {file_location_id=25 parent_frame_id=6}
38 {file_location_id=26 parent_frame_id=6}
39 {file_location_id=27 parent_frame_id=6}
40 {file_location_id=28 parent_frame_id=6}
41 {file_location_id=29 parent_frame_id=6}


%fused_dynamic_update_slice (param_0: f64[44,10494], param_1.1: s64[], param_2.20: f64[10494]) -> f64[44,10494] {
  %param_0 = f64[44,10494]{1,0} parameter(0)
  %param_2.20 = f64[10494]{0} parameter(2)
  %bitcast.5.1 = f64[1,10494]{1,0} bitcast(%param_2.20), metadata={op_name="jit(_thomas_kernel)/while/body/closed_call/div" stack_frame_id=13}
  %param_1.1 = s64[] parameter(1)
  %constant_5_2 = s64[] constant(0)
  ROOT %dynamic_update_slice.3.1 = f64[44,10494]{1,0} dynamic-update-slice(%param_0, %bitcast.5.1, %param_1.1, %constant_5_2), metadata={op_name="jit(_thomas_kernel)/while/body/dynamic_update_slice" stack_frame_id=12}
}

%fused_dynamic_update_slice.1 (param_0.1: f64[44,10494], param_1.3: s64[], param_2.19: f64[10494]) -> f64[44,10494] {
  %param_0.1 = f64[44,10494]{1,0} parameter(0)
  %param_2.19 = f64[10494]{0} parameter(2)
  %bitcast.4.1 = f64[1,10494]{1,0} bitcast(%param_2.19), metadata={op_name="jit(_thomas_kernel)/while/body/closed_call/div" stack_frame_id=31}
  %param_1.3 = s64[] parameter(1)
  %constant_5_1 = s64[] constant(0)
  ROOT %dynamic_update_slice.2.1 = f64[44,10494]{1,0} dynamic-update-slice(%param_0.1, %bitcast.4.1, %param_1.3, %constant_5_1), metadata={op_name="jit(_thomas_kernel)/while/body/dynamic_update_slice" stack_frame_id=12}
}

%fused_divide (param_0.22: f64[10494], param_1.32: f64[10494], param_2.18: f64[44,10494], param_3.16: s64[], param_4.11: f64[44,10494], param_5.7: f64[44,10494], param_6.5: f64[44,10494]) -> (f64[10494], f64[10494]) {
  %param_2.18 = f64[44,10494]{1,0} parameter(2)
  %param_3.16 = s64[] parameter(3)
  %constant_5_4 = s64[] constant(0)
  %dynamic_slice.7.1 = f64[1,10494]{1,0} dynamic-slice(%param_2.18, %param_3.16, %constant_5_4), dynamic_slice_sizes={1,10494}, metadata={op_name="jit(_thomas_kernel)/while/body/dynamic_slice" stack_frame_id=12}
  %bitcast.3.3 = f64[10494]{0} bitcast(%dynamic_slice.7.1), metadata={op_name="jit(_thomas_kernel)/while/body/dynamic_slice" stack_frame_id=12}
  %param_5.7 = f64[44,10494]{1,0} parameter(5)
  %dynamic_slice.4.2 = f64[1,10494]{1,0} dynamic-slice(%param_5.7, %param_3.16, %constant_5_4), dynamic_slice_sizes={1,10494}, metadata={op_name="jit(_thomas_kernel)/while/body/dynamic_slice" stack_frame_id=12}
  %bitcast.2.4 = f64[10494]{0} bitcast(%dynamic_slice.4.2), metadata={op_name="jit(_thomas_kernel)/while/body/dynamic_slice" stack_frame_id=12}
  %param_0.22 = f64[10494]{0} parameter(0)
  %mul.1.3 = f64[10494]{0} multiply(%bitcast.2.4, %param_0.22), metadata={op_name="jit(_thomas_kernel)/while/body/closed_call/mul" stack_frame_id=33}
  %sub.1.3 = f64[10494]{0} subtract(%bitcast.3.3, %mul.1.3), metadata={op_name="jit(_thomas_kernel)/while/body/closed_call/sub" stack_frame_id=32}
  %param_4.11 = f64[44,10494]{1,0} parameter(4)
  %dynamic_slice.5.1 = f64[1,10494]{1,0} dynamic-slice(%param_4.11, %param_3.16, %constant_5_4), dynamic_slice_sizes={1,10494}, metadata={op_name="jit(_thomas_kernel)/while/body/dynamic_slice" stack_frame_id=12}
  %bitcast.1.5 = f64[10494]{0} bitcast(%dynamic_slice.5.1), metadata={op_name="jit(_thomas_kernel)/while/body/dynamic_slice" stack_frame_id=12}
  %param_1.32 = f64[10494]{0} parameter(1)
  %mul.0.3 = f64[10494]{0} multiply(%bitcast.2.4, %param_1.32), metadata={op_name="jit(_thomas_kernel)/while/body/closed_call/mul" stack_frame_id=35}
  %sub.0.5 = f64[10494]{0} subtract(%bitcast.1.5, %mul.0.3), metadata={op_name="jit(_thomas_kernel)/while/body/closed_call/sub" stack_frame_id=34}
  %div.1.1 = f64[10494]{0} divide(%sub.1.3, %sub.0.5), metadata={op_name="jit(_thomas_kernel)/while/body/closed_call/div" stack_frame_id=13}
  %param_6.5 = f64[44,10494]{1,0} parameter(6)
  %dynamic_slice.6.1.clone.1 = f64[1,10494]{1,0} dynamic-slice(%param_6.5, %param_3.16, %constant_5_4), dynamic_slice_sizes={1,10494}, metadata={op_name="jit(_thomas_kernel)/while/body/dynamic_slice" stack_frame_id=12}
  %bitcast.13.clone.1 = f64[10494]{0} bitcast(%dynamic_slice.6.1.clone.1), metadata={op_name="jit(_thomas_kernel)/while/body/dynamic_slice" stack_frame_id=12}
  %div.0.1.clone.1 = f64[10494]{0} divide(%bitcast.13.clone.1, %sub.0.5), metadata={op_name="jit(_thomas_kernel)/while/body/closed_call/div" stack_frame_id=31}
  ROOT %tuple.4 = (f64[10494]{0}, f64[10494]{0}) tuple(%div.1.1, %div.0.1.clone.1)
}

%fused_add (param_0.25: s64[]) -> s64[] {
  %param_0.25 = s64[] parameter(0)
  %constant_4_1 = s64[] constant(1)
  ROOT %add.1.1 = s64[] add(%param_0.25, %constant_4_1), metadata={op_name="jit(_thomas_kernel)/while/body/add" stack_frame_id=12}
}

%region_0.2 (arg_tuple.1: (s64[], f64[10494], f64[10494], f64[44,10494], f64[44,10494], /*index=5*/f64[44,10494], f64[44,10494], f64[44,10494], f64[44,10494])) -> (s64[], f64[10494], f64[10494], f64[44,10494], f64[44,10494], /*index=5*/f64[44,10494], f64[44,10494], f64[44,10494], f64[44,10494]) {
  %arg_tuple.1 = (s64[], f64[10494]{0}, f64[10494]{0}, f64[44,10494]{1,0}, f64[44,10494]{1,0}, /*index=5*/f64[44,10494]{1,0}, f64[44,10494]{1,0}, f64[44,10494]{1,0}, f64[44,10494]{1,0}) parameter(0)
  %get-tuple-element.24 = s64[] get-tuple-element(%arg_tuple.1), index=0
  %get-tuple-element.57 = f64[44,10494]{1,0} get-tuple-element(%arg_tuple.1), index=5
  %get-tuple-element.58 = f64[44,10494]{1,0} get-tuple-element(%arg_tuple.1), index=6
  %get-tuple-element.59 = f64[44,10494]{1,0} get-tuple-element(%arg_tuple.1), index=7
  %get-tuple-element.60 = f64[44,10494]{1,0} get-tuple-element(%arg_tuple.1), index=8
  %get-tuple-element.25 = f64[10494]{0} get-tuple-element(%arg_tuple.1), index=1
  %get-tuple-element.26 = f64[10494]{0} get-tuple-element(%arg_tuple.1), index=2
  %get-tuple-element.36 = f64[44,10494]{1,0} get-tuple-element(%arg_tuple.1), index=3
  %get-tuple-element.37 = f64[44,10494]{1,0} get-tuple-element(%arg_tuple.1), index=4
  %loop_divide_fusion = (f64[10494]{0}, f64[10494]{0}) fusion(%get-tuple-element.26, %get-tuple-element.25, %get-tuple-element.60, %get-tuple-element.24, %get-tuple-element.58, /*index=5*/%get-tuple-element.57, %get-tuple-element.59), kind=kLoop, calls=%fused_divide, metadata={op_name="jit(_thomas_kernel)/while/body/closed_call/div" stack_frame_id=13}
  %get-tuple-element.48 = f64[10494]{0} get-tuple-element(%loop_divide_fusion), index=1, metadata={op_name="jit(_thomas_kernel)/while/body/closed_call/div" stack_frame_id=13}
  %get-tuple-element.49 = f64[10494]{0} get-tuple-element(%loop_divide_fusion), index=0, metadata={op_name="jit(_thomas_kernel)/while/body/closed_call/div" stack_frame_id=13}
  %loop_dynamic_update_slice_fusion = f64[44,10494]{1,0} fusion(%get-tuple-element.37, %get-tuple-element.24, %get-tuple-element.49), kind=kLoop, calls=%fused_dynamic_update_slice, metadata={op_name="jit(_thomas_kernel)/while/body/dynamic_update_slice" deduplicated_name="loop_dynamic_update_slice_fusion" stack_frame_id=12}, backend_config={"operation_queue_id":"0","fusion_backend_config":{"kind":"__dynamic_memcpy","dynamic_memcpy_config":{"depends_on_loop":true,"src_offset_bytes":["0","0","0","0","0","0","0","0","0","0","0","0","0","0","0","0","0","0","0","0","0","0","0","0","0","0","0","0","0","0","0","0","0","0","0","0","0","0","0","0","0","0","0","0"],"dst_offset_bytes":["0","83952","167904","251856","335808","419760","503712","587664","671616","755568","839520","923472","1007424","1091376","1175328","1259280","1343232","1427184","1511136","1595088","1679040","1762992","1846944","1930896","2014848","2098800","2182752","2266704","2350656","2434608","2518560","2602512","2686464","2770416","2854368","2938320","3022272","3106224","3190176","3274128","3358080","3442032","3525984","3609936"]}},"force_earliest_schedule":false,"reification_cost":[],"device_type":"DEVICE_TYPE_INVALID"}
  %loop_dynamic_update_slice_fusion.1 = f64[44,10494]{1,0} fusion(%get-tuple-element.36, %get-tuple-element.24, %get-tuple-element.48), kind=kLoop, calls=%fused_dynamic_update_slice.1, metadata={op_name="jit(_thomas_kernel)/while/body/dynamic_update_slice" deduplicated_name="loop_dynamic_update_slice_fusion" stack_frame_id=12}, backend_config={"operation_queue_id":"0","fusion_backend_config":{"kind":"__dynamic_memcpy","dynamic_memcpy_config":{"depends_on_loop":true,"src_offset_bytes":["0","0","0","0","0","0","0","0","0","0","0","0","0","0","0","0","0","0","0","0","0","0","0","0","0","0","0","0","0","0","0","0","0","0","0","0","0","0","0","0","0","0","0","0"],"dst_offset_bytes":["0","83952","167904","251856","335808","419760","503712","587664","671616","755568","839520","923472","1007424","1091376","1175328","1259280","1343232","1427184","1511136","1595088","1679040","1762992","1846944","1930896","2014848","2098800","2182752","2266704","2350656","2434608","2518560","2602512","2686464","2770416","2854368","2938320","3022272","3106224","3190176","3274128","3358080","3442032","3525984","3609936"]}},"force_earliest_schedule":false,"reification_cost":[],"device_type":"DEVICE_TYPE_INVALID"}
  %loop_add_fusion = s64[] fusion(%get-tuple-element.24), kind=kLoop, calls=%fused_add, control-predecessors={%loop_dynamic_update_slice_fusion.1, %loop_dynamic_update_slice_fusion, %loop_divide_fusion}, metadata={op_name="jit(_thomas_kernel)/while/body/add" deduplicated_name="loop_add_fusion" stack_frame_id=12}
  ROOT %tuple.11 = (s64[], f64[10494]{0}, f64[10494]{0}, f64[44,10494]{1,0}, f64[44,10494]{1,0}, /*index=5*/f64[44,10494]{1,0}, f64[44,10494]{1,0}, f64[44,10494]{1,0}, f64[44,10494]{1,0}) tuple(%loop_add_fusion, %get-tuple-element.48, %get-tuple-element.49, %loop_dynamic_update_slice_fusion.1, %loop_dynamic_update_slice_fusion, /*index=5*/%get-tuple-element.57, %get-tuple-element.58, %get-tuple-element.59, %get-tuple-element.60)
}

%fused_compare (param_0.26: s64[]) -> pred[] {
  %param_0.26 = s64[] parameter(0)
  %constant_7_1 = s64[] constant(44)
  ROOT %lt.1.1 = pred[] compare(%param_0.26, %constant_7_1), direction=LT, metadata={op_name="jit(_thomas_kernel)/while/cond/lt" stack_frame_id=12}
}

%region_1.3 (arg_tuple.3: (s64[], f64[10494], f64[10494], f64[44,10494], f64[44,10494], /*index=5*/f64[44,10494], f64[44,10494], f64[44,10494], f64[44,10494])) -> pred[] {
  %arg_tuple.3 = (s64[], f64[10494]{0}, f64[10494]{0}, f64[44,10494]{1,0}, f64[44,10494]{1,0}, /*index=5*/f64[44,10494]{1,0}, f64[44,10494]{1,0}, f64[44,10494]{1,0}, f64[44,10494]{1,0}) parameter(0)
  %get-tuple-element.27.0 = s64[] get-tuple-element(%arg_tuple.3), index=0
  ROOT %loop_compare_fusion = pred[] fusion(%get-tuple-element.27.0), kind=kLoop, calls=%fused_compare, metadata={op_name="jit(_thomas_kernel)/while/cond/lt" deduplicated_name="loop_compare_fusion" stack_frame_id=12}
}

%fused_dynamic_update_slice.2 (param_0.27: f64[44,10494], param_1.36: s64[], param_2.27: f64[10494]) -> f64[44,10494] {
  %param_0.27 = f64[44,10494]{1,0} parameter(0)
  %param_2.27 = f64[10494]{0} parameter(2)
  %bitcast.8.1 = f64[1,10494]{1,0} bitcast(%param_2.27), metadata={op_name="jit(_thomas_kernel)/while/body/closed_call/sub" stack_frame_id=21}
  %param_1.36 = s64[] parameter(1)
  %constant_11_1 = s64[] constant(0)
  ROOT %dynamic_update_slice.5.1 = f64[44,10494]{1,0} dynamic-update-slice(%param_0.27, %bitcast.8.1, %param_1.36, %constant_11_1), metadata={op_name="jit(_thomas_kernel)/while/body/dynamic_update_slice" stack_frame_id=20}
}

%fused_subtract (param_0.34: f64[10494], param_1.45: f64[44,10494], param_2.26: s64[], param_3.22: f64[44,10494]) -> f64[10494] {
  %param_1.45 = f64[44,10494]{1,0} parameter(1)
  %param_2.26 = s64[] parameter(2)
  %constant_11_2 = s64[] constant(0)
  %dynamic_slice.11.1 = f64[1,10494]{1,0} dynamic-slice(%param_1.45, %param_2.26, %constant_11_2), dynamic_slice_sizes={1,10494}, metadata={op_name="jit(_thomas_kernel)/while/body/dynamic_slice" stack_frame_id=20}
  %bitcast.6.1 = f64[10494]{0} bitcast(%dynamic_slice.11.1), metadata={op_name="jit(_thomas_kernel)/while/body/dynamic_slice" stack_frame_id=20}
  %param_3.22 = f64[44,10494]{1,0} parameter(3)
  %dynamic_slice.10.1 = f64[1,10494]{1,0} dynamic-slice(%param_3.22, %param_2.26, %constant_11_2), dynamic_slice_sizes={1,10494}, metadata={op_name="jit(_thomas_kernel)/while/body/dynamic_slice" stack_frame_id=20}
  %bitcast.7.3 = f64[10494]{0} bitcast(%dynamic_slice.10.1), metadata={op_name="jit(_thomas_kernel)/while/body/dynamic_slice" stack_frame_id=20}
  %param_0.34 = f64[10494]{0} parameter(0)
  %mul.4.3 = f64[10494]{0} multiply(%bitcast.7.3, %param_0.34), metadata={op_name="jit(_thomas_kernel)/while/body/closed_call/mul" stack_frame_id=36}
  ROOT %sub.4.1 = f64[10494]{0} subtract(%bitcast.6.1, %mul.4.3), metadata={op_name="jit(_thomas_kernel)/while/body/closed_call/sub" stack_frame_id=21}
}

%fused_add.1 (param_0.35: s64[]) -> s64[] {
  %param_0.35 = s64[] parameter(0)
  %constant_10_1 = s64[] constant(1)
  ROOT %add.3.1 = s64[] add(%param_0.35, %constant_10_1), metadata={op_name="jit(_thomas_kernel)/while/body/add" stack_frame_id=20}
}

%region_2.5 (arg_tuple.5: (s64[], f64[10494], f64[44,10494], f64[44,10494], f64[44,10494])) -> (s64[], f64[10494], f64[44,10494], f64[44,10494], f64[44,10494]) {
  %arg_tuple.5 = (s64[], f64[10494]{0}, f64[44,10494]{1,0}, f64[44,10494]{1,0}, f64[44,10494]{1,0}) parameter(0)
  %get-tuple-element.66 = s64[] get-tuple-element(%arg_tuple.5), index=0
  %get-tuple-element.74 = f64[44,10494]{1,0} get-tuple-element(%arg_tuple.5), index=3
  %get-tuple-element.75 = f64[44,10494]{1,0} get-tuple-element(%arg_tuple.5), index=4
  %get-tuple-element.67 = f64[10494]{0} get-tuple-element(%arg_tuple.5), index=1
  %get-tuple-element.68 = f64[44,10494]{1,0} get-tuple-element(%arg_tuple.5), index=2
  %loop_subtract_fusion = f64[10494]{0} fusion(%get-tuple-element.67, %get-tuple-element.75, %get-tuple-element.66, %get-tuple-element.74), kind=kLoop, calls=%fused_subtract, metadata={op_name="jit(_thomas_kernel)/while/body/closed_call/sub" stack_frame_id=21}
  %loop_dynamic_update_slice_fusion.2 = f64[44,10494]{1,0} fusion(%get-tuple-element.68, %get-tuple-element.66, %loop_subtract_fusion), kind=kLoop, calls=%fused_dynamic_update_slice.2, metadata={op_name="jit(_thomas_kernel)/while/body/dynamic_update_slice" deduplicated_name="loop_dynamic_update_slice_fusion" stack_frame_id=20}, backend_config={"operation_queue_id":"0","fusion_backend_config":{"kind":"__dynamic_memcpy","dynamic_memcpy_config":{"depends_on_loop":true,"src_offset_bytes":["0","0","0","0","0","0","0","0","0","0","0","0","0","0","0","0","0","0","0","0","0","0","0","0","0","0","0","0","0","0","0","0","0","0","0","0","0","0","0","0","0","0","0","0"],"dst_offset_bytes":["0","83952","167904","251856","335808","419760","503712","587664","671616","755568","839520","923472","1007424","1091376","1175328","1259280","1343232","1427184","1511136","1595088","1679040","1762992","1846944","1930896","2014848","2098800","2182752","2266704","2350656","2434608","2518560","2602512","2686464","2770416","2854368","2938320","3022272","3106224","3190176","3274128","3358080","3442032","3525984","3609936"]}},"force_earliest_schedule":false,"reification_cost":[],"device_type":"DEVICE_TYPE_INVALID"}
  %loop_add_fusion.1 = s64[] fusion(%get-tuple-element.66), kind=kLoop, calls=%fused_add.1, control-predecessors={%loop_dynamic_update_slice_fusion.2, %loop_subtract_fusion}, metadata={op_name="jit(_thomas_kernel)/while/body/add" deduplicated_name="loop_add_fusion" stack_frame_id=20}
  ROOT %tuple.14 = (s64[], f64[10494]{0}, f64[44,10494]{1,0}, f64[44,10494]{1,0}, f64[44,10494]{1,0}) tuple(%loop_add_fusion.1, %loop_subtract_fusion, %loop_dynamic_update_slice_fusion.2, %get-tuple-element.74, %get-tuple-element.75)
}

%fused_compare.1 (param_0.36: s64[]) -> pred[] {
  %param_0.36 = s64[] parameter(0)
  %constant_13_1 = s64[] constant(44)
  ROOT %lt.3.1 = pred[] compare(%param_0.36, %constant_13_1), direction=LT, metadata={op_name="jit(_thomas_kernel)/while/cond/lt" stack_frame_id=20}
}

%region_3.6 (arg_tuple.7: (s64[], f64[10494], f64[44,10494], f64[44,10494], f64[44,10494])) -> pred[] {
  %arg_tuple.7 = (s64[], f64[10494]{0}, f64[44,10494]{1,0}, f64[44,10494]{1,0}, f64[44,10494]{1,0}) parameter(0)
  %get-tuple-element.51.0 = s64[] get-tuple-element(%arg_tuple.7), index=0
  ROOT %loop_compare_fusion.1 = pred[] fusion(%get-tuple-element.51.0), kind=kLoop, calls=%fused_compare.1, metadata={op_name="jit(_thomas_kernel)/while/cond/lt" deduplicated_name="loop_compare_fusion" stack_frame_id=20}
}

%fused_reverse (param_0.58: f64[44,10494], param_1.65: f64[45,10494], param_2.30: f64[45,10494], param_3.27: f64[44,10494], param_4.16: f64[45,10494]) -> (f64[44,10494], f64[44,10494]) {
  %param_2.30 = f64[45,10494]{1,0} parameter(2)
  %slice.11.3 = f64[1,10494]{1,0} slice(%param_2.30), slice={[0:1], [0:10494]}, metadata={op_name="jit(_thomas_kernel)/slice" stack_frame_id=22}
  %param_1.65 = f64[45,10494]{1,0} parameter(1)
  %slice.12.4 = f64[1,10494]{1,0} slice(%param_1.65), slice={[0:1], [0:10494]}, metadata={op_name="jit(_thomas_kernel)/slice" stack_frame_id=38}
  %div.2.3 = f64[1,10494]{1,0} divide(%slice.11.3, %slice.12.4), metadata={op_name="jit(_thomas_kernel)/div" stack_frame_id=22}
  %param_0.58 = f64[44,10494]{1,0} parameter(0)
  %concatenate.3.3 = f64[45,10494]{1,0} concatenate(%div.2.3, %param_0.58), dimensions={0}, metadata={op_name="jit(_thomas_kernel)/concatenate" stack_frame_id=37}
  %slice.20.3 = f64[44,10494]{1,0} slice(%concatenate.3.3), slice={[0:44], [0:10494]}, metadata={op_name="jit(_thomas_kernel)/slice" stack_frame_id=25}
  %rev.3.1 = f64[44,10494]{1,0} reverse(%slice.20.3), dimensions={0}, metadata={op_name="jit(_thomas_kernel)/rev" stack_frame_id=25}
  %param_4.16 = f64[45,10494]{1,0} parameter(4)
  %slice.13.3.clone.1 = f64[1,10494]{1,0} slice(%param_4.16), slice={[0:1], [0:10494]}, metadata={op_name="jit(_thomas_kernel)/slice" stack_frame_id=23}
  %div.3.3.clone.1 = f64[1,10494]{1,0} divide(%slice.13.3.clone.1, %slice.12.4), metadata={op_name="jit(_thomas_kernel)/div" stack_frame_id=23}
  %param_3.27 = f64[44,10494]{1,0} parameter(3)
  %concatenate.4.3.clone.1 = f64[45,10494]{1,0} concatenate(%div.3.3.clone.1, %param_3.27), dimensions={0}, metadata={op_name="jit(_thomas_kernel)/concatenate" stack_frame_id=40}
  %slice.21.3.clone.1 = f64[44,10494]{1,0} slice(%concatenate.4.3.clone.1), slice={[0:44], [0:10494]}, metadata={op_name="jit(_thomas_kernel)/slice" stack_frame_id=39}
  %rev.4.1.clone.1 = f64[44,10494]{1,0} reverse(%slice.21.3.clone.1), dimensions={0}, metadata={op_name="jit(_thomas_kernel)/rev" stack_frame_id=39}
  ROOT %tuple.8 = (f64[44,10494]{1,0}, f64[44,10494]{1,0}) tuple(%rev.3.1, %rev.4.1.clone.1)
}

%fused_concatenate (param_0.56: f64[44,10494], param_1.62: f64[44,10494]) -> f64[45,10494] {
  %param_0.56 = f64[44,10494]{1,0} parameter(0)
  %rev.5.1 = f64[44,10494]{1,0} reverse(%param_0.56), dimensions={0}, metadata={op_name="jit(_thomas_kernel)/rev" stack_frame_id=41}
  %param_1.62 = f64[44,10494]{1,0} parameter(1)
  %slice.19.1 = f64[1,10494]{1,0} slice(%param_1.62), slice={[43:44], [0:10494]}, metadata={op_name="jit(_thomas_kernel)/slice" stack_frame_id=24}
  ROOT %concatenate.5.1 = f64[45,10494]{1,0} concatenate(%rev.5.1, %slice.19.1), dimensions={0}, metadata={op_name="jit(_thomas_kernel)/concatenate" stack_frame_id=26}
}

%fused_divide.1 (param_0.54: f64[45,10494], param_1.60: f64[45,10494], param_2.35: f64[45,10494]) -> (f64[1,10494], f64[1,10494]) {
  %param_0.54 = f64[45,10494]{1,0} parameter(0)
  %slice.13.1 = f64[1,10494]{1,0} slice(%param_0.54), slice={[0:1], [0:10494]}, metadata={op_name="jit(_thomas_kernel)/slice" stack_frame_id=23}
  %param_1.60 = f64[45,10494]{1,0} parameter(1)
  %slice.12.2 = f64[1,10494]{1,0} slice(%param_1.60), slice={[0:1], [0:10494]}, metadata={op_name="jit(_thomas_kernel)/slice" stack_frame_id=38}
  %div.3.1 = f64[1,10494]{1,0} divide(%slice.13.1, %slice.12.2), metadata={op_name="jit(_thomas_kernel)/div" stack_frame_id=23}
  %param_2.35 = f64[45,10494]{1,0} parameter(2)
  %slice.11.1.clone.1 = f64[1,10494]{1,0} slice(%param_2.35), slice={[0:1], [0:10494]}, metadata={op_name="jit(_thomas_kernel)/slice" stack_frame_id=22}
  %div.2.1.clone.1 = f64[1,10494]{1,0} divide(%slice.11.1.clone.1, %slice.12.2), metadata={op_name="jit(_thomas_kernel)/div" stack_frame_id=22}
  ROOT %tuple.6 = (f64[1,10494]{1,0}, f64[1,10494]{1,0}) tuple(%div.3.1, %div.2.1.clone.1)
}

%fused_broadcast () -> (f64[44,10494], f64[44,10494], f64[44,10494]) {
  %constant_14_1 = f64[] constant(0)
  %broadcast.1.1 = f64[44,10494]{1,0} broadcast(%constant_14_1), dimensions={}
  %copy.28 = f64[44,10494]{1,0} copy(%broadcast.1.1)
  %copy.29 = f64[44,10494]{1,0} copy(%broadcast.1.1)
  ROOT %tuple.15 = (f64[44,10494]{1,0}, f64[44,10494]{1,0}, f64[44,10494]{1,0}) tuple(%broadcast.1.1, %copy.28, %copy.29)
}

%wrapped_slice_computation (param_0.62: f64[45,10494]) -> f64[44,10494] {
  %param_0.62 = f64[45,10494]{1,0} parameter(0)
  ROOT %slice.15.1 = f64[44,10494]{1,0} slice(%param_0.62), slice={[1:45], [0:10494]}, metadata={op_name="jit(_thomas_kernel)/slice" stack_frame_id=27}
}

%wrapped_slice_computation.1 (param_0.63: f64[45,10494]) -> f64[44,10494] {
  %param_0.63 = f64[45,10494]{1,0} parameter(0)
  ROOT %slice.16.1 = f64[44,10494]{1,0} slice(%param_0.63), slice={[1:45], [0:10494]}, metadata={op_name="jit(_thomas_kernel)/slice" stack_frame_id=28}
}

%wrapped_slice_computation.2 (param_0.64: f64[45,10494]) -> f64[44,10494] {
  %param_0.64 = f64[45,10494]{1,0} parameter(0)
  ROOT %slice.17.1 = f64[44,10494]{1,0} slice(%param_0.64), slice={[1:45], [0:10494]}, metadata={op_name="jit(_thomas_kernel)/slice" stack_frame_id=29}
}

%wrapped_slice_computation.3 (param_0.65: f64[45,10494]) -> f64[44,10494] {
  %param_0.65 = f64[45,10494]{1,0} parameter(0)
  ROOT %slice.18.1 = f64[44,10494]{1,0} slice(%param_0.65), slice={[1:45], [0:10494]}, metadata={op_name="jit(_thomas_kernel)/slice" stack_frame_id=30}
}

%wrapped_slice_computation.4 (param_0.66: f64[44,10494]) -> f64[1,10494] {
  %param_0.66 = f64[44,10494]{1,0} parameter(0)
  ROOT %slice.19.2 = f64[1,10494]{1,0} slice(%param_0.66), slice={[43:44], [0:10494]}, metadata={op_name="jit(_thomas_kernel)/slice" stack_frame_id=24}
}

ENTRY %main.7 (a.1: f64[45,10494], b.1: f64[45,10494], c.1: f64[45,10494], rhs.1: f64[45,10494]) -> f64[45,10494] {
  %constant_15_0 = s64[] constant(0)
  %copy.30 = s64[] copy(%constant_15_0)
  %copy.3 = s64[] copy(%copy.30)
  %rhs.1 = f64[45,10494]{1,0} parameter(3), metadata={op_name="rhs"}
  %b.1 = f64[45,10494]{1,0} parameter(1), metadata={op_name="b"}
  %c.1 = f64[45,10494]{1,0} parameter(2), metadata={op_name="c"}
  %a.1 = f64[45,10494]{1,0} parameter(0), metadata={op_name="a"}
  %loop_divide_fusion.1 = (f64[1,10494]{1,0}, f64[1,10494]{1,0}) fusion(%rhs.1, %b.1, %c.1), kind=kLoop, calls=%fused_divide.1, metadata={op_name="jit(_thomas_kernel)/div" stack_frame_id=23}
  %get-tuple-element.3 = f64[1,10494]{1,0} get-tuple-element(%loop_divide_fusion.1), index=1, metadata={op_name="jit(_thomas_kernel)/div" stack_frame_id=23}
  %get-tuple-element.2 = f64[1,10494]{1,0} get-tuple-element(%loop_divide_fusion.1), index=0, metadata={op_name="jit(_thomas_kernel)/div" stack_frame_id=23}
  %bitcast.10.0 = f64[10494]{0} bitcast(%get-tuple-element.2), metadata={op_name="jit(_thomas_kernel)/div" stack_frame_id=23}
  %bitcast.9.0 = f64[10494]{0} bitcast(%get-tuple-element.3), metadata={op_name="jit(_thomas_kernel)/div" stack_frame_id=22}
  %wrapped_slice = f64[44,10494]{1,0} fusion(%a.1), kind=kLoop, calls=%wrapped_slice_computation, metadata={op_name="jit(_thomas_kernel)/slice" stack_frame_id=27}
  %wrapped_slice.2 = f64[44,10494]{1,0} fusion(%c.1), kind=kLoop, calls=%wrapped_slice_computation.2, metadata={op_name="jit(_thomas_kernel)/slice" stack_frame_id=29}
  %wrapped_slice.1 = f64[44,10494]{1,0} fusion(%b.1), kind=kLoop, calls=%wrapped_slice_computation.1, metadata={op_name="jit(_thomas_kernel)/slice" stack_frame_id=28}
  %wrapped_slice.3 = f64[44,10494]{1,0} fusion(%rhs.1), kind=kLoop, calls=%wrapped_slice_computation.3, metadata={op_name="jit(_thomas_kernel)/slice" stack_frame_id=30}
  %loop_broadcast_fusion = (f64[44,10494]{1,0}, f64[44,10494]{1,0}, f64[44,10494]{1,0}) fusion(), kind=kLoop, calls=%fused_broadcast
  %get-tuple-element.78 = f64[44,10494]{1,0} get-tuple-element(%loop_broadcast_fusion), index=2
  %get-tuple-element.76 = f64[44,10494]{1,0} get-tuple-element(%loop_broadcast_fusion), index=0
  %get-tuple-element.77 = f64[44,10494]{1,0} get-tuple-element(%loop_broadcast_fusion), index=1
  %tuple.9 = (s64[], f64[10494]{0}, f64[10494]{0}, f64[44,10494]{1,0}, f64[44,10494]{1,0}, /*index=5*/f64[44,10494]{1,0}, f64[44,10494]{1,0}, f64[44,10494]{1,0}, f64[44,10494]{1,0}) tuple(%copy.3, %bitcast.9.0, %bitcast.10.0, %get-tuple-element.78, %get-tuple-element.77, /*index=5*/%wrapped_slice, %wrapped_slice.1, %wrapped_slice.2, %wrapped_slice.3)
  %while.13 = (s64[], f64[10494]{0}, f64[10494]{0}, f64[44,10494]{1,0}, f64[44,10494]{1,0}, /*index=5*/f64[44,10494]{1,0}, f64[44,10494]{1,0}, f64[44,10494]{1,0}, f64[44,10494]{1,0}) while(%tuple.9), condition=%region_1.3, body=%region_0.2, metadata={op_name="jit(_thomas_kernel)/while" stack_frame_id=9}, backend_config={"known_trip_count":{"n":"44"},"known_init_step":{"init":"0","step":"1"},"known_induction_variable":{"tuple_index":"0"},"dynamic_variable_tuple_indices":[]}
  %while.18.0 = f64[44,10494]{1,0} get-tuple-element(%while.13), index=4, metadata={op_name="jit(_thomas_kernel)/while" stack_frame_id=9}
  %while.17.0 = f64[44,10494]{1,0} get-tuple-element(%while.13), index=3, metadata={op_name="jit(_thomas_kernel)/while" stack_frame_id=9}
  %wrapped_slice.4 = f64[1,10494]{1,0} fusion(%while.18.0), kind=kLoop, calls=%wrapped_slice_computation.4, metadata={op_name="jit(_thomas_kernel)/slice" stack_frame_id=24}
  %bitcast.11.0 = f64[10494]{0} bitcast(%wrapped_slice.4), metadata={op_name="jit(_thomas_kernel)/slice" stack_frame_id=24}
  %loop_reverse_fusion = (f64[44,10494]{1,0}, f64[44,10494]{1,0}) fusion(%while.17.0, %b.1, %c.1, %while.18.0, %rhs.1), kind=kLoop, calls=%fused_reverse, metadata={op_name="jit(_thomas_kernel)/rev" stack_frame_id=25}
  %get-tuple-element.65 = f64[44,10494]{1,0} get-tuple-element(%loop_reverse_fusion), index=1, metadata={op_name="jit(_thomas_kernel)/rev" stack_frame_id=25}
  %get-tuple-element.64 = f64[44,10494]{1,0} get-tuple-element(%loop_reverse_fusion), index=0, metadata={op_name="jit(_thomas_kernel)/rev" stack_frame_id=25}
  %tuple.12 = (s64[], f64[10494]{0}, f64[44,10494]{1,0}, f64[44,10494]{1,0}, f64[44,10494]{1,0}) tuple(%copy.30, %bitcast.11.0, %get-tuple-element.76, %get-tuple-element.64, %get-tuple-element.65)
  %while.20 = (s64[], f64[10494]{0}, f64[44,10494]{1,0}, f64[44,10494]{1,0}, f64[44,10494]{1,0}) while(%tuple.12), condition=%region_3.6, body=%region_2.5, metadata={op_name="jit(_thomas_kernel)/while" stack_frame_id=17}, backend_config={"known_trip_count":{"n":"44"},"known_init_step":{"init":"0","step":"1"},"known_induction_variable":{"tuple_index":"0"},"dynamic_variable_tuple_indices":[]}
  %while.23.0 = f64[44,10494]{1,0} get-tuple-element(%while.20), index=2, metadata={op_name="jit(_thomas_kernel)/while" stack_frame_id=17}
  ROOT %input_concatenate_fusion = f64[45,10494]{1,0} fusion(%while.23.0, %while.18.0), kind=kInput, calls=%fused_concatenate, metadata={op_name="jit(_thomas_kernel)/concatenate" stack_frame_id=26}
}
