HloModule jit__pcr_kernel, is_scheduled=true, entry_computation_layout={(f64[45,10494]{1,0}, f64[45,10494]{1,0}, f64[45,10494]{1,0}, f64[45,10494]{1,0})->f64[45,10494]{1,0}}, allow_spmd_sharding_propagation_to_parameters={true,true,true,true}, allow_spmd_sharding_propagation_to_output={true}, frontend_attributes={fingerprint_before_lhs="4118fbaee861e5dfb2be551c92c2f411"}

FileNames
1 "/tmp/wrf_gpu2_perfdesign/scripts/m6_perf_design_canary_1h.py"

FunctionNames
1 "_pcr_kernel"
2 "pcr_solve"
3 "<module>"
4 "main"
5 "run_solver_bakeoff"
6 "_shift_down"
7 "_shift_up"

FileLocations
1 {file_name_id=1 function_name_id=1 line=127 end_line=127 column=11 end_column=34}
2 {file_name_id=1 function_name_id=2 line=89 end_line=89 column=23 end_column=77}
3 {file_name_id=1 function_name_id=3 line=353 end_line=353 column=21 end_column=27}
4 {file_name_id=1 function_name_id=4 line=344 end_line=344 column=25 end_column=57}
5 {file_name_id=1 function_name_id=5 line=203 end_line=203 column=19 end_column=37}
6 {file_name_id=1 function_name_id=2 line=96 end_line=96 column=11 end_column=21}
7 {file_name_id=1 function_name_id=2 line=93 end_line=93 column=20 end_column=68}
8 {file_name_id=1 function_name_id=2 line=89 end_line=89 column=54 end_column=71}
9 {file_name_id=1 function_name_id=2 line=87 end_line=87 column=20 end_column=45}
10 {file_name_id=1 function_name_id=6 line=68 end_line=68 column=11 end_column=85}
11 {file_name_id=1 function_name_id=6 line=68 end_line=68 column=60 end_column=75}
12 {file_name_id=1 function_name_id=2 line=89 end_line=89 column=33 end_column=52}
13 {file_name_id=1 function_name_id=2 line=84 end_line=84 column=16 end_column=29}
14 {file_name_id=1 function_name_id=2 line=91 end_line=91 column=21 end_column=34}
15 {file_name_id=1 function_name_id=2 line=91 end_line=91 column=37 end_column=63}
16 {file_name_id=1 function_name_id=2 line=90 end_line=90 column=23 end_column=78}
17 {file_name_id=1 function_name_id=2 line=90 end_line=90 column=57 end_column=72}
18 {file_name_id=1 function_name_id=2 line=88 end_line=88 column=18 end_column=41}
19 {file_name_id=1 function_name_id=7 line=72 end_line=72 column=11 end_column=84}
20 {file_name_id=1 function_name_id=7 line=72 end_line=72 column=28 end_column=42}
21 {file_name_id=1 function_name_id=2 line=90 end_line=90 column=33 end_column=51}
22 {file_name_id=1 function_name_id=2 line=94 end_line=94 column=19 end_column=64}
23 {file_name_id=1 function_name_id=2 line=94 end_line=94 column=67 end_column=104}
24 {file_name_id=1 function_name_id=2 line=94 end_line=94 column=82 end_column=104}
25 {file_name_id=1 function_name_id=2 line=94 end_line=94 column=25 end_column=64}
26 {file_name_id=1 function_name_id=2 line=94 end_line=94 column=40 end_column=64}
27 {file_name_id=1 function_name_id=2 line=92 end_line=92 column=21 end_column=34}
28 {file_name_id=1 function_name_id=2 line=92 end_line=92 column=37 end_column=61}
29 {file_name_id=1 function_name_id=2 line=93 end_line=93 column=71 end_column=110}
30 {file_name_id=1 function_name_id=2 line=93 end_line=93 column=86 end_column=110}
31 {file_name_id=1 function_name_id=2 line=93 end_line=93 column=27 end_column=68}
32 {file_name_id=1 function_name_id=2 line=93 end_line=93 column=42 end_column=68}

StackFrames
1 {file_location_id=1 parent_frame_id=1}
2 {file_location_id=2 parent_frame_id=2}
3 {file_location_id=3 parent_frame_id=1}
4 {file_location_id=4 parent_frame_id=4}
5 {file_location_id=5 parent_frame_id=5}
6 {file_location_id=1 parent_frame_id=6}
7 {file_location_id=6 parent_frame_id=7}
8 {file_location_id=7 parent_frame_id=7}
9 {file_location_id=8 parent_frame_id=7}
10 {file_location_id=9 parent_frame_id=7}
11 {file_location_id=10 parent_frame_id=11}
12 {file_location_id=11 parent_frame_id=11}
13 {file_location_id=12 parent_frame_id=7}
14 {file_location_id=13 parent_frame_id=7}
15 {file_location_id=14 parent_frame_id=7}
16 {file_location_id=15 parent_frame_id=7}
17 {file_location_id=10 parent_frame_id=17}
18 {file_location_id=11 parent_frame_id=17}
19 {file_location_id=16 parent_frame_id=2}
20 {file_location_id=17 parent_frame_id=7}
21 {file_location_id=18 parent_frame_id=7}
22 {file_location_id=19 parent_frame_id=22}
23 {file_location_id=20 parent_frame_id=22}
24 {file_location_id=21 parent_frame_id=7}
25 {file_location_id=22 parent_frame_id=7}
26 {file_location_id=23 parent_frame_id=7}
27 {file_location_id=24 parent_frame_id=7}
28 {file_location_id=19 parent_frame_id=28}
29 {file_location_id=20 parent_frame_id=28}
30 {file_location_id=25 parent_frame_id=7}
31 {file_location_id=26 parent_frame_id=7}
32 {file_location_id=10 parent_frame_id=32}
33 {file_location_id=11 parent_frame_id=32}
34 {file_location_id=27 parent_frame_id=7}
35 {file_location_id=28 parent_frame_id=7}
36 {file_location_id=19 parent_frame_id=36}
37 {file_location_id=20 parent_frame_id=36}
38 {file_location_id=29 parent_frame_id=7}
39 {file_location_id=30 parent_frame_id=7}
40 {file_location_id=19 parent_frame_id=40}
41 {file_location_id=20 parent_frame_id=40}
42 {file_location_id=31 parent_frame_id=7}
43 {file_location_id=32 parent_frame_id=7}
44 {file_location_id=10 parent_frame_id=44}
45 {file_location_id=11 parent_frame_id=44}


%fused_multiply_select_subtract (param_0.332: f64[45,10494], param_1.346: f64[45,10494], param_2.289: f64[45,10494], param_3.214: f64[45,10494], param_4.165: f64[45,10494], param_5.152: f64[45,10494], param_6.125: f64[45,10494]) -> (f64[45,10494], f64[45,10494], f64[45,10494], f64[45,10494], f64[45,10494]) {
  %iota.30 = s64[45,1]{1,0} iota(), iota_dimension=0, metadata={op_name="jit(_pcr_kernel)/iota" stack_frame_id=14}
  %constant_18_2 = s64[] constant(8)
  %broadcast.17.4 = s64[45,1]{1,0} broadcast(%constant_18_2), dimensions={}
  %ge.9.3 = pred[45,1]{1,0} compare(%iota.30, %broadcast.17.4), direction=GE, metadata={op_name="jit(_pcr_kernel)/ge" stack_frame_id=13}
  %bitcast.6.3 = pred[45]{0} bitcast(%ge.9.3), metadata={op_name="jit(_pcr_kernel)/ge" stack_frame_id=13}
  %broadcast_in_dim.75.3 = pred[45,10494]{1,0} broadcast(%bitcast.6.3), dimensions={0}, metadata={op_name="jit(_pcr_kernel)/jit(_where)/broadcast_in_dim" stack_frame_id=2}
  %param_3.214 = f64[45,10494]{1,0} parameter(3)
  %neg.14.1.clone.1 = f64[45,10494]{1,0} negate(%param_3.214), metadata={op_name="jit(_pcr_kernel)/neg" stack_frame_id=15}
  %param_2.289 = f64[45,10494]{1,0} parameter(2)
  %neg.12.5.clone.1 = f64[45,10494]{1,0} negate(%param_2.289), metadata={op_name="jit(_pcr_kernel)/neg" stack_frame_id=15}
  %param_1.346 = f64[45,10494]{1,0} parameter(1)
  %slice.56.5.clone.1 = f64[43,10494]{1,0} slice(%param_1.346), slice={[0:43], [0:10494]}, metadata={op_name="jit(_pcr_kernel)/slice" stack_frame_id=18}
  %constant_26_7 = f64[] constant(0)
  %pad.12.5.clone.1 = f64[45,10494]{1,0} pad(%slice.56.5.clone.1, %constant_26_7), padding=2_0x0_0, metadata={op_name="jit(_pcr_kernel)/concatenate" stack_frame_id=17}
  %mul.40.5.clone.1 = f64[45,10494]{1,0} multiply(%neg.12.5.clone.1, %pad.12.5.clone.1), metadata={op_name="jit(_pcr_kernel)/mul" stack_frame_id=15}
  %slice.64.1.clone.1 = f64[41,10494]{1,0} slice(%mul.40.5.clone.1), slice={[0:41], [0:10494]}, metadata={op_name="jit(_pcr_kernel)/slice" stack_frame_id=18}
  %pad.20.1.clone.1 = f64[45,10494]{1,0} pad(%slice.64.1.clone.1, %constant_26_7), padding=4_0x0_0, metadata={op_name="jit(_pcr_kernel)/concatenate" stack_frame_id=17}
  %mul.46.1.clone.1 = f64[45,10494]{1,0} multiply(%neg.14.1.clone.1, %pad.20.1.clone.1), metadata={op_name="jit(_pcr_kernel)/mul" stack_frame_id=15}
  %param_0.332 = f64[45,10494]{1,0} parameter(0)
  %slice.70.1 = f64[37,10494]{1,0} slice(%param_0.332), slice={[0:37], [0:10494]}, metadata={op_name="jit(_pcr_kernel)/slice" stack_frame_id=12}
  %pad.23.1 = f64[45,10494]{1,0} pad(%slice.70.1, %constant_26_7), padding=8_0x0_0, metadata={op_name="jit(_pcr_kernel)/concatenate" stack_frame_id=11}
  %div.19.1 = f64[45,10494]{1,0} divide(%mul.46.1.clone.1, %pad.23.1), metadata={op_name="jit(_pcr_kernel)/div" stack_frame_id=9}
  %broadcast_in_dim.52.7 = f64[45,10494]{1,0} broadcast(%constant_26_7), dimensions={}, metadata={op_name="jit(_pcr_kernel)/jit(_where)/broadcast_in_dim" stack_frame_id=2}
  %select_n.18.1 = f64[45,10494]{1,0} select(%broadcast_in_dim.75.3, %div.19.1, %broadcast_in_dim.52.7), metadata={op_name="jit(_pcr_kernel)/jit(_where)/select_n" stack_frame_id=2}
  %iota.38.clone.1 = s64[45,1]{1,0} iota(), iota_dimension=0, metadata={op_name="jit(_pcr_kernel)/iota" stack_frame_id=14}
  %add.9.5.clone.1 = s64[45,1]{1,0} add(%iota.38.clone.1, %broadcast.17.4), metadata={op_name="jit(_pcr_kernel)/add" stack_frame_id=24}
  %constant_24_5_clone_1 = s64[] constant(45)
  %broadcast.23.8.clone.1 = s64[45,1]{1,0} broadcast(%constant_24_5_clone_1), dimensions={}
  %lt.9.3.clone.1 = pred[45,1]{1,0} compare(%add.9.5.clone.1, %broadcast.23.8.clone.1), direction=LT, metadata={op_name="jit(_pcr_kernel)/lt" stack_frame_id=24}
  %bitcast.7.3.clone.1 = pred[45]{0} bitcast(%lt.9.3.clone.1), metadata={op_name="jit(_pcr_kernel)/lt" stack_frame_id=24}
  %broadcast_in_dim.79.3.clone.1 = pred[45,10494]{1,0} broadcast(%bitcast.7.3.clone.1), dimensions={0}, metadata={op_name="jit(_pcr_kernel)/jit(_where)/broadcast_in_dim" stack_frame_id=19}
  %iota.48.clone.1 = s64[45,1]{1,0} iota(), iota_dimension=0, metadata={op_name="jit(_pcr_kernel)/iota" stack_frame_id=14}
  %constant_20_1_clone_1 = s64[] constant(4)
  %broadcast.19.8.clone.1 = s64[45,1]{1,0} broadcast(%constant_20_1_clone_1), dimensions={}
  %add.8.7.clone.1 = s64[45,1]{1,0} add(%iota.48.clone.1, %broadcast.19.8.clone.1), metadata={op_name="jit(_pcr_kernel)/add" stack_frame_id=24}
  %lt.8.5.clone.1 = pred[45,1]{1,0} compare(%add.8.7.clone.1, %broadcast.23.8.clone.1), direction=LT, metadata={op_name="jit(_pcr_kernel)/lt" stack_frame_id=24}
  %bitcast.5.3.clone.1 = pred[45]{0} bitcast(%lt.8.5.clone.1), metadata={op_name="jit(_pcr_kernel)/lt" stack_frame_id=24}
  %broadcast_in_dim.71.3.clone.1 = pred[45,10494]{1,0} broadcast(%bitcast.5.3.clone.1), dimensions={0}, metadata={op_name="jit(_pcr_kernel)/jit(_where)/broadcast_in_dim" stack_frame_id=19}
  %param_5.152 = f64[45,10494]{1,0} parameter(5)
  %param_6.125 = f64[45,10494]{1,0} parameter(6)
  %slice.63.7.clone.1 = f64[41,10494]{1,0} slice(%param_6.125), slice={[4:45], [0:10494]}, metadata={op_name="jit(_pcr_kernel)/slice" stack_frame_id=23}
  %pad.18.7.clone.1 = f64[45,10494]{1,0} pad(%slice.63.7.clone.1, %constant_26_7), padding=0_4x0_0, metadata={op_name="jit(_pcr_kernel)/concatenate" stack_frame_id=22}
  %div.18.7.clone.1 = f64[45,10494]{1,0} divide(%param_5.152, %pad.18.7.clone.1), metadata={op_name="jit(_pcr_kernel)/div" stack_frame_id=20}
  %select_n.17.7.clone.1 = f64[45,10494]{1,0} select(%broadcast_in_dim.71.3.clone.1, %div.18.7.clone.1, %broadcast_in_dim.52.7), metadata={op_name="jit(_pcr_kernel)/jit(_where)/select_n" stack_frame_id=19}
  %neg.15.1.clone.1 = f64[45,10494]{1,0} negate(%select_n.17.7.clone.1), metadata={op_name="jit(_pcr_kernel)/neg" stack_frame_id=34}
  %slice.65.1.clone.1 = f64[41,10494]{1,0} slice(%param_5.152), slice={[4:45], [0:10494]}, metadata={op_name="jit(_pcr_kernel)/slice" stack_frame_id=37}
  %pad.25.1.clone.1 = f64[45,10494]{1,0} pad(%slice.65.1.clone.1, %constant_26_7), padding=0_4x0_0, metadata={op_name="jit(_pcr_kernel)/concatenate" stack_frame_id=36}
  %mul.47.1.clone.1 = f64[45,10494]{1,0} multiply(%neg.15.1.clone.1, %pad.25.1.clone.1), metadata={op_name="jit(_pcr_kernel)/mul" stack_frame_id=34}
  %slice.71.1.clone.1 = f64[37,10494]{1,0} slice(%param_0.332), slice={[8:45], [0:10494]}, metadata={op_name="jit(_pcr_kernel)/slice" stack_frame_id=23}
  %pad.26.1.clone.1 = f64[45,10494]{1,0} pad(%slice.71.1.clone.1, %constant_26_7), padding=0_8x0_0, metadata={op_name="jit(_pcr_kernel)/concatenate" stack_frame_id=22}
  %div.20.1.clone.1 = f64[45,10494]{1,0} divide(%mul.47.1.clone.1, %pad.26.1.clone.1), metadata={op_name="jit(_pcr_kernel)/div" stack_frame_id=20}
  %select_n.19.1.clone.1 = f64[45,10494]{1,0} select(%broadcast_in_dim.79.3.clone.1, %div.20.1.clone.1, %broadcast_in_dim.52.7), metadata={op_name="jit(_pcr_kernel)/jit(_where)/select_n" stack_frame_id=19}
  %param_4.165 = f64[45,10494]{1,0} parameter(4)
  %slice.68.1.clone.1 = f64[41,10494]{1,0} slice(%param_4.165), slice={[0:41], [0:10494]}, metadata={op_name="jit(_pcr_kernel)/slice" stack_frame_id=33}
  %pad.16.3.clone.1 = f64[45,10494]{1,0} pad(%slice.68.1.clone.1, %constant_26_7), padding=4_0x0_0, metadata={op_name="jit(_pcr_kernel)/concatenate" stack_frame_id=32}
  %mul.50.3.clone.1 = f64[45,10494]{1,0} multiply(%param_3.214, %pad.16.3.clone.1), metadata={op_name="jit(_pcr_kernel)/mul" stack_frame_id=30}
  %sub.34.1.clone.1 = f64[45,10494]{1,0} subtract(%param_4.165, %mul.50.3.clone.1), metadata={op_name="jit(_pcr_kernel)/sub" stack_frame_id=25}
  %slice.69.1.clone.1 = f64[41,10494]{1,0} slice(%param_4.165), slice={[4:45], [0:10494]}, metadata={op_name="jit(_pcr_kernel)/slice" stack_frame_id=29}
  %pad.19.3.clone.1 = f64[45,10494]{1,0} pad(%slice.69.1.clone.1, %constant_26_7), padding=0_4x0_0, metadata={op_name="jit(_pcr_kernel)/concatenate" stack_frame_id=28}
  %mul.51.3.clone.1 = f64[45,10494]{1,0} multiply(%select_n.17.7.clone.1, %pad.19.3.clone.1), metadata={op_name="jit(_pcr_kernel)/mul" stack_frame_id=26}
  %sub.35.1.clone.1 = f64[45,10494]{1,0} subtract(%sub.34.1.clone.1, %mul.51.3.clone.1), metadata={op_name="jit(_pcr_kernel)/sub" stack_frame_id=25}
  ROOT %tuple.5 = (f64[45,10494]{1,0}, f64[45,10494]{1,0}, f64[45,10494]{1,0}, f64[45,10494]{1,0}, f64[45,10494]{1,0}) tuple(%select_n.18.1, %mul.46.1.clone.1, %select_n.19.1.clone.1, %sub.35.1.clone.1, %mul.47.1.clone.1)
}

%fused_select (param_0.326: f64[45,10494], param_1.338: f64[45,10494], param_2.275: f64[45,10494], param_3.204: f64[45,10494], param_4.153: f64[45,10494]) -> (f64[45,10494], f64[45,10494]) {
  %iota.42 = s64[45,1]{1,0} iota(), iota_dimension=0, metadata={op_name="jit(_pcr_kernel)/iota" stack_frame_id=14}
  %constant_16_2 = s64[] constant(16)
  %broadcast.15.4 = s64[45,1]{1,0} broadcast(%constant_16_2), dimensions={}
  %ge.10.3 = pred[45,1]{1,0} compare(%iota.42, %broadcast.15.4), direction=GE, metadata={op_name="jit(_pcr_kernel)/ge" stack_frame_id=13}
  %bitcast.8.3 = pred[45]{0} bitcast(%ge.10.3), metadata={op_name="jit(_pcr_kernel)/ge" stack_frame_id=13}
  %broadcast_in_dim.83.3 = pred[45,10494]{1,0} broadcast(%bitcast.8.3), dimensions={0}, metadata={op_name="jit(_pcr_kernel)/jit(_where)/broadcast_in_dim" stack_frame_id=2}
  %param_1.338 = f64[45,10494]{1,0} parameter(1)
  %neg.16.3 = f64[45,10494]{1,0} negate(%param_1.338), metadata={op_name="jit(_pcr_kernel)/neg" stack_frame_id=15}
  %param_0.326 = f64[45,10494]{1,0} parameter(0)
  %slice.72.3 = f64[37,10494]{1,0} slice(%param_0.326), slice={[0:37], [0:10494]}, metadata={op_name="jit(_pcr_kernel)/slice" stack_frame_id=18}
  %constant_26_13 = f64[] constant(0)
  %pad.28.3 = f64[45,10494]{1,0} pad(%slice.72.3, %constant_26_13), padding=8_0x0_0, metadata={op_name="jit(_pcr_kernel)/concatenate" stack_frame_id=17}
  %mul.52.3 = f64[45,10494]{1,0} multiply(%neg.16.3, %pad.28.3), metadata={op_name="jit(_pcr_kernel)/mul" stack_frame_id=15}
  %param_3.204 = f64[45,10494]{1,0} parameter(3)
  %param_4.153 = f64[45,10494]{1,0} parameter(4)
  %slice.74.3 = f64[37,10494]{1,0} slice(%param_4.153), slice={[0:37], [0:10494]}, metadata={op_name="jit(_pcr_kernel)/slice" stack_frame_id=45}
  %pad.29.5 = f64[45,10494]{1,0} pad(%slice.74.3, %constant_26_13), padding=8_0x0_0, metadata={op_name="jit(_pcr_kernel)/concatenate" stack_frame_id=44}
  %mul.54.5 = f64[45,10494]{1,0} multiply(%param_1.338, %pad.29.5), metadata={op_name="jit(_pcr_kernel)/mul" stack_frame_id=42}
  %sub.36.3 = f64[45,10494]{1,0} subtract(%param_3.204, %mul.54.5), metadata={op_name="jit(_pcr_kernel)/sub" stack_frame_id=8}
  %param_2.275 = f64[45,10494]{1,0} parameter(2)
  %slice.75.3 = f64[37,10494]{1,0} slice(%param_0.326), slice={[8:45], [0:10494]}, metadata={op_name="jit(_pcr_kernel)/slice" stack_frame_id=41}
  %pad.30.5 = f64[45,10494]{1,0} pad(%slice.75.3, %constant_26_13), padding=0_8x0_0, metadata={op_name="jit(_pcr_kernel)/concatenate" stack_frame_id=40}
  %mul.55.5 = f64[45,10494]{1,0} multiply(%param_2.275, %pad.30.5), metadata={op_name="jit(_pcr_kernel)/mul" stack_frame_id=38}
  %sub.37.3 = f64[45,10494]{1,0} subtract(%sub.36.3, %mul.55.5), metadata={op_name="jit(_pcr_kernel)/sub" stack_frame_id=8}
  %slice.78.1 = f64[29,10494]{1,0} slice(%sub.37.3), slice={[0:29], [0:10494]}, metadata={op_name="jit(_pcr_kernel)/slice" stack_frame_id=12}
  %pad.31.1 = f64[45,10494]{1,0} pad(%slice.78.1, %constant_26_13), padding=16_0x0_0, metadata={op_name="jit(_pcr_kernel)/concatenate" stack_frame_id=11}
  %div.21.1 = f64[45,10494]{1,0} divide(%mul.52.3, %pad.31.1), metadata={op_name="jit(_pcr_kernel)/div" stack_frame_id=9}
  %broadcast_in_dim.52.9 = f64[45,10494]{1,0} broadcast(%constant_26_13), dimensions={}, metadata={op_name="jit(_pcr_kernel)/jit(_where)/broadcast_in_dim" stack_frame_id=2}
  %select_n.20.1 = f64[45,10494]{1,0} select(%broadcast_in_dim.83.3, %div.21.1, %broadcast_in_dim.52.9), metadata={op_name="jit(_pcr_kernel)/jit(_where)/select_n" stack_frame_id=2}
  %iota.44.clone.1 = s64[45,1]{1,0} iota(), iota_dimension=0, metadata={op_name="jit(_pcr_kernel)/iota" stack_frame_id=14}
  %add.10.5.clone.1 = s64[45,1]{1,0} add(%iota.44.clone.1, %broadcast.15.4), metadata={op_name="jit(_pcr_kernel)/add" stack_frame_id=24}
  %constant_24_6_clone_1 = s64[] constant(45)
  %broadcast.23.12.clone.1 = s64[45,1]{1,0} broadcast(%constant_24_6_clone_1), dimensions={}
  %lt.10.3.clone.1 = pred[45,1]{1,0} compare(%add.10.5.clone.1, %broadcast.23.12.clone.1), direction=LT, metadata={op_name="jit(_pcr_kernel)/lt" stack_frame_id=24}
  %bitcast.9.3.clone.1 = pred[45]{0} bitcast(%lt.10.3.clone.1), metadata={op_name="jit(_pcr_kernel)/lt" stack_frame_id=24}
  %broadcast_in_dim.87.3.clone.1 = pred[45,10494]{1,0} broadcast(%bitcast.9.3.clone.1), dimensions={0}, metadata={op_name="jit(_pcr_kernel)/jit(_where)/broadcast_in_dim" stack_frame_id=19}
  %neg.17.3.clone.1 = f64[45,10494]{1,0} negate(%param_2.275), metadata={op_name="jit(_pcr_kernel)/neg" stack_frame_id=34}
  %slice.73.3.clone.1 = f64[37,10494]{1,0} slice(%param_4.153), slice={[8:45], [0:10494]}, metadata={op_name="jit(_pcr_kernel)/slice" stack_frame_id=37}
  %pad.33.3.clone.1 = f64[45,10494]{1,0} pad(%slice.73.3.clone.1, %constant_26_13), padding=0_8x0_0, metadata={op_name="jit(_pcr_kernel)/concatenate" stack_frame_id=36}
  %mul.53.3.clone.1 = f64[45,10494]{1,0} multiply(%neg.17.3.clone.1, %pad.33.3.clone.1), metadata={op_name="jit(_pcr_kernel)/mul" stack_frame_id=34}
  %slice.79.1.clone.1 = f64[29,10494]{1,0} slice(%sub.37.3), slice={[16:45], [0:10494]}, metadata={op_name="jit(_pcr_kernel)/slice" stack_frame_id=23}
  %pad.34.1.clone.1 = f64[45,10494]{1,0} pad(%slice.79.1.clone.1, %constant_26_13), padding=0_16x0_0, metadata={op_name="jit(_pcr_kernel)/concatenate" stack_frame_id=22}
  %div.22.1.clone.1 = f64[45,10494]{1,0} divide(%mul.53.3.clone.1, %pad.34.1.clone.1), metadata={op_name="jit(_pcr_kernel)/div" stack_frame_id=20}
  %select_n.21.1.clone.1 = f64[45,10494]{1,0} select(%broadcast_in_dim.87.3.clone.1, %div.22.1.clone.1, %broadcast_in_dim.52.9), metadata={op_name="jit(_pcr_kernel)/jit(_where)/select_n" stack_frame_id=19}
  ROOT %tuple = (f64[45,10494]{1,0}, f64[45,10494]{1,0}) tuple(%select_n.20.1, %select_n.21.1.clone.1)
}

%fused_divide (param_0.323: f64[45,10494], param_1.335: f64[45,10494], param_2.272: f64[45,10494], param_3.201: f64[45,10494], param_4.151: f64[45,10494], param_5.127: f64[45,10494], param_6.98: f64[45,10494], param_7.75: f64[45,10494]) -> f64[45,10494] {
  %param_7.75 = f64[45,10494]{1,0} parameter(7)
  %param_5.127 = f64[45,10494]{1,0} parameter(5)
  %slice.76.3 = f64[37,10494]{1,0} slice(%param_7.75), slice={[0:37], [0:10494]}, metadata={op_name="jit(_pcr_kernel)/slice" stack_frame_id=33}
  %constant_26_10 = f64[] constant(0)
  %pad.24.5 = f64[45,10494]{1,0} pad(%slice.76.3, %constant_26_10), padding=8_0x0_0, metadata={op_name="jit(_pcr_kernel)/concatenate" stack_frame_id=32}
  %mul.56.5 = f64[45,10494]{1,0} multiply(%param_5.127, %pad.24.5), metadata={op_name="jit(_pcr_kernel)/mul" stack_frame_id=30}
  %sub.38.3 = f64[45,10494]{1,0} subtract(%param_7.75, %mul.56.5), metadata={op_name="jit(_pcr_kernel)/sub" stack_frame_id=25}
  %param_3.201 = f64[45,10494]{1,0} parameter(3)
  %slice.77.3 = f64[37,10494]{1,0} slice(%param_7.75), slice={[8:45], [0:10494]}, metadata={op_name="jit(_pcr_kernel)/slice" stack_frame_id=29}
  %pad.27.5 = f64[45,10494]{1,0} pad(%slice.77.3, %constant_26_10), padding=0_8x0_0, metadata={op_name="jit(_pcr_kernel)/concatenate" stack_frame_id=28}
  %mul.57.5 = f64[45,10494]{1,0} multiply(%param_3.201, %pad.27.5), metadata={op_name="jit(_pcr_kernel)/mul" stack_frame_id=26}
  %sub.39.3 = f64[45,10494]{1,0} subtract(%sub.38.3, %mul.57.5), metadata={op_name="jit(_pcr_kernel)/sub" stack_frame_id=25}
  %param_1.335 = f64[45,10494]{1,0} parameter(1)
  %slice.84.3 = f64[29,10494]{1,0} slice(%sub.39.3), slice={[0:29], [0:10494]}, metadata={op_name="jit(_pcr_kernel)/slice" stack_frame_id=33}
  %pad.32.5 = f64[45,10494]{1,0} pad(%slice.84.3, %constant_26_10), padding=16_0x0_0, metadata={op_name="jit(_pcr_kernel)/concatenate" stack_frame_id=32}
  %mul.62.5 = f64[45,10494]{1,0} multiply(%param_1.335, %pad.32.5), metadata={op_name="jit(_pcr_kernel)/mul" stack_frame_id=30}
  %sub.42.3 = f64[45,10494]{1,0} subtract(%sub.39.3, %mul.62.5), metadata={op_name="jit(_pcr_kernel)/sub" stack_frame_id=25}
  %param_0.323 = f64[45,10494]{1,0} parameter(0)
  %slice.85.3 = f64[29,10494]{1,0} slice(%sub.39.3), slice={[16:45], [0:10494]}, metadata={op_name="jit(_pcr_kernel)/slice" stack_frame_id=29}
  %pad.35.5 = f64[45,10494]{1,0} pad(%slice.85.3, %constant_26_10), padding=0_16x0_0, metadata={op_name="jit(_pcr_kernel)/concatenate" stack_frame_id=28}
  %mul.63.5 = f64[45,10494]{1,0} multiply(%param_0.323, %pad.35.5), metadata={op_name="jit(_pcr_kernel)/mul" stack_frame_id=26}
  %sub.43.3 = f64[45,10494]{1,0} subtract(%sub.42.3, %mul.63.5), metadata={op_name="jit(_pcr_kernel)/sub" stack_frame_id=25}
  %iota.28 = s64[45,1]{1,0} iota(), iota_dimension=0, metadata={op_name="jit(_pcr_kernel)/iota" stack_frame_id=14}
  %constant_14_1 = s64[] constant(32)
  %broadcast.13.4 = s64[45,1]{1,0} broadcast(%constant_14_1), dimensions={}
  %ge.11.3 = pred[45,1]{1,0} compare(%iota.28, %broadcast.13.4), direction=GE, metadata={op_name="jit(_pcr_kernel)/ge" stack_frame_id=13}
  %bitcast.10.3 = pred[45]{0} bitcast(%ge.11.3), metadata={op_name="jit(_pcr_kernel)/ge" stack_frame_id=13}
  %broadcast_in_dim.91.3 = pred[45,10494]{1,0} broadcast(%bitcast.10.3), dimensions={0}, metadata={op_name="jit(_pcr_kernel)/jit(_where)/broadcast_in_dim" stack_frame_id=2}
  %neg.18.4 = f64[45,10494]{1,0} negate(%param_1.335), metadata={op_name="jit(_pcr_kernel)/neg" stack_frame_id=15}
  %neg.16.27 = f64[45,10494]{1,0} negate(%param_5.127), metadata={op_name="jit(_pcr_kernel)/neg" stack_frame_id=15}
  %param_4.151 = f64[45,10494]{1,0} parameter(4)
  %slice.72.27 = f64[37,10494]{1,0} slice(%param_4.151), slice={[0:37], [0:10494]}, metadata={op_name="jit(_pcr_kernel)/slice" stack_frame_id=18}
  %pad.28.27 = f64[45,10494]{1,0} pad(%slice.72.27, %constant_26_10), padding=8_0x0_0, metadata={op_name="jit(_pcr_kernel)/concatenate" stack_frame_id=17}
  %mul.52.27 = f64[45,10494]{1,0} multiply(%neg.16.27, %pad.28.27), metadata={op_name="jit(_pcr_kernel)/mul" stack_frame_id=15}
  %slice.80.7 = f64[29,10494]{1,0} slice(%mul.52.27), slice={[0:29], [0:10494]}, metadata={op_name="jit(_pcr_kernel)/slice" stack_frame_id=18}
  %pad.36.4 = f64[45,10494]{1,0} pad(%slice.80.7, %constant_26_10), padding=16_0x0_0, metadata={op_name="jit(_pcr_kernel)/concatenate" stack_frame_id=17}
  %mul.58.6 = f64[45,10494]{1,0} multiply(%neg.18.4, %pad.36.4), metadata={op_name="jit(_pcr_kernel)/mul" stack_frame_id=15}
  %param_6.98 = f64[45,10494]{1,0} parameter(6)
  %param_2.272 = f64[45,10494]{1,0} parameter(2)
  %slice.74.19 = f64[37,10494]{1,0} slice(%param_2.272), slice={[0:37], [0:10494]}, metadata={op_name="jit(_pcr_kernel)/slice" stack_frame_id=45}
  %pad.29.21 = f64[45,10494]{1,0} pad(%slice.74.19, %constant_26_10), padding=8_0x0_0, metadata={op_name="jit(_pcr_kernel)/concatenate" stack_frame_id=44}
  %mul.54.21 = f64[45,10494]{1,0} multiply(%param_5.127, %pad.29.21), metadata={op_name="jit(_pcr_kernel)/mul" stack_frame_id=42}
  %sub.36.19 = f64[45,10494]{1,0} subtract(%param_6.98, %mul.54.21), metadata={op_name="jit(_pcr_kernel)/sub" stack_frame_id=8}
  %slice.75.19 = f64[37,10494]{1,0} slice(%param_4.151), slice={[8:45], [0:10494]}, metadata={op_name="jit(_pcr_kernel)/slice" stack_frame_id=41}
  %pad.30.21 = f64[45,10494]{1,0} pad(%slice.75.19, %constant_26_10), padding=0_8x0_0, metadata={op_name="jit(_pcr_kernel)/concatenate" stack_frame_id=40}
  %mul.55.21 = f64[45,10494]{1,0} multiply(%param_3.201, %pad.30.21), metadata={op_name="jit(_pcr_kernel)/mul" stack_frame_id=38}
  %sub.37.19 = f64[45,10494]{1,0} subtract(%sub.36.19, %mul.55.21), metadata={op_name="jit(_pcr_kernel)/sub" stack_frame_id=8}
  %neg.17.27 = f64[45,10494]{1,0} negate(%param_3.201), metadata={op_name="jit(_pcr_kernel)/neg" stack_frame_id=34}
  %slice.73.27 = f64[37,10494]{1,0} slice(%param_2.272), slice={[8:45], [0:10494]}, metadata={op_name="jit(_pcr_kernel)/slice" stack_frame_id=37}
  %pad.33.27 = f64[45,10494]{1,0} pad(%slice.73.27, %constant_26_10), padding=0_8x0_0, metadata={op_name="jit(_pcr_kernel)/concatenate" stack_frame_id=36}
  %mul.53.27 = f64[45,10494]{1,0} multiply(%neg.17.27, %pad.33.27), metadata={op_name="jit(_pcr_kernel)/mul" stack_frame_id=34}
  %slice.82.15 = f64[29,10494]{1,0} slice(%mul.53.27), slice={[0:29], [0:10494]}, metadata={op_name="jit(_pcr_kernel)/slice" stack_frame_id=45}
  %pad.37.15 = f64[45,10494]{1,0} pad(%slice.82.15, %constant_26_10), padding=16_0x0_0, metadata={op_name="jit(_pcr_kernel)/concatenate" stack_frame_id=44}
  %mul.60.15 = f64[45,10494]{1,0} multiply(%param_1.335, %pad.37.15), metadata={op_name="jit(_pcr_kernel)/mul" stack_frame_id=42}
  %sub.40.13 = f64[45,10494]{1,0} subtract(%sub.37.19, %mul.60.15), metadata={op_name="jit(_pcr_kernel)/sub" stack_frame_id=8}
  %slice.83.15 = f64[29,10494]{1,0} slice(%mul.52.27), slice={[16:45], [0:10494]}, metadata={op_name="jit(_pcr_kernel)/slice" stack_frame_id=41}
  %pad.38.15 = f64[45,10494]{1,0} pad(%slice.83.15, %constant_26_10), padding=0_16x0_0, metadata={op_name="jit(_pcr_kernel)/concatenate" stack_frame_id=40}
  %mul.61.15 = f64[45,10494]{1,0} multiply(%param_0.323, %pad.38.15), metadata={op_name="jit(_pcr_kernel)/mul" stack_frame_id=38}
  %sub.41.13 = f64[45,10494]{1,0} subtract(%sub.40.13, %mul.61.15), metadata={op_name="jit(_pcr_kernel)/sub" stack_frame_id=8}
  %slice.86.5 = f64[13,10494]{1,0} slice(%sub.41.13), slice={[0:13], [0:10494]}, metadata={op_name="jit(_pcr_kernel)/slice" stack_frame_id=12}
  %pad.39.3 = f64[45,10494]{1,0} pad(%slice.86.5, %constant_26_10), padding=32_0x0_0, metadata={op_name="jit(_pcr_kernel)/concatenate" stack_frame_id=11}
  %div.23.5 = f64[45,10494]{1,0} divide(%mul.58.6, %pad.39.3), metadata={op_name="jit(_pcr_kernel)/div" stack_frame_id=9}
  %broadcast_in_dim.52.34 = f64[45,10494]{1,0} broadcast(%constant_26_10), dimensions={}, metadata={op_name="jit(_pcr_kernel)/jit(_where)/broadcast_in_dim" stack_frame_id=2}
  %select_n.22.3 = f64[45,10494]{1,0} select(%broadcast_in_dim.91.3, %div.23.5, %broadcast_in_dim.52.34), metadata={op_name="jit(_pcr_kernel)/jit(_where)/select_n" stack_frame_id=2}
  %slice.90.1 = f64[13,10494]{1,0} slice(%sub.43.3), slice={[0:13], [0:10494]}, metadata={op_name="jit(_pcr_kernel)/slice" stack_frame_id=33}
  %pad.40.5 = f64[45,10494]{1,0} pad(%slice.90.1, %constant_26_10), padding=32_0x0_0, metadata={op_name="jit(_pcr_kernel)/concatenate" stack_frame_id=32}
  %mul.66.5 = f64[45,10494]{1,0} multiply(%select_n.22.3, %pad.40.5), metadata={op_name="jit(_pcr_kernel)/mul" stack_frame_id=30}
  %sub.46.3 = f64[45,10494]{1,0} subtract(%sub.43.3, %mul.66.5), metadata={op_name="jit(_pcr_kernel)/sub" stack_frame_id=25}
  %iota.40 = s64[45,1]{1,0} iota(), iota_dimension=0, metadata={op_name="jit(_pcr_kernel)/iota" stack_frame_id=14}
  %add.11.5 = s64[45,1]{1,0} add(%iota.40, %broadcast.13.4), metadata={op_name="jit(_pcr_kernel)/add" stack_frame_id=24}
  %constant_24_1 = s64[] constant(45)
  %broadcast.23.10 = s64[45,1]{1,0} broadcast(%constant_24_1), dimensions={}
  %lt.11.3 = pred[45,1]{1,0} compare(%add.11.5, %broadcast.23.10), direction=LT, metadata={op_name="jit(_pcr_kernel)/lt" stack_frame_id=24}
  %bitcast.11.3 = pred[45]{0} bitcast(%lt.11.3), metadata={op_name="jit(_pcr_kernel)/lt" stack_frame_id=24}
  %broadcast_in_dim.95.3 = pred[45,10494]{1,0} broadcast(%bitcast.11.3), dimensions={0}, metadata={op_name="jit(_pcr_kernel)/jit(_where)/broadcast_in_dim" stack_frame_id=19}
  %neg.19.4 = f64[45,10494]{1,0} negate(%param_0.323), metadata={op_name="jit(_pcr_kernel)/neg" stack_frame_id=34}
  %slice.81.7 = f64[29,10494]{1,0} slice(%mul.53.27), slice={[16:45], [0:10494]}, metadata={op_name="jit(_pcr_kernel)/slice" stack_frame_id=37}
  %pad.41.4 = f64[45,10494]{1,0} pad(%slice.81.7, %constant_26_10), padding=0_16x0_0, metadata={op_name="jit(_pcr_kernel)/concatenate" stack_frame_id=36}
  %mul.59.6 = f64[45,10494]{1,0} multiply(%neg.19.4, %pad.41.4), metadata={op_name="jit(_pcr_kernel)/mul" stack_frame_id=34}
  %slice.87.3 = f64[13,10494]{1,0} slice(%sub.41.13), slice={[32:45], [0:10494]}, metadata={op_name="jit(_pcr_kernel)/slice" stack_frame_id=23}
  %pad.42.3 = f64[45,10494]{1,0} pad(%slice.87.3, %constant_26_10), padding=0_32x0_0, metadata={op_name="jit(_pcr_kernel)/concatenate" stack_frame_id=22}
  %div.24.5 = f64[45,10494]{1,0} divide(%mul.59.6, %pad.42.3), metadata={op_name="jit(_pcr_kernel)/div" stack_frame_id=20}
  %select_n.23.3 = f64[45,10494]{1,0} select(%broadcast_in_dim.95.3, %div.24.5, %broadcast_in_dim.52.34), metadata={op_name="jit(_pcr_kernel)/jit(_where)/select_n" stack_frame_id=19}
  %slice.91.1 = f64[13,10494]{1,0} slice(%sub.43.3), slice={[32:45], [0:10494]}, metadata={op_name="jit(_pcr_kernel)/slice" stack_frame_id=29}
  %pad.43.5 = f64[45,10494]{1,0} pad(%slice.91.1, %constant_26_10), padding=0_32x0_0, metadata={op_name="jit(_pcr_kernel)/concatenate" stack_frame_id=28}
  %mul.67.5 = f64[45,10494]{1,0} multiply(%select_n.23.3, %pad.43.5), metadata={op_name="jit(_pcr_kernel)/mul" stack_frame_id=26}
  %sub.47.3 = f64[45,10494]{1,0} subtract(%sub.46.3, %mul.67.5), metadata={op_name="jit(_pcr_kernel)/sub" stack_frame_id=25}
  %slice.88.3 = f64[13,10494]{1,0} slice(%mul.59.6), slice={[0:13], [0:10494]}, metadata={op_name="jit(_pcr_kernel)/slice" stack_frame_id=45}
  %pad.44.5 = f64[45,10494]{1,0} pad(%slice.88.3, %constant_26_10), padding=32_0x0_0, metadata={op_name="jit(_pcr_kernel)/concatenate" stack_frame_id=44}
  %mul.64.5 = f64[45,10494]{1,0} multiply(%select_n.22.3, %pad.44.5), metadata={op_name="jit(_pcr_kernel)/mul" stack_frame_id=42}
  %sub.44.3 = f64[45,10494]{1,0} subtract(%sub.41.13, %mul.64.5), metadata={op_name="jit(_pcr_kernel)/sub" stack_frame_id=8}
  %slice.89.3 = f64[13,10494]{1,0} slice(%mul.58.6), slice={[32:45], [0:10494]}, metadata={op_name="jit(_pcr_kernel)/slice" stack_frame_id=41}
  %pad.45.1 = f64[45,10494]{1,0} pad(%slice.89.3, %constant_26_10), padding=0_32x0_0, metadata={op_name="jit(_pcr_kernel)/concatenate" stack_frame_id=40}
  %mul.65.1 = f64[45,10494]{1,0} multiply(%select_n.23.3, %pad.45.1), metadata={op_name="jit(_pcr_kernel)/mul" stack_frame_id=38}
  %sub.45.1 = f64[45,10494]{1,0} subtract(%sub.44.3, %mul.65.1), metadata={op_name="jit(_pcr_kernel)/sub" stack_frame_id=8}
  ROOT %div.25.1 = f64[45,10494]{1,0} divide(%sub.47.3, %sub.45.1), metadata={op_name="jit(_pcr_kernel)/div" stack_frame_id=7}
}

%fused_select_subtract (param_0.317: f64[45,10494], param_1.347: f64[45,10494], param_2.290: f64[45,10494], param_3.215: f64[45,10494], param_4.168: f64[45,10494], param_5.157: f64[45,10494], param_6.131: f64[45,10494]) -> (f64[45,10494], f64[45,10494], f64[45,10494]) {
  %param_0.317 = f64[45,10494]{1,0} parameter(0)
  %iota.32.clone.1 = s64[45,1]{1,0} iota(), iota_dimension=0, metadata={op_name="jit(_pcr_kernel)/iota" stack_frame_id=14}
  %constant_20_3 = s64[] constant(4)
  %broadcast.19.4.clone.1 = s64[45,1]{1,0} broadcast(%constant_20_3), dimensions={}
  %ge.8.3.clone.1 = pred[45,1]{1,0} compare(%iota.32.clone.1, %broadcast.19.4.clone.1), direction=GE, metadata={op_name="jit(_pcr_kernel)/ge" stack_frame_id=13}
  %bitcast.4.3.clone.1 = pred[45]{0} bitcast(%ge.8.3.clone.1), metadata={op_name="jit(_pcr_kernel)/ge" stack_frame_id=13}
  %broadcast_in_dim.67.3.clone.1 = pred[45,10494]{1,0} broadcast(%bitcast.4.3.clone.1), dimensions={0}, metadata={op_name="jit(_pcr_kernel)/jit(_where)/broadcast_in_dim" stack_frame_id=2}
  %param_3.215 = f64[45,10494]{1,0} parameter(3)
  %neg.12.3.clone.1 = f64[45,10494]{1,0} negate(%param_3.215), metadata={op_name="jit(_pcr_kernel)/neg" stack_frame_id=15}
  %param_2.290 = f64[45,10494]{1,0} parameter(2)
  %slice.56.3.clone.1 = f64[43,10494]{1,0} slice(%param_2.290), slice={[0:43], [0:10494]}, metadata={op_name="jit(_pcr_kernel)/slice" stack_frame_id=18}
  %constant_26_3 = f64[] constant(0)
  %pad.12.3.clone.1 = f64[45,10494]{1,0} pad(%slice.56.3.clone.1, %constant_26_3), padding=2_0x0_0, metadata={op_name="jit(_pcr_kernel)/concatenate" stack_frame_id=17}
  %mul.40.3.clone.1 = f64[45,10494]{1,0} multiply(%neg.12.3.clone.1, %pad.12.3.clone.1), metadata={op_name="jit(_pcr_kernel)/mul" stack_frame_id=15}
  %slice.62.1.clone.1 = f64[41,10494]{1,0} slice(%param_0.317), slice={[0:41], [0:10494]}, metadata={op_name="jit(_pcr_kernel)/slice" stack_frame_id=12}
  %pad.15.1.clone.1 = f64[45,10494]{1,0} pad(%slice.62.1.clone.1, %constant_26_3), padding=4_0x0_0, metadata={op_name="jit(_pcr_kernel)/concatenate" stack_frame_id=11}
  %div.17.1.clone.1 = f64[45,10494]{1,0} divide(%mul.40.3.clone.1, %pad.15.1.clone.1), metadata={op_name="jit(_pcr_kernel)/div" stack_frame_id=9}
  %broadcast_in_dim.52.5.clone.1 = f64[45,10494]{1,0} broadcast(%constant_26_3), dimensions={}, metadata={op_name="jit(_pcr_kernel)/jit(_where)/broadcast_in_dim" stack_frame_id=2}
  %select_n.16.1.clone.1 = f64[45,10494]{1,0} select(%broadcast_in_dim.67.3.clone.1, %div.17.1.clone.1, %broadcast_in_dim.52.5.clone.1), metadata={op_name="jit(_pcr_kernel)/jit(_where)/select_n" stack_frame_id=2}
  %param_1.347 = f64[45,10494]{1,0} parameter(1)
  %slice.66.1 = f64[41,10494]{1,0} slice(%param_1.347), slice={[0:41], [0:10494]}, metadata={op_name="jit(_pcr_kernel)/slice" stack_frame_id=45}
  %pad.21.3 = f64[45,10494]{1,0} pad(%slice.66.1, %constant_26_3), padding=4_0x0_0, metadata={op_name="jit(_pcr_kernel)/concatenate" stack_frame_id=44}
  %mul.48.3 = f64[45,10494]{1,0} multiply(%select_n.16.1.clone.1, %pad.21.3), metadata={op_name="jit(_pcr_kernel)/mul" stack_frame_id=42}
  %sub.32.1 = f64[45,10494]{1,0} subtract(%param_0.317, %mul.48.3), metadata={op_name="jit(_pcr_kernel)/sub" stack_frame_id=8}
  %iota.46 = s64[45,1]{1,0} iota(), iota_dimension=0, metadata={op_name="jit(_pcr_kernel)/iota" stack_frame_id=14}
  %add.8.5 = s64[45,1]{1,0} add(%iota.46, %broadcast.19.4.clone.1), metadata={op_name="jit(_pcr_kernel)/add" stack_frame_id=24}
  %constant_24_7 = s64[] constant(45)
  %broadcast.23.14 = s64[45,1]{1,0} broadcast(%constant_24_7), dimensions={}
  %lt.8.3 = pred[45,1]{1,0} compare(%add.8.5, %broadcast.23.14), direction=LT, metadata={op_name="jit(_pcr_kernel)/lt" stack_frame_id=24}
  %bitcast.5.7 = pred[45]{0} bitcast(%lt.8.3), metadata={op_name="jit(_pcr_kernel)/lt" stack_frame_id=24}
  %broadcast_in_dim.71.7 = pred[45,10494]{1,0} broadcast(%bitcast.5.7), dimensions={0}, metadata={op_name="jit(_pcr_kernel)/jit(_where)/broadcast_in_dim" stack_frame_id=19}
  %slice.63.5 = f64[41,10494]{1,0} slice(%param_0.317), slice={[4:45], [0:10494]}, metadata={op_name="jit(_pcr_kernel)/slice" stack_frame_id=23}
  %pad.18.5 = f64[45,10494]{1,0} pad(%slice.63.5, %constant_26_3), padding=0_4x0_0, metadata={op_name="jit(_pcr_kernel)/concatenate" stack_frame_id=22}
  %div.18.5 = f64[45,10494]{1,0} divide(%param_1.347, %pad.18.5), metadata={op_name="jit(_pcr_kernel)/div" stack_frame_id=20}
  %select_n.17.5 = f64[45,10494]{1,0} select(%broadcast_in_dim.71.7, %div.18.5, %broadcast_in_dim.52.5.clone.1), metadata={op_name="jit(_pcr_kernel)/jit(_where)/select_n" stack_frame_id=19}
  %slice.67.1 = f64[41,10494]{1,0} slice(%mul.40.3.clone.1), slice={[4:45], [0:10494]}, metadata={op_name="jit(_pcr_kernel)/slice" stack_frame_id=41}
  %pad.22.3 = f64[45,10494]{1,0} pad(%slice.67.1, %constant_26_3), padding=0_4x0_0, metadata={op_name="jit(_pcr_kernel)/concatenate" stack_frame_id=40}
  %mul.49.3 = f64[45,10494]{1,0} multiply(%select_n.17.5, %pad.22.3), metadata={op_name="jit(_pcr_kernel)/mul" stack_frame_id=38}
  %sub.33.1 = f64[45,10494]{1,0} subtract(%sub.32.1, %mul.49.3), metadata={op_name="jit(_pcr_kernel)/sub" stack_frame_id=8}
  %param_4.168 = f64[45,10494]{1,0} parameter(4)
  %slice.60.1.clone.1 = f64[43,10494]{1,0} slice(%param_4.168), slice={[0:43], [0:10494]}, metadata={op_name="jit(_pcr_kernel)/slice" stack_frame_id=33}
  %pad.8.3.clone.1 = f64[45,10494]{1,0} pad(%slice.60.1.clone.1, %constant_26_3), padding=2_0x0_0, metadata={op_name="jit(_pcr_kernel)/concatenate" stack_frame_id=32}
  %mul.44.3.clone.1 = f64[45,10494]{1,0} multiply(%param_3.215, %pad.8.3.clone.1), metadata={op_name="jit(_pcr_kernel)/mul" stack_frame_id=30}
  %sub.30.1.clone.1 = f64[45,10494]{1,0} subtract(%param_4.168, %mul.44.3.clone.1), metadata={op_name="jit(_pcr_kernel)/sub" stack_frame_id=25}
  %iota.56.clone.1 = s64[45,1]{1,0} iota(), iota_dimension=0, metadata={op_name="jit(_pcr_kernel)/iota" stack_frame_id=14}
  %constant_22_1_clone_1 = s64[] constant(2)
  %broadcast.21.10.clone.1 = s64[45,1]{1,0} broadcast(%constant_22_1_clone_1), dimensions={}
  %add.7.9.clone.1 = s64[45,1]{1,0} add(%iota.56.clone.1, %broadcast.21.10.clone.1), metadata={op_name="jit(_pcr_kernel)/add" stack_frame_id=24}
  %lt.7.7.clone.1 = pred[45,1]{1,0} compare(%add.7.9.clone.1, %broadcast.23.14), direction=LT, metadata={op_name="jit(_pcr_kernel)/lt" stack_frame_id=24}
  %bitcast.3.5.clone.1 = pred[45]{0} bitcast(%lt.7.7.clone.1), metadata={op_name="jit(_pcr_kernel)/lt" stack_frame_id=24}
  %broadcast_in_dim.63.5.clone.1 = pred[45,10494]{1,0} broadcast(%bitcast.3.5.clone.1), dimensions={0}, metadata={op_name="jit(_pcr_kernel)/jit(_where)/broadcast_in_dim" stack_frame_id=19}
  %param_5.157 = f64[45,10494]{1,0} parameter(5)
  %param_6.131 = f64[45,10494]{1,0} parameter(6)
  %slice.55.3.clone.1 = f64[43,10494]{1,0} slice(%param_6.131), slice={[2:45], [0:10494]}, metadata={op_name="jit(_pcr_kernel)/slice" stack_frame_id=23}
  %pad.10.3.clone.1 = f64[45,10494]{1,0} pad(%slice.55.3.clone.1, %constant_26_3), padding=0_2x0_0, metadata={op_name="jit(_pcr_kernel)/concatenate" stack_frame_id=22}
  %div.16.3.clone.1 = f64[45,10494]{1,0} divide(%param_5.157, %pad.10.3.clone.1), metadata={op_name="jit(_pcr_kernel)/div" stack_frame_id=20}
  %select_n.15.3.clone.1 = f64[45,10494]{1,0} select(%broadcast_in_dim.63.5.clone.1, %div.16.3.clone.1, %broadcast_in_dim.52.5.clone.1), metadata={op_name="jit(_pcr_kernel)/jit(_where)/select_n" stack_frame_id=19}
  %slice.61.1.clone.1 = f64[43,10494]{1,0} slice(%param_4.168), slice={[2:45], [0:10494]}, metadata={op_name="jit(_pcr_kernel)/slice" stack_frame_id=29}
  %pad.11.3.clone.1 = f64[45,10494]{1,0} pad(%slice.61.1.clone.1, %constant_26_3), padding=0_2x0_0, metadata={op_name="jit(_pcr_kernel)/concatenate" stack_frame_id=28}
  %mul.45.3.clone.1 = f64[45,10494]{1,0} multiply(%select_n.15.3.clone.1, %pad.11.3.clone.1), metadata={op_name="jit(_pcr_kernel)/mul" stack_frame_id=26}
  %sub.31.1.clone.1 = f64[45,10494]{1,0} subtract(%sub.30.1.clone.1, %mul.45.3.clone.1), metadata={op_name="jit(_pcr_kernel)/sub" stack_frame_id=25}
  ROOT %tuple.6 = (f64[45,10494]{1,0}, f64[45,10494]{1,0}, f64[45,10494]{1,0}) tuple(%sub.33.1, %select_n.16.1.clone.1, %sub.31.1.clone.1)
}

%fused_multiply_select_subtract.1 (param_0.316: f64[45,10494], param_1.349: f64[45,10494], param_2.293: f64[45,10494], param_3.223: f64[45,10494], param_4.184: f64[45,10494], param_5.176: f64[45,10494], param_6.141: f64[45,10494]) -> (f64[45,10494], f64[45,10494], f64[45,10494], f64[45,10494], f64[45,10494]) {
  %param_0.316 = f64[45,10494]{1,0} parameter(0)
  %iota.34.clone.1 = s64[45,1]{1,0} iota(), iota_dimension=0, metadata={op_name="jit(_pcr_kernel)/iota" stack_frame_id=14}
  %constant_22_3 = s64[] constant(2)
  %broadcast.21.4.clone.1 = s64[45,1]{1,0} broadcast(%constant_22_3), dimensions={}
  %ge.7.3.clone.1 = pred[45,1]{1,0} compare(%iota.34.clone.1, %broadcast.21.4.clone.1), direction=GE, metadata={op_name="jit(_pcr_kernel)/ge" stack_frame_id=13}
  %bitcast.2.3.clone.1 = pred[45]{0} bitcast(%ge.7.3.clone.1), metadata={op_name="jit(_pcr_kernel)/ge" stack_frame_id=13}
  %broadcast_in_dim.59.3.clone.1 = pred[45,10494]{1,0} broadcast(%bitcast.2.3.clone.1), dimensions={0}, metadata={op_name="jit(_pcr_kernel)/jit(_where)/broadcast_in_dim" stack_frame_id=2}
  %param_3.223 = f64[45,10494]{1,0} parameter(3)
  %neg.10.1.clone.1 = f64[45,10494]{1,0} negate(%param_3.223), metadata={op_name="jit(_pcr_kernel)/neg" stack_frame_id=15}
  %param_2.293 = f64[45,10494]{1,0} parameter(2)
  %slice.48.1.clone.1 = f64[44,10494]{1,0} slice(%param_2.293), slice={[0:44], [0:10494]}, metadata={op_name="jit(_pcr_kernel)/slice" stack_frame_id=18}
  %constant_26_2 = f64[] constant(0)
  %pad.4.1.clone.1 = f64[45,10494]{1,0} pad(%slice.48.1.clone.1, %constant_26_2), padding=1_0x0_0, metadata={op_name="jit(_pcr_kernel)/concatenate" stack_frame_id=17}
  %mul.34.1.clone.1 = f64[45,10494]{1,0} multiply(%neg.10.1.clone.1, %pad.4.1.clone.1), metadata={op_name="jit(_pcr_kernel)/mul" stack_frame_id=15}
  %slice.54.1.clone.1 = f64[43,10494]{1,0} slice(%param_0.316), slice={[0:43], [0:10494]}, metadata={op_name="jit(_pcr_kernel)/slice" stack_frame_id=12}
  %pad.7.1.clone.1 = f64[45,10494]{1,0} pad(%slice.54.1.clone.1, %constant_26_2), padding=2_0x0_0, metadata={op_name="jit(_pcr_kernel)/concatenate" stack_frame_id=11}
  %div.15.1.clone.1 = f64[45,10494]{1,0} divide(%mul.34.1.clone.1, %pad.7.1.clone.1), metadata={op_name="jit(_pcr_kernel)/div" stack_frame_id=9}
  %broadcast_in_dim.52.3.clone.1 = f64[45,10494]{1,0} broadcast(%constant_26_2), dimensions={}, metadata={op_name="jit(_pcr_kernel)/jit(_where)/broadcast_in_dim" stack_frame_id=2}
  %select_n.14.1.clone.1 = f64[45,10494]{1,0} select(%broadcast_in_dim.59.3.clone.1, %div.15.1.clone.1, %broadcast_in_dim.52.3.clone.1), metadata={op_name="jit(_pcr_kernel)/jit(_where)/select_n" stack_frame_id=2}
  %param_1.349 = f64[45,10494]{1,0} parameter(1)
  %slice.58.1 = f64[43,10494]{1,0} slice(%param_1.349), slice={[0:43], [0:10494]}, metadata={op_name="jit(_pcr_kernel)/slice" stack_frame_id=45}
  %pad.13.3 = f64[45,10494]{1,0} pad(%slice.58.1, %constant_26_2), padding=2_0x0_0, metadata={op_name="jit(_pcr_kernel)/concatenate" stack_frame_id=44}
  %mul.42.3 = f64[45,10494]{1,0} multiply(%select_n.14.1.clone.1, %pad.13.3), metadata={op_name="jit(_pcr_kernel)/mul" stack_frame_id=42}
  %sub.28.1 = f64[45,10494]{1,0} subtract(%param_0.316, %mul.42.3), metadata={op_name="jit(_pcr_kernel)/sub" stack_frame_id=8}
  %iota.52 = s64[45,1]{1,0} iota(), iota_dimension=0, metadata={op_name="jit(_pcr_kernel)/iota" stack_frame_id=14}
  %add.7.5 = s64[45,1]{1,0} add(%iota.52, %broadcast.21.4.clone.1), metadata={op_name="jit(_pcr_kernel)/add" stack_frame_id=24}
  %constant_24_9 = s64[] constant(45)
  %broadcast.23.20 = s64[45,1]{1,0} broadcast(%constant_24_9), dimensions={}
  %lt.7.3 = pred[45,1]{1,0} compare(%add.7.5, %broadcast.23.20), direction=LT, metadata={op_name="jit(_pcr_kernel)/lt" stack_frame_id=24}
  %bitcast.3.7 = pred[45]{0} bitcast(%lt.7.3), metadata={op_name="jit(_pcr_kernel)/lt" stack_frame_id=24}
  %broadcast_in_dim.63.7 = pred[45,10494]{1,0} broadcast(%bitcast.3.7), dimensions={0}, metadata={op_name="jit(_pcr_kernel)/jit(_where)/broadcast_in_dim" stack_frame_id=19}
  %slice.55.5 = f64[43,10494]{1,0} slice(%param_0.316), slice={[2:45], [0:10494]}, metadata={op_name="jit(_pcr_kernel)/slice" stack_frame_id=23}
  %pad.10.5 = f64[45,10494]{1,0} pad(%slice.55.5, %constant_26_2), padding=0_2x0_0, metadata={op_name="jit(_pcr_kernel)/concatenate" stack_frame_id=22}
  %div.16.5 = f64[45,10494]{1,0} divide(%param_1.349, %pad.10.5), metadata={op_name="jit(_pcr_kernel)/div" stack_frame_id=20}
  %select_n.15.5 = f64[45,10494]{1,0} select(%broadcast_in_dim.63.7, %div.16.5, %broadcast_in_dim.52.3.clone.1), metadata={op_name="jit(_pcr_kernel)/jit(_where)/select_n" stack_frame_id=19}
  %slice.59.1 = f64[43,10494]{1,0} slice(%mul.34.1.clone.1), slice={[2:45], [0:10494]}, metadata={op_name="jit(_pcr_kernel)/slice" stack_frame_id=41}
  %pad.14.3 = f64[45,10494]{1,0} pad(%slice.59.1, %constant_26_2), padding=0_2x0_0, metadata={op_name="jit(_pcr_kernel)/concatenate" stack_frame_id=40}
  %mul.43.3 = f64[45,10494]{1,0} multiply(%select_n.15.5, %pad.14.3), metadata={op_name="jit(_pcr_kernel)/mul" stack_frame_id=38}
  %sub.29.1 = f64[45,10494]{1,0} subtract(%sub.28.1, %mul.43.3), metadata={op_name="jit(_pcr_kernel)/sub" stack_frame_id=8}
  %neg.13.1.clone.1 = f64[45,10494]{1,0} negate(%select_n.15.5), metadata={op_name="jit(_pcr_kernel)/neg" stack_frame_id=34}
  %slice.57.1.clone.1 = f64[43,10494]{1,0} slice(%param_1.349), slice={[2:45], [0:10494]}, metadata={op_name="jit(_pcr_kernel)/slice" stack_frame_id=37}
  %pad.17.1.clone.1 = f64[45,10494]{1,0} pad(%slice.57.1.clone.1, %constant_26_2), padding=0_2x0_0, metadata={op_name="jit(_pcr_kernel)/concatenate" stack_frame_id=36}
  %mul.41.1.clone.1 = f64[45,10494]{1,0} multiply(%neg.13.1.clone.1, %pad.17.1.clone.1), metadata={op_name="jit(_pcr_kernel)/mul" stack_frame_id=34}
  %param_4.184 = f64[45,10494]{1,0} parameter(4)
  %slice.52.1.clone.1 = f64[44,10494]{1,0} slice(%param_4.184), slice={[0:44], [0:10494]}, metadata={op_name="jit(_pcr_kernel)/slice" stack_frame_id=33}
  %pad.1.3.clone.1 = f64[45,10494]{1,0} pad(%slice.52.1.clone.1, %constant_26_2), padding=1_0x0_0, metadata={op_name="jit(_pcr_kernel)/concatenate" stack_frame_id=32}
  %mul.38.3.clone.1 = f64[45,10494]{1,0} multiply(%param_3.223, %pad.1.3.clone.1), metadata={op_name="jit(_pcr_kernel)/mul" stack_frame_id=30}
  %sub.26.1.clone.1 = f64[45,10494]{1,0} subtract(%param_4.184, %mul.38.3.clone.1), metadata={op_name="jit(_pcr_kernel)/sub" stack_frame_id=25}
  %iota.62.clone.1 = s64[45,1]{1,0} iota(), iota_dimension=0, metadata={op_name="jit(_pcr_kernel)/iota" stack_frame_id=14}
  %constant_25_1_clone_1 = s64[] constant(1)
  %broadcast.24.10.clone.1 = s64[45,1]{1,0} broadcast(%constant_25_1_clone_1), dimensions={}
  %add.6.9.clone.1 = s64[45,1]{1,0} add(%iota.62.clone.1, %broadcast.24.10.clone.1), metadata={op_name="jit(_pcr_kernel)/add" stack_frame_id=24}
  %lt.6.7.clone.1 = pred[45,1]{1,0} compare(%add.6.9.clone.1, %broadcast.23.20), direction=LT, metadata={op_name="jit(_pcr_kernel)/lt" stack_frame_id=24}
  %bitcast.1.5.clone.1 = pred[45]{0} bitcast(%lt.6.7.clone.1), metadata={op_name="jit(_pcr_kernel)/lt" stack_frame_id=24}
  %broadcast_in_dim.55.5.clone.1 = pred[45,10494]{1,0} broadcast(%bitcast.1.5.clone.1), dimensions={0}, metadata={op_name="jit(_pcr_kernel)/jit(_where)/broadcast_in_dim" stack_frame_id=19}
  %param_5.176 = f64[45,10494]{1,0} parameter(5)
  %param_6.141 = f64[45,10494]{1,0} parameter(6)
  %slice.47.3.clone.1 = f64[44,10494]{1,0} slice(%param_6.141), slice={[1:45], [0:10494]}, metadata={op_name="jit(_pcr_kernel)/slice" stack_frame_id=23}
  %pad.2.3.clone.1 = f64[45,10494]{1,0} pad(%slice.47.3.clone.1, %constant_26_2), padding=0_1x0_0, metadata={op_name="jit(_pcr_kernel)/concatenate" stack_frame_id=22}
  %div.14.3.clone.1 = f64[45,10494]{1,0} divide(%param_5.176, %pad.2.3.clone.1), metadata={op_name="jit(_pcr_kernel)/div" stack_frame_id=20}
  %select_n.13.3.clone.1 = f64[45,10494]{1,0} select(%broadcast_in_dim.55.5.clone.1, %div.14.3.clone.1, %broadcast_in_dim.52.3.clone.1), metadata={op_name="jit(_pcr_kernel)/jit(_where)/select_n" stack_frame_id=19}
  %slice.53.1.clone.1 = f64[44,10494]{1,0} slice(%param_4.184), slice={[1:45], [0:10494]}, metadata={op_name="jit(_pcr_kernel)/slice" stack_frame_id=29}
  %pad.3.3.clone.1 = f64[45,10494]{1,0} pad(%slice.53.1.clone.1, %constant_26_2), padding=0_1x0_0, metadata={op_name="jit(_pcr_kernel)/concatenate" stack_frame_id=28}
  %mul.39.3.clone.1 = f64[45,10494]{1,0} multiply(%select_n.13.3.clone.1, %pad.3.3.clone.1), metadata={op_name="jit(_pcr_kernel)/mul" stack_frame_id=26}
  %sub.27.1.clone.1 = f64[45,10494]{1,0} subtract(%sub.26.1.clone.1, %mul.39.3.clone.1), metadata={op_name="jit(_pcr_kernel)/sub" stack_frame_id=25}
  ROOT %tuple.10 = (f64[45,10494]{1,0}, f64[45,10494]{1,0}, f64[45,10494]{1,0}, f64[45,10494]{1,0}, f64[45,10494]{1,0}) tuple(%sub.29.1, %select_n.14.1.clone.1, %mul.34.1.clone.1, %mul.41.1.clone.1, %sub.27.1.clone.1)
}

%fused_multiply_select_subtract.2 (param_0.321: f64[45,10494], param_1.350: f64[45,10494], param_2.294: f64[45,10494]) -> (f64[45,10494], f64[45,10494], f64[45,10494]) {
  %param_0.321 = f64[45,10494]{1,0} parameter(0)
  %iota.36.clone.1 = s64[45,1]{1,0} iota(), iota_dimension=0, metadata={op_name="jit(_pcr_kernel)/iota" stack_frame_id=14}
  %constant_25_3 = s64[] constant(1)
  %broadcast.24.4.clone.1 = s64[45,1]{1,0} broadcast(%constant_25_3), dimensions={}
  %ge.6.3.clone.1 = pred[45,1]{1,0} compare(%iota.36.clone.1, %broadcast.24.4.clone.1), direction=GE, metadata={op_name="jit(_pcr_kernel)/ge" stack_frame_id=13}
  %bitcast.15.clone.1 = pred[45]{0} bitcast(%ge.6.3.clone.1), metadata={op_name="jit(_pcr_kernel)/ge" stack_frame_id=13}
  %broadcast_in_dim.51.3.clone.1 = pred[45,10494]{1,0} broadcast(%bitcast.15.clone.1), dimensions={0}, metadata={op_name="jit(_pcr_kernel)/jit(_where)/broadcast_in_dim" stack_frame_id=2}
  %param_1.350 = f64[45,10494]{1,0} parameter(1)
  %slice.46.1.clone.1 = f64[44,10494]{1,0} slice(%param_0.321), slice={[0:44], [0:10494]}, metadata={op_name="jit(_pcr_kernel)/slice" stack_frame_id=12}
  %constant_26_8 = f64[] constant(0)
  %pad.47.clone.1 = f64[45,10494]{1,0} pad(%slice.46.1.clone.1, %constant_26_8), padding=1_0x0_0, metadata={op_name="jit(_pcr_kernel)/concatenate" stack_frame_id=11}
  %div.13.1.clone.1 = f64[45,10494]{1,0} divide(%param_1.350, %pad.47.clone.1), metadata={op_name="jit(_pcr_kernel)/div" stack_frame_id=9}
  %broadcast_in_dim.52.1.clone.1 = f64[45,10494]{1,0} broadcast(%constant_26_8), dimensions={}, metadata={op_name="jit(_pcr_kernel)/jit(_where)/broadcast_in_dim" stack_frame_id=2}
  %select_n.12.1.clone.1 = f64[45,10494]{1,0} select(%broadcast_in_dim.51.3.clone.1, %div.13.1.clone.1, %broadcast_in_dim.52.1.clone.1), metadata={op_name="jit(_pcr_kernel)/jit(_where)/select_n" stack_frame_id=2}
  %param_2.294 = f64[45,10494]{1,0} parameter(2)
  %slice.50.1 = f64[44,10494]{1,0} slice(%param_2.294), slice={[0:44], [0:10494]}, metadata={op_name="jit(_pcr_kernel)/slice" stack_frame_id=45}
  %pad.5.3 = f64[45,10494]{1,0} pad(%slice.50.1, %constant_26_8), padding=1_0x0_0, metadata={op_name="jit(_pcr_kernel)/concatenate" stack_frame_id=44}
  %mul.36.3 = f64[45,10494]{1,0} multiply(%select_n.12.1.clone.1, %pad.5.3), metadata={op_name="jit(_pcr_kernel)/mul" stack_frame_id=42}
  %sub.24.1 = f64[45,10494]{1,0} subtract(%param_0.321, %mul.36.3), metadata={op_name="jit(_pcr_kernel)/sub" stack_frame_id=8}
  %iota.58 = s64[45,1]{1,0} iota(), iota_dimension=0, metadata={op_name="jit(_pcr_kernel)/iota" stack_frame_id=14}
  %add.6.5 = s64[45,1]{1,0} add(%iota.58, %broadcast.24.4.clone.1), metadata={op_name="jit(_pcr_kernel)/add" stack_frame_id=24}
  %constant_24_11 = s64[] constant(45)
  %broadcast.23.26 = s64[45,1]{1,0} broadcast(%constant_24_11), dimensions={}
  %lt.6.3 = pred[45,1]{1,0} compare(%add.6.5, %broadcast.23.26), direction=LT, metadata={op_name="jit(_pcr_kernel)/lt" stack_frame_id=24}
  %bitcast.1.7 = pred[45]{0} bitcast(%lt.6.3), metadata={op_name="jit(_pcr_kernel)/lt" stack_frame_id=24}
  %broadcast_in_dim.55.7 = pred[45,10494]{1,0} broadcast(%bitcast.1.7), dimensions={0}, metadata={op_name="jit(_pcr_kernel)/jit(_where)/broadcast_in_dim" stack_frame_id=19}
  %slice.47.5 = f64[44,10494]{1,0} slice(%param_0.321), slice={[1:45], [0:10494]}, metadata={op_name="jit(_pcr_kernel)/slice" stack_frame_id=23}
  %pad.2.5 = f64[45,10494]{1,0} pad(%slice.47.5, %constant_26_8), padding=0_1x0_0, metadata={op_name="jit(_pcr_kernel)/concatenate" stack_frame_id=22}
  %div.14.5 = f64[45,10494]{1,0} divide(%param_2.294, %pad.2.5), metadata={op_name="jit(_pcr_kernel)/div" stack_frame_id=20}
  %select_n.13.5 = f64[45,10494]{1,0} select(%broadcast_in_dim.55.7, %div.14.5, %broadcast_in_dim.52.1.clone.1), metadata={op_name="jit(_pcr_kernel)/jit(_where)/select_n" stack_frame_id=19}
  %slice.51.1 = f64[44,10494]{1,0} slice(%param_1.350), slice={[1:45], [0:10494]}, metadata={op_name="jit(_pcr_kernel)/slice" stack_frame_id=41}
  %pad.6.3 = f64[45,10494]{1,0} pad(%slice.51.1, %constant_26_8), padding=0_1x0_0, metadata={op_name="jit(_pcr_kernel)/concatenate" stack_frame_id=40}
  %mul.37.3 = f64[45,10494]{1,0} multiply(%select_n.13.5, %pad.6.3), metadata={op_name="jit(_pcr_kernel)/mul" stack_frame_id=38}
  %sub.25.1 = f64[45,10494]{1,0} subtract(%sub.24.1, %mul.37.3), metadata={op_name="jit(_pcr_kernel)/sub" stack_frame_id=8}
  %neg.11.1.clone.1 = f64[45,10494]{1,0} negate(%select_n.13.5), metadata={op_name="jit(_pcr_kernel)/neg" stack_frame_id=34}
  %slice.49.1.clone.1 = f64[44,10494]{1,0} slice(%param_2.294), slice={[1:45], [0:10494]}, metadata={op_name="jit(_pcr_kernel)/slice" stack_frame_id=37}
  %pad.9.1.clone.1 = f64[45,10494]{1,0} pad(%slice.49.1.clone.1, %constant_26_8), padding=0_1x0_0, metadata={op_name="jit(_pcr_kernel)/concatenate" stack_frame_id=36}
  %mul.35.1.clone.1 = f64[45,10494]{1,0} multiply(%neg.11.1.clone.1, %pad.9.1.clone.1), metadata={op_name="jit(_pcr_kernel)/mul" stack_frame_id=34}
  ROOT %tuple.12 = (f64[45,10494]{1,0}, f64[45,10494]{1,0}, f64[45,10494]{1,0}) tuple(%sub.25.1, %select_n.12.1.clone.1, %mul.35.1.clone.1)
}

ENTRY %main.2 (a.1: f64[45,10494], b.1: f64[45,10494], c.1: f64[45,10494], rhs.1: f64[45,10494]) -> f64[45,10494] {
  %c.1 = f64[45,10494]{1,0} parameter(2), metadata={op_name="c"}
  %b.1 = f64[45,10494]{1,0} parameter(1), metadata={op_name="b"}
  %a.1 = f64[45,10494]{1,0} parameter(0), metadata={op_name="a"}
  %rhs.1 = f64[45,10494]{1,0} parameter(3), metadata={op_name="rhs"}
  %loop_multiply_select_subtract_fusion.2 = (f64[45,10494]{1,0}, f64[45,10494]{1,0}, f64[45,10494]{1,0}) fusion(%b.1, %a.1, %c.1), kind=kLoop, calls=%fused_multiply_select_subtract.2, metadata={op_name="jit(_pcr_kernel)/sub" stack_frame_id=8}
  %get-tuple-element.17 = f64[45,10494]{1,0} get-tuple-element(%loop_multiply_select_subtract_fusion.2), index=2, metadata={op_name="jit(_pcr_kernel)/sub" stack_frame_id=8}
  %get-tuple-element.15 = f64[45,10494]{1,0} get-tuple-element(%loop_multiply_select_subtract_fusion.2), index=0, metadata={op_name="jit(_pcr_kernel)/sub" stack_frame_id=8}
  %get-tuple-element.16 = f64[45,10494]{1,0} get-tuple-element(%loop_multiply_select_subtract_fusion.2), index=1, metadata={op_name="jit(_pcr_kernel)/sub" stack_frame_id=8}
  %loop_multiply_select_subtract_fusion.1 = (f64[45,10494]{1,0}, f64[45,10494]{1,0}, f64[45,10494]{1,0}, f64[45,10494]{1,0}, f64[45,10494]{1,0}) fusion(%get-tuple-element.15, %get-tuple-element.17, %a.1, %get-tuple-element.16, %rhs.1, /*index=5*/%c.1, %b.1), kind=kLoop, calls=%fused_multiply_select_subtract.1, metadata={op_name="jit(_pcr_kernel)/sub" stack_frame_id=8}
  %get-tuple-element.13 = f64[45,10494]{1,0} get-tuple-element(%loop_multiply_select_subtract_fusion.1), index=3, metadata={op_name="jit(_pcr_kernel)/sub" stack_frame_id=8}
  %get-tuple-element.12 = f64[45,10494]{1,0} get-tuple-element(%loop_multiply_select_subtract_fusion.1), index=2, metadata={op_name="jit(_pcr_kernel)/sub" stack_frame_id=8}
  %get-tuple-element.11 = f64[45,10494]{1,0} get-tuple-element(%loop_multiply_select_subtract_fusion.1), index=1, metadata={op_name="jit(_pcr_kernel)/sub" stack_frame_id=8}
  %get-tuple-element.10 = f64[45,10494]{1,0} get-tuple-element(%loop_multiply_select_subtract_fusion.1), index=0, metadata={op_name="jit(_pcr_kernel)/sub" stack_frame_id=8}
  %get-tuple-element.14 = f64[45,10494]{1,0} get-tuple-element(%loop_multiply_select_subtract_fusion.1), index=4, metadata={op_name="jit(_pcr_kernel)/sub" stack_frame_id=8}
  %loop_select_subtract_fusion = (f64[45,10494]{1,0}, f64[45,10494]{1,0}, f64[45,10494]{1,0}) fusion(%get-tuple-element.10, %get-tuple-element.13, %get-tuple-element.12, %get-tuple-element.11, %get-tuple-element.14, /*index=5*/%get-tuple-element.17, %get-tuple-element.15), kind=kLoop, calls=%fused_select_subtract, metadata={op_name="jit(_pcr_kernel)/sub" stack_frame_id=8}
  %get-tuple-element.6 = f64[45,10494]{1,0} get-tuple-element(%loop_select_subtract_fusion), index=0, metadata={op_name="jit(_pcr_kernel)/sub" stack_frame_id=8}
  %get-tuple-element.9 = f64[45,10494]{1,0} get-tuple-element(%loop_select_subtract_fusion), index=2, metadata={op_name="jit(_pcr_kernel)/sub" stack_frame_id=8}
  %get-tuple-element.7 = f64[45,10494]{1,0} get-tuple-element(%loop_select_subtract_fusion), index=1, metadata={op_name="jit(_pcr_kernel)/sub" stack_frame_id=8}
  %loop_multiply_select_subtract_fusion = (f64[45,10494]{1,0}, f64[45,10494]{1,0}, f64[45,10494]{1,0}, f64[45,10494]{1,0}, f64[45,10494]{1,0}) fusion(%get-tuple-element.6, %get-tuple-element.12, %get-tuple-element.11, %get-tuple-element.7, %get-tuple-element.9, /*index=5*/%get-tuple-element.13, %get-tuple-element.10), kind=kLoop, calls=%fused_multiply_select_subtract, metadata={op_name="jit(_pcr_kernel)/jit(_where)/select_n" stack_frame_id=2}
  %get-tuple-element.8 = f64[45,10494]{1,0} get-tuple-element(%loop_multiply_select_subtract_fusion), index=4, metadata={op_name="jit(_pcr_kernel)/jit(_where)/select_n" stack_frame_id=2}
  %get-tuple-element.4 = f64[45,10494]{1,0} get-tuple-element(%loop_multiply_select_subtract_fusion), index=2, metadata={op_name="jit(_pcr_kernel)/jit(_where)/select_n" stack_frame_id=2}
  %get-tuple-element.3 = f64[45,10494]{1,0} get-tuple-element(%loop_multiply_select_subtract_fusion), index=1, metadata={op_name="jit(_pcr_kernel)/jit(_where)/select_n" stack_frame_id=2}
  %get-tuple-element.2 = f64[45,10494]{1,0} get-tuple-element(%loop_multiply_select_subtract_fusion), index=0, metadata={op_name="jit(_pcr_kernel)/jit(_where)/select_n" stack_frame_id=2}
  %get-tuple-element.5 = f64[45,10494]{1,0} get-tuple-element(%loop_multiply_select_subtract_fusion), index=3, metadata={op_name="jit(_pcr_kernel)/jit(_where)/select_n" stack_frame_id=2}
  %loop_select_fusion = (f64[45,10494]{1,0}, f64[45,10494]{1,0}) fusion(%get-tuple-element.3, %get-tuple-element.2, %get-tuple-element.4, %get-tuple-element.6, %get-tuple-element.8), kind=kLoop, calls=%fused_select, metadata={op_name="jit(_pcr_kernel)/jit(_where)/select_n" stack_frame_id=2}
  %get-tuple-element.1 = f64[45,10494]{1,0} get-tuple-element(%loop_select_fusion), index=1, metadata={op_name="jit(_pcr_kernel)/jit(_where)/select_n" stack_frame_id=2}
  %get-tuple-element = f64[45,10494]{1,0} get-tuple-element(%loop_select_fusion), index=0, metadata={op_name="jit(_pcr_kernel)/jit(_where)/select_n" stack_frame_id=2}
  ROOT %loop_divide_fusion = f64[45,10494]{1,0} fusion(%get-tuple-element.1, %get-tuple-element, %get-tuple-element.8, %get-tuple-element.4, %get-tuple-element.3, /*index=5*/%get-tuple-element.2, %get-tuple-element.6, %get-tuple-element.5), kind=kLoop, calls=%fused_divide, metadata={op_name="jit(_pcr_kernel)/div" stack_frame_id=7}
}
