HloModule jit__xla_reference_kernel, is_scheduled=true, entry_computation_layout={(f64[45,10494]{1,0}, f64[45,10494]{1,0}, f64[45,10494]{1,0}, f64[45,10494]{1,0})->f64[45,10494]{1,0}}, allow_spmd_sharding_propagation_to_parameters={true,true,true,true}, allow_spmd_sharding_propagation_to_output={true}, frontend_attributes={fingerprint_before_lhs="7578d7edf87d7241d9c28cb1de964bfc"}

FileNames
1 "/tmp/wrf_gpu2_perfdesign/scripts/m6_perf_design_canary_1h.py"
2 "/tmp/wrf_gpu2_perfdesign/src/gpuwrf/dynamics/vertical_implicit_solver.py"

FunctionNames
1 "<module>"
2 "main"
3 "run_solver_bakeoff"
4 "_xla_reference_kernel"
5 "solve_tridiagonal_xla"

FileLocations
1 {file_name_id=1 function_name_id=1 line=353 end_line=353 column=21 end_column=27}
2 {file_name_id=1 function_name_id=2 line=344 end_line=344 column=25 end_column=57}
3 {file_name_id=1 function_name_id=3 line=203 end_line=203 column=19 end_column=37}
4 {file_name_id=1 function_name_id=4 line=137 end_line=137 column=11 end_column=46}
5 {file_name_id=2 function_name_id=5 line=143 end_line=148 column=13 end_column=5}
6 {file_name_id=2 function_name_id=5 line=149 end_line=149 column=11 end_column=38}

StackFrames
1 {file_location_id=1 parent_frame_id=1}
2 {file_location_id=2 parent_frame_id=2}
3 {file_location_id=3 parent_frame_id=3}
4 {file_location_id=4 parent_frame_id=4}
5 {file_location_id=5 parent_frame_id=5}
6 {file_location_id=6 parent_frame_id=5}


%fused_transpose (param_0.1: f64[10494,45,1]) -> f64[45,10494] {
  %param_0.1 = f64[10494,45,1]{1,2,0} parameter(0)
  %bitcast.1.1 = f64[10494,45]{1,0} bitcast(%param_0.1), metadata={op_name="jit(_xla_reference_kernel)/tridiagonal_solve" stack_frame_id=5}
  ROOT %transpose.10.1 = f64[45,10494]{1,0} transpose(%bitcast.1.1), dimensions={1,0}, metadata={op_name="jit(_xla_reference_kernel)/transpose" stack_frame_id=6}
}

%wrapped_transpose_computation (param_0.2: f64[45,10494]) -> f64[10494,45] {
  %param_0.2 = f64[45,10494]{1,0} parameter(0)
  ROOT %transpose.6.1 = f64[10494,45]{1,0} transpose(%param_0.2), dimensions={1,0}, metadata={op_name="a"}
}

%wrapped_transpose_computation.1 (param_0.3: f64[45,10494]) -> f64[10494,45] {
  %param_0.3 = f64[45,10494]{1,0} parameter(0)
  ROOT %transpose.7.1 = f64[10494,45]{1,0} transpose(%param_0.3), dimensions={1,0}, metadata={op_name="b"}
}

%wrapped_transpose_computation.2 (param_0.4: f64[45,10494]) -> f64[10494,45] {
  %param_0.4 = f64[45,10494]{1,0} parameter(0)
  ROOT %transpose.8.1 = f64[10494,45]{1,0} transpose(%param_0.4), dimensions={1,0}, metadata={op_name="c"}
}

%wrapped_transpose_computation.3 (param_0.5: f64[45,10494]) -> f64[10494,45] {
  %param_0.5 = f64[45,10494]{1,0} parameter(0)
  ROOT %transpose.5.1 = f64[10494,45]{1,0} transpose(%param_0.5), dimensions={1,0}, metadata={op_name="rhs"}
}

ENTRY %main.1 (a.1: f64[45,10494], b.1: f64[45,10494], c.1: f64[45,10494], rhs.1: f64[45,10494]) -> f64[45,10494] {
  %rhs.1 = f64[45,10494]{1,0} parameter(3), metadata={op_name="rhs"}
  %c.1 = f64[45,10494]{1,0} parameter(2), metadata={op_name="c"}
  %b.1 = f64[45,10494]{1,0} parameter(1), metadata={op_name="b"}
  %a.1 = f64[45,10494]{1,0} parameter(0), metadata={op_name="a"}
  %wrapped_transpose = f64[10494,45]{1,0} fusion(%a.1), kind=kInput, calls=%wrapped_transpose_computation, metadata={op_name="a"}, backend_config={"operation_queue_id":"0","force_earliest_schedule":false,"reification_cost":[],"device_type":"DEVICE_TYPE_INVALID","native_emitter_backend_config":{"type":"NATIVE_EMITTER_TYPE_INVALID","unroll_factor":0}}
  %wrapped_transpose.1 = f64[10494,45]{1,0} fusion(%b.1), kind=kInput, calls=%wrapped_transpose_computation.1, metadata={op_name="b"}, backend_config={"operation_queue_id":"0","force_earliest_schedule":false,"reification_cost":[],"device_type":"DEVICE_TYPE_INVALID","native_emitter_backend_config":{"type":"NATIVE_EMITTER_TYPE_INVALID","unroll_factor":0}}
  %wrapped_transpose.2 = f64[10494,45]{1,0} fusion(%c.1), kind=kInput, calls=%wrapped_transpose_computation.2, metadata={op_name="c"}, backend_config={"operation_queue_id":"0","force_earliest_schedule":false,"reification_cost":[],"device_type":"DEVICE_TYPE_INVALID","native_emitter_backend_config":{"type":"NATIVE_EMITTER_TYPE_INVALID","unroll_factor":0}}
  %wrapped_transpose.3 = f64[10494,45]{1,0} fusion(%rhs.1), kind=kInput, calls=%wrapped_transpose_computation.3, metadata={op_name="rhs"}, backend_config={"operation_queue_id":"0","force_earliest_schedule":false,"reification_cost":[],"device_type":"DEVICE_TYPE_INVALID","native_emitter_backend_config":{"type":"NATIVE_EMITTER_TYPE_INVALID","unroll_factor":0}}
  %bitcast.23.0 = f64[10494,45,1]{1,2,0} bitcast(%wrapped_transpose.3)
  %tridiagonal_solve.1 = f64[10494,45,1]{1,2,0} custom-call(%wrapped_transpose, %wrapped_transpose.1, %wrapped_transpose.2, %bitcast.23.0), custom_call_target="cusparse_gtsv2_ffi", operand_layout_constraints={f64[10494,45]{1,0}, f64[10494,45]{1,0}, f64[10494,45]{1,0}, f64[10494,45,1]{1,2,0}}, output_to_operand_aliasing={{}: (3, {})}, api_version=API_VERSION_TYPED_FFI, frontend_attributes={num_batch_dims="1",xla.sdy.sharding_rule="#sdy.op_sharding_rule<([i, j], [i, k], [i, l], [i, m, n])->([i, o, p]) {i=10494, j=45, k=45, l=45, m=45, n=1, o=45, p=1}, custom>"}, metadata={op_name="jit(_xla_reference_kernel)/tridiagonal_solve" stack_frame_id=5}, backend_config={}
  ROOT %input_transpose_fusion = f64[45,10494]{1,0} fusion(%tridiagonal_solve.1), kind=kInput, calls=%fused_transpose, metadata={op_name="jit(_xla_reference_kernel)/transpose" stack_frame_id=6}, backend_config={"operation_queue_id":"0","force_earliest_schedule":false,"reification_cost":[],"device_type":"DEVICE_TYPE_INVALID","native_emitter_backend_config":{"type":"NATIVE_EMITTER_TYPE_INVALID","unroll_factor":0}}
}
