HloModule jit_solve_rrtmg_lw_column_debug_stripped, is_scheduled=true, entry_computation_layout={(f64[3,16]{1,0}, f64[3,16]{1,0}, f64[3,16]{1,0}, f64[3,16]{1,0}, f64[3,16]{1,0}, /*index=5*/f64[3,16]{1,0}, f64[3,16]{1,0}, f64[3,16]{1,0}, f64[3]{0}, f64[3]{0})->(f64[3,16]{1,0}, f64[3,18]{1,0}, f64[3,18]{1,0}, f64[3]{0}, f64[3]{0}, /*index=5*/f64[3]{0}, f64[3]{0}, f64[3]{0}, f64[3]{0})}, allow_spmd_sharding_propagation_to_parameters={true,true,true,true,true,true,true,true,true,true}, allow_spmd_sharding_propagation_to_output={true,true,true,true,true,true,true,true,true}, frontend_attributes={fingerprint_before_lhs="7b73b734112a4e6e7d93e4c5d79e21f5"}

FileNames
1 "/tmp/wrf_gpu2_s3y/scripts/m5_run_rrtmg.py"
2 "/tmp/wrf_gpu2_s3y/src/gpuwrf/physics/rrtmg_lw.py"

FunctionNames
1 "<module>"
2 "main"
3 "_write_hlo_artifacts"
4 "solve_rrtmg_lw_column_debug_stripped"
5 "_longwave_impl"
6 "_rrtmg_column_amounts"
7 "_nearest_pressure_coefficients"
8 "_lw_diffusivity"
9 "_source_recurrence_up"
10 "_source_recurrence_down"
11 "_clip_state"
12 "_pressure_interfaces"
13 "_pressure_layer_mass"
14 "_lw_planck_state"
15 "_interp_lw_planck"

FileLocations
1 {file_name_id=1 function_name_id=1 line=180 end_line=180 column=21 end_column=27}
2 {file_name_id=1 function_name_id=2 line=165 end_line=165 column=10 end_column=50}
3 {file_name_id=1 function_name_id=3 line=91 end_line=91 column=32 end_column=84}
4 {file_name_id=2 function_name_id=4 line=342 end_line=342 column=11 end_column=47}
5 {file_name_id=2 function_name_id=5 line=273 end_line=273 column=24 end_column=74}
6 {file_name_id=2 function_name_id=6 line=193 end_line=193 column=12 end_column=55}
7 {file_name_id=2 function_name_id=5 line=277 end_line=277 column=16 end_column=61}
8 {file_name_id=2 function_name_id=7 line=173 end_line=173 column=10 end_column=70}
9 {file_name_id=2 function_name_id=5 line=282 end_line=282 column=79 end_column=108}
10 {file_name_id=2 function_name_id=5 line=283 end_line=283 column=10 end_column=20}
11 {file_name_id=2 function_name_id=5 line=281 end_line=281 column=14 end_column=36}
12 {file_name_id=2 function_name_id=8 line=204 end_line=204 column=14 end_column=54}
13 {file_name_id=2 function_name_id=8 line=204 end_line=204 column=19 end_column=54}
14 {file_name_id=2 function_name_id=8 line=204 end_line=204 column=32 end_column=53}
15 {file_name_id=2 function_name_id=5 line=291 end_line=291 column=19 end_column=41}
16 {file_name_id=2 function_name_id=7 line=173 end_line=173 column=29 end_column=59}
17 {file_name_id=2 function_name_id=5 line=314 end_line=314 column=17 end_column=35}
18 {file_name_id=2 function_name_id=5 line=315 end_line=315 column=15 end_column=31}
19 {file_name_id=2 function_name_id=5 line=316 end_line=316 column=21 end_column=38}
20 {file_name_id=2 function_name_id=5 line=317 end_line=317 column=19 end_column=34}
21 {file_name_id=2 function_name_id=5 line=298 end_line=298 column=20 end_column=51}
22 {file_name_id=2 function_name_id=5 line=299 end_line=299 column=22 end_column=55}
23 {file_name_id=2 function_name_id=5 line=286 end_line=286 column=12 end_column=45}
24 {file_name_id=2 function_name_id=7 line=174 end_line=174 column=15 end_column=71}
25 {file_name_id=2 function_name_id=5 line=296 end_line=296 column=14 end_column=101}
26 {file_name_id=2 function_name_id=9 line=248 end_line=248 column=14 end_column=51}
27 {file_name_id=2 function_name_id=6 line=184 end_line=184 column=13 end_column=37}
28 {file_name_id=2 function_name_id=5 line=303 end_line=303 column=23 end_column=66}
29 {file_name_id=2 function_name_id=6 line=193 end_line=193 column=58 end_column=139}
30 {file_name_id=2 function_name_id=6 line=192 end_line=192 column=21 end_column=45}
31 {file_name_id=2 function_name_id=6 line=193 end_line=193 column=20 end_column=36}
32 {file_name_id=2 function_name_id=5 line=318 end_line=318 column=27 end_column=62}
33 {file_name_id=2 function_name_id=5 line=294 end_line=294 column=16 end_column=60}
34 {file_name_id=2 function_name_id=10 line=236 end_line=236 column=20 end_column=51}
35 {file_name_id=2 function_name_id=10 line=236 end_line=236 column=54 end_column=86}
36 {file_name_id=2 function_name_id=10 line=236 end_line=236 column=90 end_column=127}
37 {file_name_id=2 function_name_id=10 line=238 end_line=238 column=11 end_column=49}
38 {file_name_id=2 function_name_id=10 line=236 end_line=236 column=14 end_column=128}
39 {file_name_id=2 function_name_id=10 line=233 end_line=233 column=10 end_column=47}
40 {file_name_id=2 function_name_id=5 line=285 end_line=285 column=12 end_column=98}
41 {file_name_id=2 function_name_id=5 line=285 end_line=285 column=20 end_column=97}
42 {file_name_id=2 function_name_id=5 line=285 end_line=285 column=21 end_column=97}
43 {file_name_id=2 function_name_id=5 line=284 end_line=284 column=19 end_column=52}
44 {file_name_id=2 function_name_id=5 line=282 end_line=282 column=10 end_column=147}
45 {file_name_id=2 function_name_id=5 line=282 end_line=282 column=19 end_column=46}
46 {file_name_id=2 function_name_id=5 line=282 end_line=282 column=49 end_column=76}
47 {file_name_id=2 function_name_id=5 line=285 end_line=285 column=33 end_column=77}
48 {file_name_id=2 function_name_id=8 line=206 end_line=206 column=11 end_column=67}
49 {file_name_id=2 function_name_id=8 line=206 end_line=206 column=31 end_column=60}
50 {file_name_id=2 function_name_id=8 line=204 end_line=204 column=24 end_column=54}
51 {file_name_id=2 function_name_id=6 line=194 end_line=194 column=12 end_column=84}
52 {file_name_id=2 function_name_id=6 line=194 end_line=194 column=21 end_column=63}
53 {file_name_id=2 function_name_id=6 line=191 end_line=191 column=15 end_column=37}
54 {file_name_id=2 function_name_id=6 line=191 end_line=191 column=87 end_column=101}
55 {file_name_id=2 function_name_id=6 line=191 end_line=191 column=71 end_column=84}
56 {file_name_id=2 function_name_id=6 line=191 end_line=191 column=55 end_column=68}
57 {file_name_id=2 function_name_id=6 line=191 end_line=191 column=40 end_column=52}
58 {file_name_id=2 function_name_id=6 line=191 end_line=191 column=24 end_column=37}
59 {file_name_id=2 function_name_id=6 line=185 end_line=185 column=13 end_column=29}
60 {file_name_id=2 function_name_id=5 line=274 end_line=274 column=19 end_column=71}
61 {file_name_id=2 function_name_id=5 line=270 end_line=270 column=16 end_column=112}
62 {file_name_id=2 function_name_id=5 line=256 end_line=256 column=12 end_column=30}
63 {file_name_id=2 function_name_id=11 line=131 end_line=131 column=23 end_column=63}
64 {file_name_id=2 function_name_id=5 line=272 end_line=272 column=21 end_column=122}
65 {file_name_id=2 function_name_id=5 line=272 end_line=272 column=33 end_column=105}
66 {file_name_id=2 function_name_id=5 line=274 end_line=274 column=20 end_column=35}
67 {file_name_id=2 function_name_id=5 line=269 end_line=269 column=13 end_column=85}
68 {file_name_id=2 function_name_id=11 line=130 end_line=130 column=11 end_column=37}
69 {file_name_id=2 function_name_id=5 line=268 end_line=268 column=13 end_column=85}
70 {file_name_id=2 function_name_id=11 line=129 end_line=129 column=11 end_column=37}
71 {file_name_id=2 function_name_id=5 line=267 end_line=267 column=13 end_column=85}
72 {file_name_id=2 function_name_id=11 line=128 end_line=128 column=11 end_column=37}
73 {file_name_id=2 function_name_id=5 line=266 end_line=266 column=13 end_column=85}
74 {file_name_id=2 function_name_id=11 line=127 end_line=127 column=11 end_column=37}
75 {file_name_id=2 function_name_id=6 line=181 end_line=181 column=13 end_column=52}
76 {file_name_id=2 function_name_id=6 line=183 end_line=183 column=25 end_column=85}
77 {file_name_id=2 function_name_id=5 line=260 end_line=260 column=26 end_column=110}
78 {file_name_id=2 function_name_id=5 line=258 end_line=258 column=26 end_column=55}
79 {file_name_id=2 function_name_id=12 line=148 end_line=148 column=11 end_column=58}
80 {file_name_id=2 function_name_id=5 line=271 end_line=271 column=17 end_column=46}
81 {file_name_id=2 function_name_id=13 line=164 end_line=164 column=17 end_column=40}
82 {file_name_id=2 function_name_id=12 line=147 end_line=147 column=10 end_column=67}
83 {file_name_id=2 function_name_id=12 line=147 end_line=147 column=29 end_column=40}
84 {file_name_id=2 function_name_id=12 line=147 end_line=147 column=43 end_column=66}
85 {file_name_id=2 function_name_id=12 line=146 end_line=146 column=13 end_column=55}
86 {file_name_id=2 function_name_id=12 line=146 end_line=146 column=31 end_column=41}
87 {file_name_id=2 function_name_id=12 line=145 end_line=145 column=13 end_column=45}
88 {file_name_id=2 function_name_id=12 line=145 end_line=145 column=20 end_column=31}
89 {file_name_id=2 function_name_id=12 line=145 end_line=145 column=34 end_column=44}
90 {file_name_id=2 function_name_id=12 line=144 end_line=144 column=13 end_column=23}
91 {file_name_id=2 function_name_id=12 line=144 end_line=144 column=26 end_column=52}
92 {file_name_id=2 function_name_id=12 line=143 end_line=143 column=16 end_column=56}
93 {file_name_id=2 function_name_id=12 line=143 end_line=143 column=34 end_column=43}
94 {file_name_id=2 function_name_id=12 line=143 end_line=143 column=46 end_column=55}
95 {file_name_id=2 function_name_id=11 line=125 end_line=125 column=10 end_column=35}
96 {file_name_id=2 function_name_id=5 line=265 end_line=265 column=13 end_column=69}
97 {file_name_id=2 function_name_id=5 line=265 end_line=265 column=40 end_column=58}
98 {file_name_id=2 function_name_id=11 line=126 end_line=126 column=11 end_column=37}
99 {file_name_id=2 function_name_id=5 line=287 end_line=287 column=36 end_column=137}
100 {file_name_id=2 function_name_id=14 line=223 end_line=223 column=15 end_column=49}
101 {file_name_id=2 function_name_id=15 line=217 end_line=217 column=11 end_column=47}
102 {file_name_id=2 function_name_id=15 line=217 end_line=217 column=17 end_column=32}
103 {file_name_id=2 function_name_id=15 line=217 end_line=217 column=36 end_column=46}
104 {file_name_id=2 function_name_id=15 line=216 end_line=216 column=11 end_column=51}
105 {file_name_id=2 function_name_id=15 line=215 end_line=215 column=10 end_column=54}
106 {file_name_id=2 function_name_id=15 line=214 end_line=214 column=11 end_column=26}
107 {file_name_id=2 function_name_id=15 line=214 end_line=214 column=29 end_column=52}
108 {file_name_id=2 function_name_id=15 line=215 end_line=215 column=38 end_column=45}
109 {file_name_id=2 function_name_id=15 line=213 end_line=213 column=10 end_column=63}
110 {file_name_id=2 function_name_id=15 line=213 end_line=213 column=19 end_column=54}
111 {file_name_id=2 function_name_id=15 line=213 end_line=213 column=20 end_column=35}
112 {file_name_id=2 function_name_id=15 line=212 end_line=212 column=14 end_column=44}
113 {file_name_id=2 function_name_id=5 line=262 end_line=262 column=12 end_column=66}
114 {file_name_id=2 function_name_id=5 line=262 end_line=262 column=38 end_column=55}
115 {file_name_id=2 function_name_id=11 line=124 end_line=124 column=10 end_column=37}
116 {file_name_id=2 function_name_id=7 line=173 end_line=173 column=21 end_column=60}
117 {file_name_id=2 function_name_id=7 line=172 end_line=172 column=16 end_column=50}
118 {file_name_id=2 function_name_id=7 line=172 end_line=172 column=24 end_column=49}
119 {file_name_id=2 function_name_id=5 line=261 end_line=261 column=12 end_column=61}
120 {file_name_id=2 function_name_id=5 line=259 end_line=259 column=19 end_column=54}
121 {file_name_id=2 function_name_id=5 line=296 end_line=296 column=57 end_column=100}
122 {file_name_id=2 function_name_id=5 line=295 end_line=295 column=26 end_column=101}
123 {file_name_id=2 function_name_id=5 line=295 end_line=295 column=27 end_column=74}
124 {file_name_id=2 function_name_id=5 line=292 end_line=292 column=28 end_column=50}
125 {file_name_id=2 function_name_id=14 line=225 end_line=225 column=15 end_column=51}
126 {file_name_id=2 function_name_id=11 line=133 end_line=133 column=27 end_column=71}
127 {file_name_id=2 function_name_id=11 line=132 end_line=132 column=28 end_column=73}
128 {file_name_id=2 function_name_id=6 line=183 end_line=183 column=12 end_column=102}
129 {file_name_id=2 function_name_id=6 line=183 end_line=183 column=24 end_column=93}
130 {file_name_id=2 function_name_id=6 line=184 end_line=184 column=41 end_column=62}
131 {file_name_id=2 function_name_id=6 line=184 end_line=184 column=66 end_column=78}
132 {file_name_id=2 function_name_id=6 line=182 end_line=182 column=10 end_column=51}
133 {file_name_id=2 function_name_id=6 line=182 end_line=182 column=11 end_column=23}
134 {file_name_id=2 function_name_id=6 line=182 end_line=182 column=54 end_column=70}
135 {file_name_id=2 function_name_id=5 line=303 end_line=303 column=69 end_column=97}
136 {file_name_id=2 function_name_id=6 line=193 end_line=193 column=70 end_column=129}
137 {file_name_id=2 function_name_id=6 line=193 end_line=193 column=97 end_column=129}
138 {file_name_id=2 function_name_id=6 line=192 end_line=192 column=30 end_column=45}
139 {file_name_id=2 function_name_id=5 line=301 end_line=301 column=24 end_column=62}
140 {file_name_id=2 function_name_id=5 line=301 end_line=301 column=65 end_column=96}
141 {file_name_id=2 function_name_id=5 line=300 end_line=300 column=15 end_column=46}
142 {file_name_id=2 function_name_id=5 line=302 end_line=302 column=19 end_column=60}
143 {file_name_id=2 function_name_id=5 line=302 end_line=302 column=40 end_column=59}
144 {file_name_id=2 function_name_id=13 line=165 end_line=165 column=11 end_column=102}
145 {file_name_id=2 function_name_id=13 line=165 end_line=165 column=23 end_column=85}
146 {file_name_id=2 function_name_id=13 line=165 end_line=165 column=24 end_column=44}

StackFrames
1 {file_location_id=1 parent_frame_id=1}
2 {file_location_id=2 parent_frame_id=2}
3 {file_location_id=3 parent_frame_id=3}
4 {file_location_id=4 parent_frame_id=4}
5 {file_location_id=5 parent_frame_id=5}
6 {file_location_id=6 parent_frame_id=6}
7 {file_location_id=4 parent_frame_id=1}
8 {file_location_id=7 parent_frame_id=8}
9 {file_location_id=8 parent_frame_id=9}
10 {file_location_id=4 parent_frame_id=10}
11 {file_location_id=7 parent_frame_id=11}
12 {file_location_id=8 parent_frame_id=12}
13 {file_location_id=7 parent_frame_id=5}
14 {file_location_id=8 parent_frame_id=14}
15 {file_location_id=4 parent_frame_id=15}
16 {file_location_id=7 parent_frame_id=16}
17 {file_location_id=8 parent_frame_id=17}
18 {file_location_id=9 parent_frame_id=5}
19 {file_location_id=10 parent_frame_id=5}
20 {file_location_id=11 parent_frame_id=5}
21 {file_location_id=12 parent_frame_id=21}
22 {file_location_id=13 parent_frame_id=21}
23 {file_location_id=14 parent_frame_id=21}
24 {file_location_id=15 parent_frame_id=5}
25 {file_location_id=16 parent_frame_id=14}
26 {file_location_id=17 parent_frame_id=5}
27 {file_location_id=18 parent_frame_id=5}
28 {file_location_id=19 parent_frame_id=5}
29 {file_location_id=20 parent_frame_id=5}
30 {file_location_id=21 parent_frame_id=5}
31 {file_location_id=22 parent_frame_id=5}
32 {file_location_id=23 parent_frame_id=8}
33 {file_location_id=24 parent_frame_id=9}
34 {file_location_id=25 parent_frame_id=5}
35 {file_location_id=26 parent_frame_id=35}
36 {file_location_id=27 parent_frame_id=6}
37 {file_location_id=28 parent_frame_id=5}
38 {file_location_id=29 parent_frame_id=6}
39 {file_location_id=30 parent_frame_id=6}
40 {file_location_id=31 parent_frame_id=6}
41 {file_location_id=32 parent_frame_id=5}
42 {file_location_id=33 parent_frame_id=5}
43 {file_location_id=34 parent_frame_id=43}
44 {file_location_id=35 parent_frame_id=43}
45 {file_location_id=36 parent_frame_id=43}
46 {file_location_id=37 parent_frame_id=43}
47 {file_location_id=38 parent_frame_id=43}
48 {file_location_id=39 parent_frame_id=43}
49 {file_location_id=40 parent_frame_id=5}
50 {file_location_id=41 parent_frame_id=5}
51 {file_location_id=42 parent_frame_id=5}
52 {file_location_id=43 parent_frame_id=5}
53 {file_location_id=44 parent_frame_id=8}
54 {file_location_id=45 parent_frame_id=5}
55 {file_location_id=46 parent_frame_id=5}
56 {file_location_id=47 parent_frame_id=5}
57 {file_location_id=11 parent_frame_id=8}
58 {file_location_id=48 parent_frame_id=58}
59 {file_location_id=49 parent_frame_id=58}
60 {file_location_id=50 parent_frame_id=21}
61 {file_location_id=51 parent_frame_id=6}
62 {file_location_id=52 parent_frame_id=6}
63 {file_location_id=53 parent_frame_id=6}
64 {file_location_id=54 parent_frame_id=6}
65 {file_location_id=55 parent_frame_id=6}
66 {file_location_id=56 parent_frame_id=6}
67 {file_location_id=57 parent_frame_id=6}
68 {file_location_id=58 parent_frame_id=6}
69 {file_location_id=59 parent_frame_id=6}
70 {file_location_id=60 parent_frame_id=5}
71 {file_location_id=61 parent_frame_id=5}
72 {file_location_id=62 parent_frame_id=8}
73 {file_location_id=63 parent_frame_id=73}
74 {file_location_id=64 parent_frame_id=5}
75 {file_location_id=65 parent_frame_id=5}
76 {file_location_id=66 parent_frame_id=5}
77 {file_location_id=67 parent_frame_id=5}
78 {file_location_id=62 parent_frame_id=5}
79 {file_location_id=68 parent_frame_id=79}
80 {file_location_id=69 parent_frame_id=5}
81 {file_location_id=70 parent_frame_id=79}
82 {file_location_id=71 parent_frame_id=5}
83 {file_location_id=72 parent_frame_id=79}
84 {file_location_id=73 parent_frame_id=5}
85 {file_location_id=74 parent_frame_id=79}
86 {file_location_id=75 parent_frame_id=6}
87 {file_location_id=76 parent_frame_id=6}
88 {file_location_id=77 parent_frame_id=5}
89 {file_location_id=78 parent_frame_id=5}
90 {file_location_id=79 parent_frame_id=90}
91 {file_location_id=80 parent_frame_id=5}
92 {file_location_id=81 parent_frame_id=92}
93 {file_location_id=82 parent_frame_id=93}
94 {file_location_id=83 parent_frame_id=93}
95 {file_location_id=84 parent_frame_id=93}
96 {file_location_id=85 parent_frame_id=93}
97 {file_location_id=86 parent_frame_id=93}
98 {file_location_id=87 parent_frame_id=93}
99 {file_location_id=88 parent_frame_id=93}
100 {file_location_id=89 parent_frame_id=93}
101 {file_location_id=90 parent_frame_id=93}
102 {file_location_id=91 parent_frame_id=93}
103 {file_location_id=92 parent_frame_id=93}
104 {file_location_id=93 parent_frame_id=93}
105 {file_location_id=94 parent_frame_id=93}
106 {file_location_id=95 parent_frame_id=79}
107 {file_location_id=96 parent_frame_id=5}
108 {file_location_id=97 parent_frame_id=5}
109 {file_location_id=98 parent_frame_id=79}
110 {file_location_id=99 parent_frame_id=5}
111 {file_location_id=100 parent_frame_id=111}
112 {file_location_id=101 parent_frame_id=112}
113 {file_location_id=102 parent_frame_id=112}
114 {file_location_id=103 parent_frame_id=112}
115 {file_location_id=99 parent_frame_id=8}
116 {file_location_id=100 parent_frame_id=116}
117 {file_location_id=104 parent_frame_id=117}
118 {file_location_id=105 parent_frame_id=117}
119 {file_location_id=106 parent_frame_id=112}
120 {file_location_id=107 parent_frame_id=112}
121 {file_location_id=108 parent_frame_id=112}
122 {file_location_id=109 parent_frame_id=117}
123 {file_location_id=110 parent_frame_id=112}
124 {file_location_id=111 parent_frame_id=112}
125 {file_location_id=112 parent_frame_id=117}
126 {file_location_id=113 parent_frame_id=5}
127 {file_location_id=114 parent_frame_id=5}
128 {file_location_id=115 parent_frame_id=79}
129 {file_location_id=116 parent_frame_id=14}
130 {file_location_id=117 parent_frame_id=14}
131 {file_location_id=118 parent_frame_id=14}
132 {file_location_id=119 parent_frame_id=5}
133 {file_location_id=120 parent_frame_id=5}
134 {file_location_id=121 parent_frame_id=5}
135 {file_location_id=122 parent_frame_id=5}
136 {file_location_id=123 parent_frame_id=5}
137 {file_location_id=124 parent_frame_id=5}
138 {file_location_id=125 parent_frame_id=111}
139 {file_location_id=126 parent_frame_id=73}
140 {file_location_id=101 parent_frame_id=139}
141 {file_location_id=102 parent_frame_id=139}
142 {file_location_id=103 parent_frame_id=139}
143 {file_location_id=125 parent_frame_id=116}
144 {file_location_id=104 parent_frame_id=144}
145 {file_location_id=105 parent_frame_id=144}
146 {file_location_id=106 parent_frame_id=139}
147 {file_location_id=107 parent_frame_id=139}
148 {file_location_id=108 parent_frame_id=139}
149 {file_location_id=109 parent_frame_id=144}
150 {file_location_id=110 parent_frame_id=139}
151 {file_location_id=111 parent_frame_id=139}
152 {file_location_id=112 parent_frame_id=144}
153 {file_location_id=127 parent_frame_id=79}
154 {file_location_id=128 parent_frame_id=6}
155 {file_location_id=129 parent_frame_id=6}
156 {file_location_id=130 parent_frame_id=6}
157 {file_location_id=131 parent_frame_id=6}
158 {file_location_id=132 parent_frame_id=6}
159 {file_location_id=133 parent_frame_id=6}
160 {file_location_id=134 parent_frame_id=6}
161 {file_location_id=135 parent_frame_id=5}
162 {file_location_id=4 parent_frame_id=162}
163 {file_location_id=135 parent_frame_id=163}
164 {file_location_id=136 parent_frame_id=6}
165 {file_location_id=137 parent_frame_id=6}
166 {file_location_id=138 parent_frame_id=6}
167 {file_location_id=139 parent_frame_id=5}
168 {file_location_id=140 parent_frame_id=5}
169 {file_location_id=141 parent_frame_id=5}
170 {file_location_id=142 parent_frame_id=5}
171 {file_location_id=143 parent_frame_id=5}
172 {file_location_id=144 parent_frame_id=92}
173 {file_location_id=145 parent_frame_id=92}
174 {file_location_id=146 parent_frame_id=92}
175 {file_location_id=79 parent_frame_id=93}


%region_0.3.clone.2 (reduce_sum.9: f64[], reduce_sum.13: f64[]) -> f64[] {
  %reduce_sum.13 = f64[] parameter(1), metadata={op_name="reduce_sum"}
  %reduce_sum.9 = f64[] parameter(0), metadata={op_name="reduce_sum"}
  ROOT %reduce_sum.14.0 = f64[] add(%reduce_sum.9, %reduce_sum.13), metadata={op_name="jit(solve_rrtmg_lw_column_debug_stripped)/reduce_sum" stack_frame_id=6}
}

%fused_concatenate_reduce (param_0.747: f64[1,3,16,16], param_1.971: f64[3,16,16], param_2.837: f64[17,3,16,16], param_3.581: f64[17,3,16,16]) -> (f64[18,3], f64[3,18,16,16]) {
  %param_1.971 = f64[3,16,16]{2,1,0} parameter(1)
  %bitcast.395.4 = f64[1,3,16,16]{3,2,1,0} bitcast(%param_1.971)
  %param_2.837 = f64[17,3,16,16]{3,2,1,0} parameter(2)
  %slice.38.21 = f64[1,3,16,16]{3,2,1,0} slice(%param_2.837), slice={[0:1], [0:3], [0:16], [0:16]}, metadata={op_name="jit(solve_rrtmg_lw_column_debug_stripped)/slice" stack_frame_id=43}
  %multiply.90.7 = f64[1,3,16,16]{3,2,1,0} multiply(%bitcast.395.4, %slice.38.21), metadata={op_name="jit(solve_rrtmg_lw_column_debug_stripped)/mul" stack_frame_id=35}
  %param_3.581 = f64[17,3,16,16]{3,2,1,0} parameter(3)
  %slice.39.11 = f64[1,3,16,16]{3,2,1,0} slice(%param_3.581), slice={[0:1], [0:3], [0:16], [0:16]}, metadata={op_name="jit(solve_rrtmg_lw_column_debug_stripped)/slice" stack_frame_id=44}
  %constant_172_9 = f64[] constant(1)
  %broadcast.136.155 = f64[1,3,16,16]{3,2,1,0} broadcast(%constant_172_9), dimensions={}
  %subtract.17.11 = f64[1,3,16,16]{3,2,1,0} subtract(%broadcast.136.155, %slice.38.21), metadata={op_name="jit(solve_rrtmg_lw_column_debug_stripped)/sub" stack_frame_id=45}
  %multiply.87.11 = f64[1,3,16,16]{3,2,1,0} multiply(%slice.39.11, %subtract.17.11), metadata={op_name="jit(solve_rrtmg_lw_column_debug_stripped)/mul" stack_frame_id=44}
  %add.65.5 = f64[1,3,16,16]{3,2,1,0} add(%multiply.90.7, %multiply.87.11), metadata={op_name="jit(solve_rrtmg_lw_column_debug_stripped)/add" stack_frame_id=35}
  %slice.36.15 = f64[1,3,16,16]{3,2,1,0} slice(%param_2.837), slice={[1:2], [0:3], [0:16], [0:16]}, metadata={op_name="jit(solve_rrtmg_lw_column_debug_stripped)/slice" stack_frame_id=43}
  %multiply.91.5 = f64[1,3,16,16]{3,2,1,0} multiply(%add.65.5, %slice.36.15), metadata={op_name="jit(solve_rrtmg_lw_column_debug_stripped)/mul" stack_frame_id=35}
  %slice.37.3 = f64[1,3,16,16]{3,2,1,0} slice(%param_3.581), slice={[1:2], [0:3], [0:16], [0:16]}, metadata={op_name="jit(solve_rrtmg_lw_column_debug_stripped)/slice" stack_frame_id=44}
  %subtract.16.3 = f64[1,3,16,16]{3,2,1,0} subtract(%broadcast.136.155, %slice.36.15), metadata={op_name="jit(solve_rrtmg_lw_column_debug_stripped)/sub" stack_frame_id=45}
  %multiply.85.3 = f64[1,3,16,16]{3,2,1,0} multiply(%slice.37.3, %subtract.16.3), metadata={op_name="jit(solve_rrtmg_lw_column_debug_stripped)/mul" stack_frame_id=44}
  %add.66.5 = f64[1,3,16,16]{3,2,1,0} add(%multiply.91.5, %multiply.85.3), metadata={op_name="jit(solve_rrtmg_lw_column_debug_stripped)/add" stack_frame_id=35}
  %slice.34.19 = f64[1,3,16,16]{3,2,1,0} slice(%param_2.837), slice={[2:3], [0:3], [0:16], [0:16]}, metadata={op_name="jit(solve_rrtmg_lw_column_debug_stripped)/slice" stack_frame_id=43}
  %multiply.92.5 = f64[1,3,16,16]{3,2,1,0} multiply(%add.66.5, %slice.34.19), metadata={op_name="jit(solve_rrtmg_lw_column_debug_stripped)/mul" stack_frame_id=35}
  %slice.35.3 = f64[1,3,16,16]{3,2,1,0} slice(%param_3.581), slice={[2:3], [0:3], [0:16], [0:16]}, metadata={op_name="jit(solve_rrtmg_lw_column_debug_stripped)/slice" stack_frame_id=44}
  %subtract.15.3 = f64[1,3,16,16]{3,2,1,0} subtract(%broadcast.136.155, %slice.34.19), metadata={op_name="jit(solve_rrtmg_lw_column_debug_stripped)/sub" stack_frame_id=45}
  %multiply.83.3 = f64[1,3,16,16]{3,2,1,0} multiply(%slice.35.3, %subtract.15.3), metadata={op_name="jit(solve_rrtmg_lw_column_debug_stripped)/mul" stack_frame_id=44}
  %add.67.5 = f64[1,3,16,16]{3,2,1,0} add(%multiply.92.5, %multiply.83.3), metadata={op_name="jit(solve_rrtmg_lw_column_debug_stripped)/add" stack_frame_id=35}
  %slice.32.23 = f64[1,3,16,16]{3,2,1,0} slice(%param_2.837), slice={[3:4], [0:3], [0:16], [0:16]}, metadata={op_name="jit(solve_rrtmg_lw_column_debug_stripped)/slice" stack_frame_id=43}
  %multiply.93.5 = f64[1,3,16,16]{3,2,1,0} multiply(%add.67.5, %slice.32.23), metadata={op_name="jit(solve_rrtmg_lw_column_debug_stripped)/mul" stack_frame_id=35}
  %slice.33.3 = f64[1,3,16,16]{3,2,1,0} slice(%param_3.581), slice={[3:4], [0:3], [0:16], [0:16]}, metadata={op_name="jit(solve_rrtmg_lw_column_debug_stripped)/slice" stack_frame_id=44}
  %subtract.14.3 = f64[1,3,16,16]{3,2,1,0} subtract(%broadcast.136.155, %slice.32.23), metadata={op_name="jit(solve_rrtmg_lw_column_debug_stripped)/sub" stack_frame_id=45}
  %multiply.81.3 = f64[1,3,16,16]{3,2,1,0} multiply(%slice.33.3, %subtract.14.3), metadata={op_name="jit(solve_rrtmg_lw_column_debug_stripped)/mul" stack_frame_id=44}
  %add.68.5 = f64[1,3,16,16]{3,2,1,0} add(%multiply.93.5, %multiply.81.3), metadata={op_name="jit(solve_rrtmg_lw_column_debug_stripped)/add" stack_frame_id=35}
  %slice.30.27 = f64[1,3,16,16]{3,2,1,0} slice(%param_2.837), slice={[4:5], [0:3], [0:16], [0:16]}, metadata={op_name="jit(solve_rrtmg_lw_column_debug_stripped)/slice" stack_frame_id=43}
  %multiply.94.5 = f64[1,3,16,16]{3,2,1,0} multiply(%add.68.5, %slice.30.27), metadata={op_name="jit(solve_rrtmg_lw_column_debug_stripped)/mul" stack_frame_id=35}
  %slice.31.3 = f64[1,3,16,16]{3,2,1,0} slice(%param_3.581), slice={[4:5], [0:3], [0:16], [0:16]}, metadata={op_name="jit(solve_rrtmg_lw_column_debug_stripped)/slice" stack_frame_id=44}
  %subtract.13.3 = f64[1,3,16,16]{3,2,1,0} subtract(%broadcast.136.155, %slice.30.27), metadata={op_name="jit(solve_rrtmg_lw_column_debug_stripped)/sub" stack_frame_id=45}
  %multiply.79.3 = f64[1,3,16,16]{3,2,1,0} multiply(%slice.31.3, %subtract.13.3), metadata={op_name="jit(solve_rrtmg_lw_column_debug_stripped)/mul" stack_frame_id=44}
  %add.69.5 = f64[1,3,16,16]{3,2,1,0} add(%multiply.94.5, %multiply.79.3), metadata={op_name="jit(solve_rrtmg_lw_column_debug_stripped)/add" stack_frame_id=35}
  %slice.28.31 = f64[1,3,16,16]{3,2,1,0} slice(%param_2.837), slice={[5:6], [0:3], [0:16], [0:16]}, metadata={op_name="jit(solve_rrtmg_lw_column_debug_stripped)/slice" stack_frame_id=43}
  %multiply.95.5 = f64[1,3,16,16]{3,2,1,0} multiply(%add.69.5, %slice.28.31), metadata={op_name="jit(solve_rrtmg_lw_column_debug_stripped)/mul" stack_frame_id=35}
  %slice.29.3 = f64[1,3,16,16]{3,2,1,0} slice(%param_3.581), slice={[5:6], [0:3], [0:16], [0:16]}, metadata={op_name="jit(solve_rrtmg_lw_column_debug_stripped)/slice" stack_frame_id=44}
  %subtract.12.3 = f64[1,3,16,16]{3,2,1,0} subtract(%broadcast.136.155, %slice.28.31), metadata={op_name="jit(solve_rrtmg_lw_column_debug_stripped)/sub" stack_frame_id=45}
  %multiply.77.3 = f64[1,3,16,16]{3,2,1,0} multiply(%slice.29.3, %subtract.12.3), metadata={op_name="jit(solve_rrtmg_lw_column_debug_stripped)/mul" stack_frame_id=44}
  %add.130.5 = f64[1,3,16,16]{3,2,1,0} add(%multiply.95.5, %multiply.77.3), metadata={op_name="jit(solve_rrtmg_lw_column_debug_stripped)/add" stack_frame_id=35}
  %slice.26.35 = f64[1,3,16,16]{3,2,1,0} slice(%param_2.837), slice={[6:7], [0:3], [0:16], [0:16]}, metadata={op_name="jit(solve_rrtmg_lw_column_debug_stripped)/slice" stack_frame_id=43}
  %multiply.96.5 = f64[1,3,16,16]{3,2,1,0} multiply(%add.130.5, %slice.26.35), metadata={op_name="jit(solve_rrtmg_lw_column_debug_stripped)/mul" stack_frame_id=35}
  %slice.27.3 = f64[1,3,16,16]{3,2,1,0} slice(%param_3.581), slice={[6:7], [0:3], [0:16], [0:16]}, metadata={op_name="jit(solve_rrtmg_lw_column_debug_stripped)/slice" stack_frame_id=44}
  %subtract.11.3 = f64[1,3,16,16]{3,2,1,0} subtract(%broadcast.136.155, %slice.26.35), metadata={op_name="jit(solve_rrtmg_lw_column_debug_stripped)/sub" stack_frame_id=45}
  %multiply.75.3 = f64[1,3,16,16]{3,2,1,0} multiply(%slice.27.3, %subtract.11.3), metadata={op_name="jit(solve_rrtmg_lw_column_debug_stripped)/mul" stack_frame_id=44}
  %add.131.5 = f64[1,3,16,16]{3,2,1,0} add(%multiply.96.5, %multiply.75.3), metadata={op_name="jit(solve_rrtmg_lw_column_debug_stripped)/add" stack_frame_id=35}
  %slice.24.39 = f64[1,3,16,16]{3,2,1,0} slice(%param_2.837), slice={[7:8], [0:3], [0:16], [0:16]}, metadata={op_name="jit(solve_rrtmg_lw_column_debug_stripped)/slice" stack_frame_id=43}
  %multiply.97.5 = f64[1,3,16,16]{3,2,1,0} multiply(%add.131.5, %slice.24.39), metadata={op_name="jit(solve_rrtmg_lw_column_debug_stripped)/mul" stack_frame_id=35}
  %slice.25.3 = f64[1,3,16,16]{3,2,1,0} slice(%param_3.581), slice={[7:8], [0:3], [0:16], [0:16]}, metadata={op_name="jit(solve_rrtmg_lw_column_debug_stripped)/slice" stack_frame_id=44}
  %subtract.10.3 = f64[1,3,16,16]{3,2,1,0} subtract(%broadcast.136.155, %slice.24.39), metadata={op_name="jit(solve_rrtmg_lw_column_debug_stripped)/sub" stack_frame_id=45}
  %multiply.73.3 = f64[1,3,16,16]{3,2,1,0} multiply(%slice.25.3, %subtract.10.3), metadata={op_name="jit(solve_rrtmg_lw_column_debug_stripped)/mul" stack_frame_id=44}
  %add.132.5 = f64[1,3,16,16]{3,2,1,0} add(%multiply.97.5, %multiply.73.3), metadata={op_name="jit(solve_rrtmg_lw_column_debug_stripped)/add" stack_frame_id=35}
  %slice.22.43 = f64[1,3,16,16]{3,2,1,0} slice(%param_2.837), slice={[8:9], [0:3], [0:16], [0:16]}, metadata={op_name="jit(solve_rrtmg_lw_column_debug_stripped)/slice" stack_frame_id=43}
  %multiply.98.5 = f64[1,3,16,16]{3,2,1,0} multiply(%add.132.5, %slice.22.43), metadata={op_name="jit(solve_rrtmg_lw_column_debug_stripped)/mul" stack_frame_id=35}
  %slice.23.3 = f64[1,3,16,16]{3,2,1,0} slice(%param_3.581), slice={[8:9], [0:3], [0:16], [0:16]}, metadata={op_name="jit(solve_rrtmg_lw_column_debug_stripped)/slice" stack_frame_id=44}
  %subtract.9.3 = f64[1,3,16,16]{3,2,1,0} subtract(%broadcast.136.155, %slice.22.43), metadata={op_name="jit(solve_rrtmg_lw_column_debug_stripped)/sub" stack_frame_id=45}
  %multiply.71.3 = f64[1,3,16,16]{3,2,1,0} multiply(%slice.23.3, %subtract.9.3), metadata={op_name="jit(solve_rrtmg_lw_column_debug_stripped)/mul" stack_frame_id=44}
  %add.133.5 = f64[1,3,16,16]{3,2,1,0} add(%multiply.98.5, %multiply.71.3), metadata={op_name="jit(solve_rrtmg_lw_column_debug_stripped)/add" stack_frame_id=35}
  %slice.20.47 = f64[1,3,16,16]{3,2,1,0} slice(%param_2.837), slice={[9:10], [0:3], [0:16], [0:16]}, metadata={op_name="jit(solve_rrtmg_lw_column_debug_stripped)/slice" stack_frame_id=43}
  %multiply.99.5 = f64[1,3,16,16]{3,2,1,0} multiply(%add.133.5, %slice.20.47), metadata={op_name="jit(solve_rrtmg_lw_column_debug_stripped)/mul" stack_frame_id=35}
  %slice.21.3 = f64[1,3,16,16]{3,2,1,0} slice(%param_3.581), slice={[9:10], [0:3], [0:16], [0:16]}, metadata={op_name="jit(solve_rrtmg_lw_column_debug_stripped)/slice" stack_frame_id=44}
  %subtract.8.3 = f64[1,3,16,16]{3,2,1,0} subtract(%broadcast.136.155, %slice.20.47), metadata={op_name="jit(solve_rrtmg_lw_column_debug_stripped)/sub" stack_frame_id=45}
  %multiply.69.3 = f64[1,3,16,16]{3,2,1,0} multiply(%slice.21.3, %subtract.8.3), metadata={op_name="jit(solve_rrtmg_lw_column_debug_stripped)/mul" stack_frame_id=44}
  %add.134.5 = f64[1,3,16,16]{3,2,1,0} add(%multiply.99.5, %multiply.69.3), metadata={op_name="jit(solve_rrtmg_lw_column_debug_stripped)/add" stack_frame_id=35}
  %slice.18.51 = f64[1,3,16,16]{3,2,1,0} slice(%param_2.837), slice={[10:11], [0:3], [0:16], [0:16]}, metadata={op_name="jit(solve_rrtmg_lw_column_debug_stripped)/slice" stack_frame_id=43}
  %multiply.100.5 = f64[1,3,16,16]{3,2,1,0} multiply(%add.134.5, %slice.18.51), metadata={op_name="jit(solve_rrtmg_lw_column_debug_stripped)/mul" stack_frame_id=35}
  %slice.19.3 = f64[1,3,16,16]{3,2,1,0} slice(%param_3.581), slice={[10:11], [0:3], [0:16], [0:16]}, metadata={op_name="jit(solve_rrtmg_lw_column_debug_stripped)/slice" stack_frame_id=44}
  %subtract.7.3 = f64[1,3,16,16]{3,2,1,0} subtract(%broadcast.136.155, %slice.18.51), metadata={op_name="jit(solve_rrtmg_lw_column_debug_stripped)/sub" stack_frame_id=45}
  %multiply.67.3 = f64[1,3,16,16]{3,2,1,0} multiply(%slice.19.3, %subtract.7.3), metadata={op_name="jit(solve_rrtmg_lw_column_debug_stripped)/mul" stack_frame_id=44}
  %add.135.5 = f64[1,3,16,16]{3,2,1,0} add(%multiply.100.5, %multiply.67.3), metadata={op_name="jit(solve_rrtmg_lw_column_debug_stripped)/add" stack_frame_id=35}
  %slice.16.55 = f64[1,3,16,16]{3,2,1,0} slice(%param_2.837), slice={[11:12], [0:3], [0:16], [0:16]}, metadata={op_name="jit(solve_rrtmg_lw_column_debug_stripped)/slice" stack_frame_id=43}
  %multiply.101.5 = f64[1,3,16,16]{3,2,1,0} multiply(%add.135.5, %slice.16.55), metadata={op_name="jit(solve_rrtmg_lw_column_debug_stripped)/mul" stack_frame_id=35}
  %slice.17.3 = f64[1,3,16,16]{3,2,1,0} slice(%param_3.581), slice={[11:12], [0:3], [0:16], [0:16]}, metadata={op_name="jit(solve_rrtmg_lw_column_debug_stripped)/slice" stack_frame_id=44}
  %subtract.6.3 = f64[1,3,16,16]{3,2,1,0} subtract(%broadcast.136.155, %slice.16.55), metadata={op_name="jit(solve_rrtmg_lw_column_debug_stripped)/sub" stack_frame_id=45}
  %multiply.65.3 = f64[1,3,16,16]{3,2,1,0} multiply(%slice.17.3, %subtract.6.3), metadata={op_name="jit(solve_rrtmg_lw_column_debug_stripped)/mul" stack_frame_id=44}
  %add.136.5 = f64[1,3,16,16]{3,2,1,0} add(%multiply.101.5, %multiply.65.3), metadata={op_name="jit(solve_rrtmg_lw_column_debug_stripped)/add" stack_frame_id=35}
  %slice.14.59 = f64[1,3,16,16]{3,2,1,0} slice(%param_2.837), slice={[12:13], [0:3], [0:16], [0:16]}, metadata={op_name="jit(solve_rrtmg_lw_column_debug_stripped)/slice" stack_frame_id=43}
  %multiply.102.5 = f64[1,3,16,16]{3,2,1,0} multiply(%add.136.5, %slice.14.59), metadata={op_name="jit(solve_rrtmg_lw_column_debug_stripped)/mul" stack_frame_id=35}
  %slice.15.3 = f64[1,3,16,16]{3,2,1,0} slice(%param_3.581), slice={[12:13], [0:3], [0:16], [0:16]}, metadata={op_name="jit(solve_rrtmg_lw_column_debug_stripped)/slice" stack_frame_id=44}
  %subtract.5.3 = f64[1,3,16,16]{3,2,1,0} subtract(%broadcast.136.155, %slice.14.59), metadata={op_name="jit(solve_rrtmg_lw_column_debug_stripped)/sub" stack_frame_id=45}
  %multiply.63.3 = f64[1,3,16,16]{3,2,1,0} multiply(%slice.15.3, %subtract.5.3), metadata={op_name="jit(solve_rrtmg_lw_column_debug_stripped)/mul" stack_frame_id=44}
  %add.137.5 = f64[1,3,16,16]{3,2,1,0} add(%multiply.102.5, %multiply.63.3), metadata={op_name="jit(solve_rrtmg_lw_column_debug_stripped)/add" stack_frame_id=35}
  %slice.12.63 = f64[1,3,16,16]{3,2,1,0} slice(%param_2.837), slice={[13:14], [0:3], [0:16], [0:16]}, metadata={op_name="jit(solve_rrtmg_lw_column_debug_stripped)/slice" stack_frame_id=43}
  %multiply.103.5 = f64[1,3,16,16]{3,2,1,0} multiply(%add.137.5, %slice.12.63), metadata={op_name="jit(solve_rrtmg_lw_column_debug_stripped)/mul" stack_frame_id=35}
  %slice.13.3 = f64[1,3,16,16]{3,2,1,0} slice(%param_3.581), slice={[13:14], [0:3], [0:16], [0:16]}, metadata={op_name="jit(solve_rrtmg_lw_column_debug_stripped)/slice" stack_frame_id=44}
  %subtract.4.3 = f64[1,3,16,16]{3,2,1,0} subtract(%broadcast.136.155, %slice.12.63), metadata={op_name="jit(solve_rrtmg_lw_column_debug_stripped)/sub" stack_frame_id=45}
  %multiply.61.3 = f64[1,3,16,16]{3,2,1,0} multiply(%slice.13.3, %subtract.4.3), metadata={op_name="jit(solve_rrtmg_lw_column_debug_stripped)/mul" stack_frame_id=44}
  %add.138.5 = f64[1,3,16,16]{3,2,1,0} add(%multiply.103.5, %multiply.61.3), metadata={op_name="jit(solve_rrtmg_lw_column_debug_stripped)/add" stack_frame_id=35}
  %param_0.747 = f64[1,3,16,16]{3,2,1,0} parameter(0)
  %slice.8.5 = f64[1,3,16,16]{3,2,1,0} slice(%param_2.837), slice={[15:16], [0:3], [0:16], [0:16]}, metadata={op_name="jit(solve_rrtmg_lw_column_debug_stripped)/slice" stack_frame_id=43}
  %multiply.105.3 = f64[1,3,16,16]{3,2,1,0} multiply(%param_0.747, %slice.8.5), metadata={op_name="jit(solve_rrtmg_lw_column_debug_stripped)/mul" stack_frame_id=35}
  %slice.9.3 = f64[1,3,16,16]{3,2,1,0} slice(%param_3.581), slice={[15:16], [0:3], [0:16], [0:16]}, metadata={op_name="jit(solve_rrtmg_lw_column_debug_stripped)/slice" stack_frame_id=44}
  %subtract.2.3 = f64[1,3,16,16]{3,2,1,0} subtract(%broadcast.136.155, %slice.8.5), metadata={op_name="jit(solve_rrtmg_lw_column_debug_stripped)/sub" stack_frame_id=45}
  %multiply.57.3 = f64[1,3,16,16]{3,2,1,0} multiply(%slice.9.3, %subtract.2.3), metadata={op_name="jit(solve_rrtmg_lw_column_debug_stripped)/mul" stack_frame_id=44}
  %add.140.3 = f64[1,3,16,16]{3,2,1,0} add(%multiply.105.3, %multiply.57.3), metadata={op_name="jit(solve_rrtmg_lw_column_debug_stripped)/add" stack_frame_id=35}
  %slice.6.5 = f64[1,3,16,16]{3,2,1,0} slice(%param_2.837), slice={[16:17], [0:3], [0:16], [0:16]}, metadata={op_name="jit(solve_rrtmg_lw_column_debug_stripped)/slice" stack_frame_id=43}
  %multiply.106.3 = f64[1,3,16,16]{3,2,1,0} multiply(%add.140.3, %slice.6.5), metadata={op_name="jit(solve_rrtmg_lw_column_debug_stripped)/mul" stack_frame_id=35}
  %slice.7.3 = f64[1,3,16,16]{3,2,1,0} slice(%param_3.581), slice={[16:17], [0:3], [0:16], [0:16]}, metadata={op_name="jit(solve_rrtmg_lw_column_debug_stripped)/slice" stack_frame_id=44}
  %subtract.1.3 = f64[1,3,16,16]{3,2,1,0} subtract(%broadcast.136.155, %slice.6.5), metadata={op_name="jit(solve_rrtmg_lw_column_debug_stripped)/sub" stack_frame_id=45}
  %multiply.55.3 = f64[1,3,16,16]{3,2,1,0} multiply(%slice.7.3, %subtract.1.3), metadata={op_name="jit(solve_rrtmg_lw_column_debug_stripped)/mul" stack_frame_id=44}
  %add.141.3 = f64[1,3,16,16]{3,2,1,0} add(%multiply.106.3, %multiply.55.3), metadata={op_name="jit(solve_rrtmg_lw_column_debug_stripped)/add" stack_frame_id=35}
  %concatenate.7.3 = f64[18,3,16,16]{3,2,1,0} concatenate(%bitcast.395.4, %add.65.5, %add.66.5, %add.67.5, %add.68.5, /*index=5*/%add.69.5, %add.130.5, %add.131.5, %add.132.5, %add.133.5, /*index=10*/%add.134.5, %add.135.5, %add.136.5, %add.137.5, %add.138.5, /*index=15*/%param_0.747, %add.140.3, %add.141.3), dimensions={0}
  %bitcast.716.1 = f64[18,3,256]{2,1,0} bitcast(%concatenate.7.3)
  %constant_171_8 = f64[] constant(0)
  %reduce.9.1 = f64[18,3]{0,1} reduce(%bitcast.716.1, %constant_171_8), dimensions={2}, to_apply=%region_0.3.clone.2
  %bitcast.541.9.clone.1 = f64[3,1,16,16]{3,2,1,0} bitcast(%slice.6.5), metadata={op_name="jit(solve_rrtmg_lw_column_debug_stripped)/slice" stack_frame_id=43}
  %broadcast.128.10.clone.1 = f64[3,1,16,16]{3,2,1,0} broadcast(%constant_171_8), dimensions={}, metadata={op_name="jit(solve_rrtmg_lw_column_debug_stripped)/broadcast_in_dim" stack_frame_id=48}
  %multiply.51.9.clone.1 = f64[3,1,16,16]{3,2,1,0} multiply(%bitcast.541.9.clone.1, %broadcast.128.10.clone.1), metadata={op_name="jit(solve_rrtmg_lw_column_debug_stripped)/mul;jit(solve_rrtmg_lw_column_debug_stripped)/broadcast_in_dim"}
  %bitcast.669.7.clone.1 = f64[3,1,16,16]{3,2,1,0} bitcast(%multiply.55.3), metadata={op_name="jit(solve_rrtmg_lw_column_debug_stripped)/mul" stack_frame_id=44}
  %add.47.7.clone.1 = f64[3,1,16,16]{3,2,1,0} add(%multiply.51.9.clone.1, %bitcast.669.7.clone.1), metadata={op_name="jit(solve_rrtmg_lw_column_debug_stripped)/add" stack_frame_id=47}
  %bitcast.670.5.clone.1 = f64[1,3,16,16]{3,2,1,0} bitcast(%add.47.7.clone.1), metadata={op_name="jit(solve_rrtmg_lw_column_debug_stripped)/add" stack_frame_id=47}
  %multiply.56.5.clone.1 = f64[1,3,16,16]{3,2,1,0} multiply(%bitcast.670.5.clone.1, %slice.8.5), metadata={op_name="jit(solve_rrtmg_lw_column_debug_stripped)/mul" stack_frame_id=47}
  %add.48.3.clone.1 = f64[1,3,16,16]{3,2,1,0} add(%multiply.56.5.clone.1, %multiply.57.3), metadata={op_name="jit(solve_rrtmg_lw_column_debug_stripped)/add" stack_frame_id=47}
  %slice.10.63.clone.1 = f64[1,3,16,16]{3,2,1,0} slice(%param_2.837), slice={[14:15], [0:3], [0:16], [0:16]}, metadata={op_name="jit(solve_rrtmg_lw_column_debug_stripped)/slice" stack_frame_id=43}
  %multiply.58.61.clone.1 = f64[1,3,16,16]{3,2,1,0} multiply(%add.48.3.clone.1, %slice.10.63.clone.1), metadata={op_name="jit(solve_rrtmg_lw_column_debug_stripped)/mul" stack_frame_id=47}
  %slice.11.7.clone.1 = f64[1,3,16,16]{3,2,1,0} slice(%param_3.581), slice={[14:15], [0:3], [0:16], [0:16]}, metadata={op_name="jit(solve_rrtmg_lw_column_debug_stripped)/slice" stack_frame_id=44}
  %subtract.3.7.clone.1 = f64[1,3,16,16]{3,2,1,0} subtract(%broadcast.136.155, %slice.10.63.clone.1), metadata={op_name="jit(solve_rrtmg_lw_column_debug_stripped)/sub" stack_frame_id=45}
  %multiply.59.7.clone.1 = f64[1,3,16,16]{3,2,1,0} multiply(%slice.11.7.clone.1, %subtract.3.7.clone.1), metadata={op_name="jit(solve_rrtmg_lw_column_debug_stripped)/mul" stack_frame_id=44}
  %add.49.61.clone.1 = f64[1,3,16,16]{3,2,1,0} add(%multiply.58.61.clone.1, %multiply.59.7.clone.1), metadata={op_name="jit(solve_rrtmg_lw_column_debug_stripped)/add" stack_frame_id=47}
  %multiply.60.57.clone.1 = f64[1,3,16,16]{3,2,1,0} multiply(%add.49.61.clone.1, %slice.12.63), metadata={op_name="jit(solve_rrtmg_lw_column_debug_stripped)/mul" stack_frame_id=47}
  %add.50.57.clone.1 = f64[1,3,16,16]{3,2,1,0} add(%multiply.60.57.clone.1, %multiply.61.3), metadata={op_name="jit(solve_rrtmg_lw_column_debug_stripped)/add" stack_frame_id=47}
  %multiply.62.53.clone.1 = f64[1,3,16,16]{3,2,1,0} multiply(%add.50.57.clone.1, %slice.14.59), metadata={op_name="jit(solve_rrtmg_lw_column_debug_stripped)/mul" stack_frame_id=47}
  %add.51.53.clone.1 = f64[1,3,16,16]{3,2,1,0} add(%multiply.62.53.clone.1, %multiply.63.3), metadata={op_name="jit(solve_rrtmg_lw_column_debug_stripped)/add" stack_frame_id=47}
  %multiply.64.49.clone.1 = f64[1,3,16,16]{3,2,1,0} multiply(%add.51.53.clone.1, %slice.16.55), metadata={op_name="jit(solve_rrtmg_lw_column_debug_stripped)/mul" stack_frame_id=47}
  %add.52.49.clone.1 = f64[1,3,16,16]{3,2,1,0} add(%multiply.64.49.clone.1, %multiply.65.3), metadata={op_name="jit(solve_rrtmg_lw_column_debug_stripped)/add" stack_frame_id=47}
  %multiply.66.45.clone.1 = f64[1,3,16,16]{3,2,1,0} multiply(%add.52.49.clone.1, %slice.18.51), metadata={op_name="jit(solve_rrtmg_lw_column_debug_stripped)/mul" stack_frame_id=47}
  %add.53.45.clone.1 = f64[1,3,16,16]{3,2,1,0} add(%multiply.66.45.clone.1, %multiply.67.3), metadata={op_name="jit(solve_rrtmg_lw_column_debug_stripped)/add" stack_frame_id=47}
  %multiply.68.41.clone.1 = f64[1,3,16,16]{3,2,1,0} multiply(%add.53.45.clone.1, %slice.20.47), metadata={op_name="jit(solve_rrtmg_lw_column_debug_stripped)/mul" stack_frame_id=47}
  %add.54.41.clone.1 = f64[1,3,16,16]{3,2,1,0} add(%multiply.68.41.clone.1, %multiply.69.3), metadata={op_name="jit(solve_rrtmg_lw_column_debug_stripped)/add" stack_frame_id=47}
  %multiply.70.37.clone.1 = f64[1,3,16,16]{3,2,1,0} multiply(%add.54.41.clone.1, %slice.22.43), metadata={op_name="jit(solve_rrtmg_lw_column_debug_stripped)/mul" stack_frame_id=47}
  %add.55.37.clone.1 = f64[1,3,16,16]{3,2,1,0} add(%multiply.70.37.clone.1, %multiply.71.3), metadata={op_name="jit(solve_rrtmg_lw_column_debug_stripped)/add" stack_frame_id=47}
  %multiply.72.33.clone.1 = f64[1,3,16,16]{3,2,1,0} multiply(%add.55.37.clone.1, %slice.24.39), metadata={op_name="jit(solve_rrtmg_lw_column_debug_stripped)/mul" stack_frame_id=47}
  %add.56.33.clone.1 = f64[1,3,16,16]{3,2,1,0} add(%multiply.72.33.clone.1, %multiply.73.3), metadata={op_name="jit(solve_rrtmg_lw_column_debug_stripped)/add" stack_frame_id=47}
  %multiply.74.29.clone.1 = f64[1,3,16,16]{3,2,1,0} multiply(%add.56.33.clone.1, %slice.26.35), metadata={op_name="jit(solve_rrtmg_lw_column_debug_stripped)/mul" stack_frame_id=47}
  %add.57.29.clone.1 = f64[1,3,16,16]{3,2,1,0} add(%multiply.74.29.clone.1, %multiply.75.3), metadata={op_name="jit(solve_rrtmg_lw_column_debug_stripped)/add" stack_frame_id=47}
  %multiply.76.25.clone.1 = f64[1,3,16,16]{3,2,1,0} multiply(%add.57.29.clone.1, %slice.28.31), metadata={op_name="jit(solve_rrtmg_lw_column_debug_stripped)/mul" stack_frame_id=47}
  %add.58.25.clone.1 = f64[1,3,16,16]{3,2,1,0} add(%multiply.76.25.clone.1, %multiply.77.3), metadata={op_name="jit(solve_rrtmg_lw_column_debug_stripped)/add" stack_frame_id=47}
  %multiply.78.21.clone.1 = f64[1,3,16,16]{3,2,1,0} multiply(%add.58.25.clone.1, %slice.30.27), metadata={op_name="jit(solve_rrtmg_lw_column_debug_stripped)/mul" stack_frame_id=47}
  %add.59.21.clone.1 = f64[1,3,16,16]{3,2,1,0} add(%multiply.78.21.clone.1, %multiply.79.3), metadata={op_name="jit(solve_rrtmg_lw_column_debug_stripped)/add" stack_frame_id=47}
  %multiply.80.17.clone.1 = f64[1,3,16,16]{3,2,1,0} multiply(%add.59.21.clone.1, %slice.32.23), metadata={op_name="jit(solve_rrtmg_lw_column_debug_stripped)/mul" stack_frame_id=47}
  %add.60.17.clone.1 = f64[1,3,16,16]{3,2,1,0} add(%multiply.80.17.clone.1, %multiply.81.3), metadata={op_name="jit(solve_rrtmg_lw_column_debug_stripped)/add" stack_frame_id=47}
  %multiply.82.13.clone.1 = f64[1,3,16,16]{3,2,1,0} multiply(%add.60.17.clone.1, %slice.34.19), metadata={op_name="jit(solve_rrtmg_lw_column_debug_stripped)/mul" stack_frame_id=47}
  %add.61.13.clone.1 = f64[1,3,16,16]{3,2,1,0} add(%multiply.82.13.clone.1, %multiply.83.3), metadata={op_name="jit(solve_rrtmg_lw_column_debug_stripped)/add" stack_frame_id=47}
  %multiply.84.9.clone.1 = f64[1,3,16,16]{3,2,1,0} multiply(%add.61.13.clone.1, %slice.36.15), metadata={op_name="jit(solve_rrtmg_lw_column_debug_stripped)/mul" stack_frame_id=47}
  %add.62.9.clone.1 = f64[1,3,16,16]{3,2,1,0} add(%multiply.84.9.clone.1, %multiply.85.3), metadata={op_name="jit(solve_rrtmg_lw_column_debug_stripped)/add" stack_frame_id=47}
  %multiply.86.5.clone.1 = f64[1,3,16,16]{3,2,1,0} multiply(%add.62.9.clone.1, %slice.38.21), metadata={op_name="jit(solve_rrtmg_lw_column_debug_stripped)/mul" stack_frame_id=47}
  %add.63.5.clone.1 = f64[1,3,16,16]{3,2,1,0} add(%multiply.86.5.clone.1, %multiply.87.11), metadata={op_name="jit(solve_rrtmg_lw_column_debug_stripped)/add" stack_frame_id=47}
  %bitcast.610.1.clone.1 = f64[3,1,16,16]{3,2,1,0} bitcast(%add.63.5.clone.1), metadata={op_name="jit(solve_rrtmg_lw_column_debug_stripped)/add" stack_frame_id=47}
  %bitcast.671.1.clone.1 = f64[3,1,16,16]{3,2,1,0} bitcast(%add.62.9.clone.1), metadata={op_name="jit(solve_rrtmg_lw_column_debug_stripped)/add" stack_frame_id=47}
  %bitcast.672.1.clone.1 = f64[3,1,16,16]{3,2,1,0} bitcast(%add.61.13.clone.1), metadata={op_name="jit(solve_rrtmg_lw_column_debug_stripped)/add" stack_frame_id=47}
  %bitcast.673.1.clone.1 = f64[3,1,16,16]{3,2,1,0} bitcast(%add.60.17.clone.1), metadata={op_name="jit(solve_rrtmg_lw_column_debug_stripped)/add" stack_frame_id=47}
  %bitcast.674.1.clone.1 = f64[3,1,16,16]{3,2,1,0} bitcast(%add.59.21.clone.1), metadata={op_name="jit(solve_rrtmg_lw_column_debug_stripped)/add" stack_frame_id=47}
  %bitcast.675.1.clone.1 = f64[3,1,16,16]{3,2,1,0} bitcast(%add.58.25.clone.1), metadata={op_name="jit(solve_rrtmg_lw_column_debug_stripped)/add" stack_frame_id=47}
  %bitcast.676.1.clone.1 = f64[3,1,16,16]{3,2,1,0} bitcast(%add.57.29.clone.1), metadata={op_name="jit(solve_rrtmg_lw_column_debug_stripped)/add" stack_frame_id=47}
  %bitcast.677.1.clone.1 = f64[3,1,16,16]{3,2,1,0} bitcast(%add.56.33.clone.1), metadata={op_name="jit(solve_rrtmg_lw_column_debug_stripped)/add" stack_frame_id=47}
  %bitcast.678.1.clone.1 = f64[3,1,16,16]{3,2,1,0} bitcast(%add.55.37.clone.1), metadata={op_name="jit(solve_rrtmg_lw_column_debug_stripped)/add" stack_frame_id=47}
  %bitcast.679.1.clone.1 = f64[3,1,16,16]{3,2,1,0} bitcast(%add.54.41.clone.1), metadata={op_name="jit(solve_rrtmg_lw_column_debug_stripped)/add" stack_frame_id=47}
  %bitcast.680.1.clone.1 = f64[3,1,16,16]{3,2,1,0} bitcast(%add.53.45.clone.1), metadata={op_name="jit(solve_rrtmg_lw_column_debug_stripped)/add" stack_frame_id=47}
  %bitcast.681.1.clone.1 = f64[3,1,16,16]{3,2,1,0} bitcast(%add.52.49.clone.1), metadata={op_name="jit(solve_rrtmg_lw_column_debug_stripped)/add" stack_frame_id=47}
  %bitcast.682.1.clone.1 = f64[3,1,16,16]{3,2,1,0} bitcast(%add.51.53.clone.1), metadata={op_name="jit(solve_rrtmg_lw_column_debug_stripped)/add" stack_frame_id=47}
  %bitcast.683.1.clone.1 = f64[3,1,16,16]{3,2,1,0} bitcast(%add.50.57.clone.1), metadata={op_name="jit(solve_rrtmg_lw_column_debug_stripped)/add" stack_frame_id=47}
  %bitcast.684.1.clone.1 = f64[3,1,16,16]{3,2,1,0} bitcast(%add.49.61.clone.1), metadata={op_name="jit(solve_rrtmg_lw_column_debug_stripped)/add" stack_frame_id=47}
  %bitcast.685.1.clone.1 = f64[3,1,16,16]{3,2,1,0} bitcast(%add.48.3.clone.1), metadata={op_name="jit(solve_rrtmg_lw_column_debug_stripped)/add" stack_frame_id=47}
  %concatenate.6.1.clone.1 = f64[3,18,16,16]{3,2,1,0} concatenate(%bitcast.610.1.clone.1, %bitcast.671.1.clone.1, %bitcast.672.1.clone.1, %bitcast.673.1.clone.1, %bitcast.674.1.clone.1, /*index=5*/%bitcast.675.1.clone.1, %bitcast.676.1.clone.1, %bitcast.677.1.clone.1, %bitcast.678.1.clone.1, %bitcast.679.1.clone.1, /*index=10*/%bitcast.680.1.clone.1, %bitcast.681.1.clone.1, %bitcast.682.1.clone.1, %bitcast.683.1.clone.1, %bitcast.684.1.clone.1, /*index=15*/%bitcast.685.1.clone.1, %add.47.7.clone.1, %broadcast.128.10.clone.1), dimensions={1}, metadata={op_name="jit(solve_rrtmg_lw_column_debug_stripped)/concatenate" stack_frame_id=46}
  ROOT %tuple.5 = (f64[18,3]{0,1}, f64[3,18,16,16]{3,2,1,0}) tuple(%reduce.9.1, %concatenate.6.1.clone.1)
}

%region_0.3.clone.1 (reduce_sum.6: f64[], reduce_sum.7: f64[]) -> f64[] {
  %reduce_sum.6 = f64[] parameter(0), metadata={op_name="reduce_sum"}
  %reduce_sum.7 = f64[] parameter(1), metadata={op_name="reduce_sum"}
  ROOT %reduce_sum.8.0 = f64[] add(%reduce_sum.6, %reduce_sum.7), metadata={op_name="jit(solve_rrtmg_lw_column_debug_stripped)/reduce_sum" stack_frame_id=6}
}

%fused_reduce (param_0.745: f64[3,18,16,16]) -> f64[3,18] {
  %param_0.745 = f64[3,18,16,16]{3,2,1,0} parameter(0)
  %bitcast.715.1 = f64[3,18,256]{2,1,0} bitcast(%param_0.745), metadata={op_name="jit(solve_rrtmg_lw_column_debug_stripped)/concatenate" stack_frame_id=46}
  %constant_171_6 = f64[] constant(0)
  ROOT %reduce_sum.46.1 = f64[3,18]{1,0} reduce(%bitcast.715.1, %constant_171_6), dimensions={2}, to_apply=%region_0.3.clone.1, metadata={op_name="jit(solve_rrtmg_lw_column_debug_stripped)/reduce_sum" stack_frame_id=31}
}

%fused_slice (param_0.9: f64[18,3]) -> (f64[3,1], f64[3,1]) {
  %param_0.9 = f64[18,3]{0,1} parameter(0)
  %bitcast.712.2 = f64[3,18]{1,0} bitcast(%param_0.9), metadata={op_name="jit(solve_rrtmg_lw_column_debug_stripped)/reduce_sum" stack_frame_id=30}
  %slice.257.1 = f64[3,1]{1,0} slice(%bitcast.712.2), slice={[0:3], [17:18]}, metadata={op_name="jit(solve_rrtmg_lw_column_debug_stripped)/slice" stack_frame_id=27}
  %slice.259.1.clone.1 = f64[3,1]{1,0} slice(%bitcast.712.2), slice={[0:3], [0:1]}, metadata={op_name="jit(solve_rrtmg_lw_column_debug_stripped)/slice" stack_frame_id=29}
  ROOT %tuple.2 = (f64[3,1]{1,0}, f64[3,1]{1,0}) tuple(%slice.257.1, %slice.259.1.clone.1)
}

%region_0.3 (reduce_sum.3: f64[], reduce_sum.4: f64[]) -> f64[] {
  %reduce_sum.3 = f64[] parameter(0), metadata={op_name="reduce_sum"}
  %reduce_sum.4 = f64[] parameter(1), metadata={op_name="reduce_sum"}
  ROOT %reduce_sum.5.0 = f64[] add(%reduce_sum.3, %reduce_sum.4), metadata={op_name="jit(solve_rrtmg_lw_column_debug_stripped)/reduce_sum" stack_frame_id=6}
}

%fused_select (param_0.748: f64[17,3,16,16], param_1.977: f64[16,16], param_2.844: pred[16,16], param_3.587: f64[16], param_4.555: pred[16], param_5.480: f64[16], param_6.429: f64[16], param_7.383: f64[16], param_8.348: f64[3,16], param_9.311: f64[3], param_10.276: f64[3,17], param_11.244: f64[3,17], param_12.220: f64[3,16], param_13.179: f64[3,16], param_14.164: f64[3,16], param_15.157: f64[3,16], param_16.153: f64[3,16], param_17.136: f64[3,16]) -> f64[17,3,16,16] {
  %param_2.844 = pred[16,16]{1,0} parameter(2)
  %broadcast.115.1 = pred[17,3,16,16]{3,2,1,0} broadcast(%param_2.844), dimensions={2,3}, metadata={op_name="jit(solve_rrtmg_lw_column_debug_stripped)/jit(_where)/broadcast_in_dim" stack_frame_id=32}
  %constant_128_1 = f64[] constant(1e-10)
  %broadcast.116.1 = f64[17,3,16,16]{3,2,1,0} broadcast(%constant_128_1), dimensions={}, metadata={op_name="jit(solve_rrtmg_lw_column_debug_stripped)/max" stack_frame_id=56}
  %constant_171_9 = f64[] constant(0)
  %broadcast.144.12 = f64[17,3,16,16]{3,2,1,0} broadcast(%constant_171_9), dimensions={}
  %param_11.244 = f64[3,17]{1,0} parameter(11)
  %constant_150_1 = f64[] constant(1e-20)
  %broadcast.46.15 = f64[3,17]{1,0} broadcast(%constant_150_1), dimensions={}
  %mul.225.15 = f64[3,17]{1,0} multiply(%param_11.244, %broadcast.46.15), metadata={op_name="jit(solve_rrtmg_lw_column_debug_stripped)/mul" stack_frame_id=69}
  %param_17.136 = f64[3,16]{1,0} parameter(17)
  %broadcast.57.44 = f64[3,16]{1,0} broadcast(%constant_171_9), dimensions={}
  %max.62.8 = f64[3,16]{1,0} maximum(%param_17.136, %broadcast.57.44), metadata={op_name="jit(solve_rrtmg_lw_column_debug_stripped)/max" stack_frame_id=109}
  %slice.139.5 = f64[3,1]{1,0} slice(%max.62.8), slice={[0:3], [15:16]}, metadata={op_name="jit(solve_rrtmg_lw_column_debug_stripped)/slice" stack_frame_id=108}
  %concatenate.17.3 = f64[3,17]{1,0} concatenate(%max.62.8, %slice.139.5), dimensions={1}, metadata={op_name="jit(solve_rrtmg_lw_column_debug_stripped)/concatenate" stack_frame_id=107}
  %constant_159_1 = f64[] constant(1.607793)
  %mul.209.9 = f64[3,17]{1,0} broadcast(%constant_159_1), dimensions={}, metadata={op_name="jit(solve_rrtmg_lw_column_debug_stripped)/mul" stack_frame_id=86}
  %mul.217.9 = f64[3,17]{1,0} multiply(%concatenate.17.3, %mul.209.9), metadata={op_name="jit(solve_rrtmg_lw_column_debug_stripped)/mul" stack_frame_id=86}
  %mul.226.13 = f64[3,17]{1,0} multiply(%mul.225.15, %mul.217.9), metadata={op_name="jit(solve_rrtmg_lw_column_debug_stripped)/mul" stack_frame_id=69}
  %constant_93_1 = f64[] constant(1.2599999999999999e-25)
  %broadcast.66.13 = f64[3,17]{1,0} broadcast(%constant_93_1), dimensions={}, metadata={op_name="jit(solve_rrtmg_lw_column_debug_stripped)/mul" stack_frame_id=68}
  %mul.237.13 = f64[3,17]{1,0} multiply(%param_11.244, %broadcast.66.13), metadata={op_name="jit(solve_rrtmg_lw_column_debug_stripped)/mul" stack_frame_id=68}
  %add.76.11 = f64[3,17]{1,0} add(%mul.226.13, %mul.237.13), metadata={op_name="jit(solve_rrtmg_lw_column_debug_stripped)/add" stack_frame_id=63}
  %constant_94_1 = f64[] constant(4.0000000000000003e-29)
  %broadcast.67.11 = f64[3,17]{1,0} broadcast(%constant_94_1), dimensions={}, metadata={op_name="jit(solve_rrtmg_lw_column_debug_stripped)/mul" stack_frame_id=67}
  %mul.238.11 = f64[3,17]{1,0} multiply(%param_11.244, %broadcast.67.11), metadata={op_name="jit(solve_rrtmg_lw_column_debug_stripped)/mul" stack_frame_id=67}
  %add.77.9 = f64[3,17]{1,0} add(%add.76.11, %mul.238.11), metadata={op_name="jit(solve_rrtmg_lw_column_debug_stripped)/add" stack_frame_id=63}
  %constant_95_1 = f64[] constant(6.7e-29)
  %broadcast.68.9 = f64[3,17]{1,0} broadcast(%constant_95_1), dimensions={}, metadata={op_name="jit(solve_rrtmg_lw_column_debug_stripped)/mul" stack_frame_id=66}
  %mul.239.9 = f64[3,17]{1,0} multiply(%param_11.244, %broadcast.68.9), metadata={op_name="jit(solve_rrtmg_lw_column_debug_stripped)/mul" stack_frame_id=66}
  %add.78.7 = f64[3,17]{1,0} add(%add.77.9, %mul.239.9), metadata={op_name="jit(solve_rrtmg_lw_column_debug_stripped)/add" stack_frame_id=63}
  %constant_102_1 = f64[] constant(3.7999999999999996e-28)
  %broadcast.69.7 = f64[3,17]{1,0} broadcast(%constant_102_1), dimensions={}, metadata={op_name="jit(solve_rrtmg_lw_column_debug_stripped)/mul" stack_frame_id=65}
  %mul.240.7 = f64[3,17]{1,0} multiply(%param_11.244, %broadcast.69.7), metadata={op_name="jit(solve_rrtmg_lw_column_debug_stripped)/mul" stack_frame_id=65}
  %add.79.5 = f64[3,17]{1,0} add(%add.78.7, %mul.240.7), metadata={op_name="jit(solve_rrtmg_lw_column_debug_stripped)/add" stack_frame_id=63}
  %constant_103_1 = f64[] constant(2.095e-25)
  %broadcast.70.5 = f64[3,17]{1,0} broadcast(%constant_103_1), dimensions={}, metadata={op_name="jit(solve_rrtmg_lw_column_debug_stripped)/mul" stack_frame_id=64}
  %mul.241.5 = f64[3,17]{1,0} multiply(%param_11.244, %broadcast.70.5), metadata={op_name="jit(solve_rrtmg_lw_column_debug_stripped)/mul" stack_frame_id=64}
  %add.80.3 = f64[3,17]{1,0} add(%add.79.5, %mul.241.5), metadata={op_name="jit(solve_rrtmg_lw_column_debug_stripped)/add" stack_frame_id=63}
  %transpose.26.3 = f64[17,3]{1,0} transpose(%add.80.3), dimensions={1,0}, metadata={op_name="jit(solve_rrtmg_lw_column_debug_stripped)/add" stack_frame_id=63}
  %broadcast.118.1 = f64[17,3,16,16]{3,2,1,0} broadcast(%transpose.26.3), dimensions={0,1}, metadata={op_name="jit(solve_rrtmg_lw_column_debug_stripped)/mul" stack_frame_id=54}
  %param_0.748 = f64[17,3,16,16]{3,2,1,0} parameter(0)
  %maximum.10 = f64[17,3,16,16]{3,2,1,0} maximum(%param_0.748, %broadcast.144.12), metadata={op_name="jit(solve_rrtmg_lw_column_debug_stripped)/max" stack_frame_id=55}
  %multiply.47.7 = f64[17,3,16,16]{3,2,1,0} multiply(%broadcast.118.1, %maximum.10), metadata={op_name="jit(solve_rrtmg_lw_column_debug_stripped)/mul" stack_frame_id=54}
  %param_16.153 = f64[3,16]{1,0} parameter(16)
  %max.63.13 = f64[3,16]{1,0} maximum(%param_16.153, %broadcast.57.44), metadata={op_name="jit(solve_rrtmg_lw_column_debug_stripped)/max" stack_frame_id=85}
  %pad.18 = f64[3,17]{1,0} pad(%max.63.13, %constant_171_9), padding=0_0x0_1, metadata={op_name="jit(solve_rrtmg_lw_column_debug_stripped)/concatenate" stack_frame_id=84}
  %param_15.157 = f64[3,16]{1,0} parameter(15)
  %max.64.13 = f64[3,16]{1,0} maximum(%param_15.157, %broadcast.57.44), metadata={op_name="jit(solve_rrtmg_lw_column_debug_stripped)/max" stack_frame_id=83}
  %pad.1.13 = f64[3,17]{1,0} pad(%max.64.13, %constant_171_9), padding=0_0x0_1, metadata={op_name="jit(solve_rrtmg_lw_column_debug_stripped)/concatenate" stack_frame_id=82}
  %add.82.13 = f64[3,17]{1,0} add(%pad.18, %pad.1.13), metadata={op_name="jit(solve_rrtmg_lw_column_debug_stripped)/add" stack_frame_id=76}
  %param_14.164 = f64[3,16]{1,0} parameter(14)
  %max.65.11 = f64[3,16]{1,0} maximum(%param_14.164, %broadcast.57.44), metadata={op_name="jit(solve_rrtmg_lw_column_debug_stripped)/max" stack_frame_id=81}
  %pad.2.11 = f64[3,17]{1,0} pad(%max.65.11, %constant_171_9), padding=0_0x0_1, metadata={op_name="jit(solve_rrtmg_lw_column_debug_stripped)/concatenate" stack_frame_id=80}
  %add.83.11 = f64[3,17]{1,0} add(%add.82.13, %pad.2.11), metadata={op_name="jit(solve_rrtmg_lw_column_debug_stripped)/add" stack_frame_id=76}
  %param_13.179 = f64[3,16]{1,0} parameter(13)
  %max.66.9 = f64[3,16]{1,0} maximum(%param_13.179, %broadcast.57.44), metadata={op_name="jit(solve_rrtmg_lw_column_debug_stripped)/max" stack_frame_id=79}
  %pad.3.9 = f64[3,17]{1,0} pad(%max.66.9, %constant_171_9), padding=0_0x0_1, metadata={op_name="jit(solve_rrtmg_lw_column_debug_stripped)/concatenate" stack_frame_id=77}
  %add.84.9 = f64[3,17]{1,0} add(%add.83.11, %pad.3.9), metadata={op_name="jit(solve_rrtmg_lw_column_debug_stripped)/add" stack_frame_id=76}
  %param_8.348 = f64[3,16]{1,0} parameter(8)
  %constant_172_4 = f64[] constant(1)
  %max.58.106 = f64[3,16]{1,0} broadcast(%constant_172_4), dimensions={}, metadata={op_name="jit(solve_rrtmg_lw_column_debug_stripped)/max" stack_frame_id=106}
  %max.61.103 = f64[3,16]{1,0} maximum(%param_8.348, %max.58.106), metadata={op_name="jit(solve_rrtmg_lw_column_debug_stripped)/max" stack_frame_id=106}
  %slice.142.17 = f64[3,1]{1,0} slice(%max.61.103), slice={[0:3], [0:1]}, metadata={op_name="jit(solve_rrtmg_lw_column_debug_stripped)/slice" stack_frame_id=101}
  %slice.141.21 = f64[3,1]{1,0} slice(%max.61.103), slice={[0:3], [1:2]}, metadata={op_name="jit(solve_rrtmg_lw_column_debug_stripped)/slice" stack_frame_id=105}
  %sub.4.19 = f64[3,1]{1,0} subtract(%slice.142.17, %slice.141.21), metadata={op_name="jit(solve_rrtmg_lw_column_debug_stripped)/sub" stack_frame_id=104}
  %constant_169_4 = f64[] constant(10)
  %broadcast.100.40 = f64[3,1]{1,0} broadcast(%constant_169_4), dimensions={}
  %max.25.17 = f64[3,1]{1,0} maximum(%sub.4.19, %broadcast.100.40), metadata={op_name="jit(solve_rrtmg_lw_column_debug_stripped)/max" stack_frame_id=103}
  %constant_168_3 = f64[] constant(0.5)
  %broadcast.111.35 = f64[3,1]{1,0} broadcast(%constant_168_3), dimensions={}
  %mul.9.17 = f64[3,1]{1,0} multiply(%max.25.17, %broadcast.111.35), metadata={op_name="jit(solve_rrtmg_lw_column_debug_stripped)/mul" stack_frame_id=102}
  %add.72.15 = f64[3,1]{1,0} add(%slice.142.17, %mul.9.17), metadata={op_name="jit(solve_rrtmg_lw_column_debug_stripped)/add" stack_frame_id=101}
  %slice.143.11 = f64[3,15]{1,0} slice(%max.61.103), slice={[0:3], [0:15]}, metadata={op_name="jit(solve_rrtmg_lw_column_debug_stripped)/slice" stack_frame_id=99}
  %slice.144.11 = f64[3,15]{1,0} slice(%max.61.103), slice={[0:3], [1:16]}, metadata={op_name="jit(solve_rrtmg_lw_column_debug_stripped)/slice" stack_frame_id=100}
  %add.73.11 = f64[3,15]{1,0} add(%slice.143.11, %slice.144.11), metadata={op_name="jit(solve_rrtmg_lw_column_debug_stripped)/add" stack_frame_id=99}
  %broadcast.53.9 = f64[3,15]{1,0} broadcast(%constant_168_3), dimensions={}
  %mul.215.9 = f64[3,15]{1,0} multiply(%add.73.11, %broadcast.53.9), metadata={op_name="jit(solve_rrtmg_lw_column_debug_stripped)/mul" stack_frame_id=98}
  %slice.147.23 = f64[3,1]{1,0} slice(%max.61.103), slice={[0:3], [15:16]}, metadata={op_name="jit(solve_rrtmg_lw_column_debug_stripped)/slice" stack_frame_id=94}
  %slice.145.23 = f64[3,1]{1,0} slice(%max.61.103), slice={[0:3], [14:15]}, metadata={op_name="jit(solve_rrtmg_lw_column_debug_stripped)/slice" stack_frame_id=97}
  %sub.5.18 = f64[3,1]{1,0} subtract(%slice.145.23, %slice.147.23), metadata={op_name="jit(solve_rrtmg_lw_column_debug_stripped)/sub" stack_frame_id=97}
  %max.26.18 = f64[3,1]{1,0} maximum(%sub.5.18, %broadcast.100.40), metadata={op_name="jit(solve_rrtmg_lw_column_debug_stripped)/max" stack_frame_id=96}
  %mul.10.18 = f64[3,1]{1,0} multiply(%max.26.18, %broadcast.111.35), metadata={op_name="jit(solve_rrtmg_lw_column_debug_stripped)/mul" stack_frame_id=95}
  %sub.71.18 = f64[3,1]{1,0} subtract(%slice.147.23, %mul.10.18), metadata={op_name="jit(solve_rrtmg_lw_column_debug_stripped)/sub" stack_frame_id=94}
  %constant_166_2 = f64[] constant(400)
  %broadcast.52.18 = f64[3,1]{1,0} broadcast(%constant_166_2), dimensions={}
  %max.73.18 = f64[3,1]{1,0} maximum(%sub.71.18, %broadcast.52.18), metadata={op_name="jit(solve_rrtmg_lw_column_debug_stripped)/max" stack_frame_id=93}
  %concatenate.13.7 = f64[3,17]{1,0} concatenate(%add.72.15, %mul.215.9, %max.73.18), dimensions={1}, metadata={op_name="jit(solve_rrtmg_lw_column_debug_stripped)/concatenate" stack_frame_id=90}
  %constant_165_1 = f64[] constant(0.001)
  %broadcast.51.7 = f64[3,1]{1,0} broadcast(%constant_165_1), dimensions={}
  %concatenate.1.7 = f64[3,17]{1,0} concatenate(%mul.215.9, %max.73.18, %broadcast.51.7), dimensions={1}, metadata={op_name="jit(solve_rrtmg_lw_column_debug_stripped)/concatenate" stack_frame_id=88}
  %sub.75.5 = f64[3,17]{1,0} subtract(%concatenate.13.7, %concatenate.1.7), metadata={op_name="jit(solve_rrtmg_lw_column_debug_stripped)/sub" stack_frame_id=87}
  %constant_44_1 = f64[] constant(0.10197162129779283)
  %broadcast.19.5 = f64[3,17]{1,0} broadcast(%constant_44_1), dimensions={}, metadata={op_name="jit(solve_rrtmg_lw_column_debug_stripped)/div" stack_frame_id=75}
  %multiply.14.5 = f64[3,17]{1,0} multiply(%sub.75.5, %broadcast.19.5), metadata={op_name="jit(solve_rrtmg_lw_column_debug_stripped)/div" stack_frame_id=75}
  %constant_160_1 = f64[] constant(1e-06)
  %max.56.5 = f64[3,17]{1,0} broadcast(%constant_160_1), dimensions={}, metadata={op_name="jit(solve_rrtmg_lw_column_debug_stripped)/max" stack_frame_id=74}
  %max.75.5 = f64[3,17]{1,0} maximum(%multiply.14.5, %max.56.5), metadata={op_name="jit(solve_rrtmg_lw_column_debug_stripped)/max" stack_frame_id=74}
  %mul.249.7 = f64[3,17]{1,0} multiply(%add.84.9, %max.75.5), metadata={op_name="jit(solve_rrtmg_lw_column_debug_stripped)/mul" stack_frame_id=70}
  %constant_153_1 = f64[] constant(1000)
  %broadcast.47.5 = f64[3,17]{1,0} broadcast(%constant_153_1), dimensions={}
  %mul.250.5 = f64[3,17]{1,0} multiply(%mul.249.7, %broadcast.47.5), metadata={op_name="jit(solve_rrtmg_lw_column_debug_stripped)/mul" stack_frame_id=70}
  %param_12.220 = f64[3,16]{1,0} parameter(12)
  %clamp.14 = f64[3,16]{1,0} clamp(%broadcast.57.44, %param_12.220, %max.58.106), metadata={op_name="jit(solve_rrtmg_lw_column_debug_stripped)/jit(clip)/min" stack_frame_id=73}
  %pad.4.3 = f64[3,17]{1,0} pad(%clamp.14, %constant_171_9), padding=0_0x0_1, metadata={op_name="jit(solve_rrtmg_lw_column_debug_stripped)/concatenate" stack_frame_id=71}
  %mul.251.3 = f64[3,17]{1,0} multiply(%mul.250.5, %pad.4.3), metadata={op_name="jit(solve_rrtmg_lw_column_debug_stripped)/mul" stack_frame_id=70}
  %transpose.29.3 = f64[17,3]{1,0} transpose(%mul.251.3), dimensions={1,0}, metadata={op_name="jit(solve_rrtmg_lw_column_debug_stripped)/mul" stack_frame_id=70}
  %broadcast.121.3 = f64[1,17,3,16]{3,2,1,0} broadcast(%transpose.29.3), dimensions={1,2}, metadata={op_name="jit(solve_rrtmg_lw_column_debug_stripped)/mul" stack_frame_id=18}
  %param_3.587 = f64[16]{0} parameter(3)
  %broadcast.122.3 = f64[1,17,3,16]{3,2,1,0} broadcast(%param_3.587), dimensions={3}, metadata={op_name="jit(solve_rrtmg_lw_column_debug_stripped)/mul" stack_frame_id=18}
  %multiply.48.3 = f64[1,17,3,16]{3,2,1,0} multiply(%broadcast.121.3, %broadcast.122.3), metadata={op_name="jit(solve_rrtmg_lw_column_debug_stripped)/mul" stack_frame_id=18}
  %bitcast.41.3 = f64[17,3,16]{2,1,0} bitcast(%multiply.48.3)
  %broadcast.123.3 = f64[17,3,16,16]{3,2,1,0} broadcast(%bitcast.41.3), dimensions={0,1,3}, metadata={op_name="jit(solve_rrtmg_lw_column_debug_stripped)/add" stack_frame_id=54}
  %add.45.5 = f64[17,3,16,16]{3,2,1,0} add(%multiply.47.7, %broadcast.123.3), metadata={op_name="jit(solve_rrtmg_lw_column_debug_stripped)/add" stack_frame_id=54}
  %constant_177_1 = f64[] constant(80)
  %broadcast.124.8 = f64[17,3,16,16]{3,2,1,0} broadcast(%constant_177_1), dimensions={}, metadata={op_name="jit(solve_rrtmg_lw_column_debug_stripped)/jit(clip)/min" stack_frame_id=53}
  %clamp.9.3 = f64[17,3,16,16]{3,2,1,0} clamp(%broadcast.144.12, %add.45.5, %broadcast.124.8), metadata={op_name="jit(solve_rrtmg_lw_column_debug_stripped)/jit(clip)/min" stack_frame_id=53}
  %param_1.977 = f64[16,16]{1,0} parameter(1)
  %broadcast.125.1 = f64[17,3,16,16]{3,2,1,0} broadcast(%param_1.977), dimensions={2,3}, metadata={op_name="jit(solve_rrtmg_lw_column_debug_stripped)/mul" stack_frame_id=19}
  %multiply.49.1 = f64[17,3,16,16]{3,2,1,0} multiply(%clamp.9.3, %broadcast.125.1), metadata={op_name="jit(solve_rrtmg_lw_column_debug_stripped)/mul" stack_frame_id=19}
  %param_4.555 = pred[16]{0} parameter(4)
  %broadcast_in_dim.12.1 = pred[3,16]{1,0} broadcast(%param_4.555), dimensions={1}, metadata={op_name="jit(solve_rrtmg_lw_column_debug_stripped)/jit(_where)/broadcast_in_dim" stack_frame_id=58}
  %constant_180_1 = f64[] constant(1.5)
  %max.8.3 = f64[3,16]{1,0} broadcast(%constant_180_1), dimensions={}, metadata={op_name="jit(solve_rrtmg_lw_column_debug_stripped)/jit(clip)/max" stack_frame_id=59}
  %param_7.383 = f64[16]{0} parameter(7)
  %add.87.3 = f64[3,16]{1,0} broadcast(%param_7.383), dimensions={1}, metadata={op_name="jit(solve_rrtmg_lw_column_debug_stripped)/add" stack_frame_id=21}
  %param_6.429 = f64[16]{0} parameter(6)
  %mul.261.5 = f64[3,16]{1,0} broadcast(%param_6.429), dimensions={1}, metadata={op_name="jit(solve_rrtmg_lw_column_debug_stripped)/mul" stack_frame_id=22}
  %param_5.480 = f64[16]{0} parameter(5)
  %mul.254.7 = f64[3,16]{1,0} broadcast(%param_5.480), dimensions={1}, metadata={op_name="jit(solve_rrtmg_lw_column_debug_stripped)/mul" stack_frame_id=23}
  %param_10.276 = f64[3,17]{1,0} parameter(10)
  %reduce_sum.42.5 = f64[3]{0} reduce(%param_10.276, %constant_171_9), dimensions={1}, to_apply=%region_0.3, metadata={op_name="jit(solve_rrtmg_lw_column_debug_stripped)/reduce_sum" stack_frame_id=6}
  %param_9.311 = f64[3]{0} parameter(9)
  %div.17.5 = f64[3]{0} divide(%reduce_sum.42.5, %param_9.311), metadata={op_name="jit(solve_rrtmg_lw_column_debug_stripped)/div" stack_frame_id=6}
  %mul.7.5 = f64[3,1]{1,0} multiply(%add.72.15, %broadcast.100.40), metadata={op_name="jit(solve_rrtmg_lw_column_debug_stripped)/mul" stack_frame_id=62}
  %bitcast.3.5 = f64[3]{0} bitcast(%mul.7.5), metadata={op_name="jit(solve_rrtmg_lw_column_debug_stripped)/mul" stack_frame_id=62}
  %mul.248.5 = f64[3]{0} multiply(%div.17.5, %bitcast.3.5), metadata={op_name="jit(solve_rrtmg_lw_column_debug_stripped)/mul" stack_frame_id=61}
  %constant_45_1 = f64[] constant(0.0010197162129779282)
  %broadcast.23.3 = f64[3]{0} broadcast(%constant_45_1), dimensions={}
  %multiply.17.3 = f64[3]{0} multiply(%mul.248.5, %broadcast.23.3), metadata={op_name="jit(solve_rrtmg_lw_column_debug_stripped)/div" stack_frame_id=61}
  %mul.257.7 = f64[3,16]{1,0} broadcast(%multiply.17.3), dimensions={0}, metadata={op_name="jit(solve_rrtmg_lw_column_debug_stripped)/mul" stack_frame_id=23}
  %mul.258.7 = f64[3,16]{1,0} multiply(%mul.254.7, %mul.257.7), metadata={op_name="jit(solve_rrtmg_lw_column_debug_stripped)/mul" stack_frame_id=23}
  %exp.2.5 = f64[3,16]{1,0} exponential(%mul.258.7), metadata={op_name="jit(solve_rrtmg_lw_column_debug_stripped)/exp" stack_frame_id=60}
  %mul.262.5 = f64[3,16]{1,0} multiply(%mul.261.5, %exp.2.5), metadata={op_name="jit(solve_rrtmg_lw_column_debug_stripped)/mul" stack_frame_id=22}
  %add.88.3 = f64[3,16]{1,0} add(%add.87.3, %mul.262.5), metadata={op_name="jit(solve_rrtmg_lw_column_debug_stripped)/add" stack_frame_id=21}
  %constant_179_1 = f64[] constant(1.8)
  %min.14.3 = f64[3,16]{1,0} broadcast(%constant_179_1), dimensions={}, metadata={op_name="jit(solve_rrtmg_lw_column_debug_stripped)/jit(clip)/min" stack_frame_id=59}
  %clamp.2.3 = f64[3,16]{1,0} clamp(%max.8.3, %add.88.3, %min.14.3), metadata={op_name="jit(solve_rrtmg_lw_column_debug_stripped)/jit(clip)/min" stack_frame_id=59}
  %constant_178_1 = f64[] constant(1.66)
  %broadcast_in_dim.13.1 = f64[3,16]{1,0} broadcast(%constant_178_1), dimensions={}, metadata={op_name="jit(solve_rrtmg_lw_column_debug_stripped)/jit(_where)/broadcast_in_dim" stack_frame_id=58}
  %select_n.21.1 = f64[3,16]{1,0} select(%broadcast_in_dim.12.1, %clamp.2.3, %broadcast_in_dim.13.1), metadata={op_name="jit(solve_rrtmg_lw_column_debug_stripped)/jit(_where)/select_n" stack_frame_id=58}
  %broadcast.126.1 = f64[17,3,16,16]{3,2,1,0} broadcast(%select_n.21.1), dimensions={1,3}, metadata={op_name="jit(solve_rrtmg_lw_column_debug_stripped)/mul" stack_frame_id=52}
  %multiply.50.1 = f64[17,3,16,16]{3,2,1,0} multiply(%multiply.49.1, %broadcast.126.1), metadata={op_name="jit(solve_rrtmg_lw_column_debug_stripped)/mul" stack_frame_id=52}
  %clamp.10.5 = f64[17,3,16,16]{3,2,1,0} clamp(%broadcast.116.1, %multiply.50.1, %broadcast.124.8), metadata={op_name="jit(solve_rrtmg_lw_column_debug_stripped)/min" stack_frame_id=51}
  %negate.7.3 = f64[17,3,16,16]{3,2,1,0} negate(%clamp.10.5), metadata={op_name="jit(solve_rrtmg_lw_column_debug_stripped)/neg" stack_frame_id=50}
  %exponential.2 = f64[17,3,16,16]{3,2,1,0} exponential(%negate.7.3), metadata={op_name="jit(solve_rrtmg_lw_column_debug_stripped)/exp" stack_frame_id=49}
  %broadcast.127.1 = f64[17,3,16,16]{3,2,1,0} broadcast(%constant_172_4), dimensions={}, metadata={op_name="jit(solve_rrtmg_lw_column_debug_stripped)/jit(_where)/broadcast_in_dim" stack_frame_id=32}
  ROOT %select.1.1 = f64[17,3,16,16]{3,2,1,0} select(%broadcast.115.1, %exponential.2, %broadcast.127.1), metadata={op_name="jit(solve_rrtmg_lw_column_debug_stripped)/jit(_where)/select_n" stack_frame_id=32}
}

%fused_transpose (param_0.237: f64[16,59,16], param_1.982: s64[3,17]) -> f64[17,3,16,16] {
  %param_1.982 = s64[3,17]{1,0} parameter(1)
  %constant_13_2 = s64[] constant(0), metadata={op_name="jit(solve_rrtmg_lw_column_debug_stripped)" stack_frame_id=14}
  %lt.5.7 = s64[3,17]{1,0} broadcast(%constant_13_2), dimensions={}, metadata={op_name="jit(solve_rrtmg_lw_column_debug_stripped)/jit(_take)/lt" stack_frame_id=33}
  %lt.8.9 = pred[3,17]{1,0} compare(%param_1.982, %lt.5.7), direction=LT, metadata={op_name="jit(solve_rrtmg_lw_column_debug_stripped)/jit(_take)/lt" stack_frame_id=33}
  %constant_15_1 = s64[] constant(59), metadata={op_name="jit(solve_rrtmg_lw_column_debug_stripped)/jit(_take)" stack_frame_id=33}
  %add.3.7 = s64[3,17]{1,0} broadcast(%constant_15_1), dimensions={}, metadata={op_name="jit(solve_rrtmg_lw_column_debug_stripped)/jit(_take)/add" stack_frame_id=33}
  %add.4.9 = s64[3,17]{1,0} add(%param_1.982, %add.3.7), metadata={op_name="jit(solve_rrtmg_lw_column_debug_stripped)/jit(_take)/add" stack_frame_id=33}
  %select_n.18.9 = s64[3,17]{1,0} select(%lt.8.9, %add.4.9, %param_1.982), metadata={op_name="jit(solve_rrtmg_lw_column_debug_stripped)/jit(_take)/jit(_where)/select_n" stack_frame_id=33}
  %convert_element_type.8.7 = s32[3,17]{1,0} convert(%select_n.18.9), metadata={op_name="jit(solve_rrtmg_lw_column_debug_stripped)/jit(_take)/convert_element_type" stack_frame_id=33}
  %constant_16_2 = s32[] constant(0), metadata={op_name="jit(solve_rrtmg_lw_column_debug_stripped)/jit(_take)" stack_frame_id=33}
  %broadcast.103.25 = s32[3,17]{1,0} broadcast(%constant_16_2), dimensions={}, metadata={op_name="jit(solve_rrtmg_lw_column_debug_stripped)/jit(_take)/ge" stack_frame_id=33}
  %ge.18.5 = pred[3,17]{1,0} compare(%convert_element_type.8.7, %broadcast.103.25), direction=GE, metadata={op_name="jit(solve_rrtmg_lw_column_debug_stripped)/jit(_take)/ge" stack_frame_id=33}
  %constant_17_1 = s32[] constant(58), metadata={op_name="jit(solve_rrtmg_lw_column_debug_stripped)/jit(_take)" stack_frame_id=33}
  %broadcast.105.5 = s32[3,17]{1,0} broadcast(%constant_17_1), dimensions={}, metadata={op_name="jit(solve_rrtmg_lw_column_debug_stripped)/jit(_take)/le" stack_frame_id=33}
  %le.18.5 = pred[3,17]{1,0} compare(%convert_element_type.8.7, %broadcast.105.5), direction=LE, metadata={op_name="jit(solve_rrtmg_lw_column_debug_stripped)/jit(_take)/le" stack_frame_id=33}
  %and.13.3 = pred[3,17]{1,0} and(%ge.18.5, %le.18.5), metadata={op_name="jit(solve_rrtmg_lw_column_debug_stripped)/jit(_take)/and" stack_frame_id=33}
  %transpose.27.1 = pred[17,3]{1,0} transpose(%and.13.3), dimensions={1,0}, metadata={op_name="jit(solve_rrtmg_lw_column_debug_stripped)/jit(_take)/and" stack_frame_id=33}
  %broadcast.119.1 = pred[17,3,16,16]{3,2,1,0} broadcast(%transpose.27.1), dimensions={0,1}, metadata={op_name="jit(solve_rrtmg_lw_column_debug_stripped)/jit(_take)/broadcast_in_dim" stack_frame_id=33}
  %param_0.237 = f64[16,59,16]{2,1,0} parameter(0)
  %bitcast.718.3 = s32[51,1]{0,1} bitcast(%convert_element_type.8.7)
  %gather.10.3 = f64[51,16,1,16]{3,2,1,0} gather(%param_0.237, %bitcast.718.3), offset_dims={1,2,3}, collapsed_slice_dims={}, start_index_map={1}, index_vector_dim=1, slice_sizes={16,1,16}, metadata={op_name="jit(solve_rrtmg_lw_column_debug_stripped)/jit(_take)/gather" stack_frame_id=33}
  %bitcast.1.3 = f64[3,17,16,16]{3,2,1,0} bitcast(%gather.10.3), metadata={op_name="jit(solve_rrtmg_lw_column_debug_stripped)/jit(_take)/gather" stack_frame_id=33}
  %transpose.28.3 = f64[17,3,16,16]{3,2,1,0} transpose(%bitcast.1.3), dimensions={1,0,3,2}, metadata={op_name="jit(solve_rrtmg_lw_column_debug_stripped)/jit(_take)/gather" stack_frame_id=33}
  %constant_19_3 = f64[] constant(nan), metadata={op_name="jit(solve_rrtmg_lw_column_debug_stripped)/jit(_take)" stack_frame_id=33}
  %broadcast.120.1 = f64[17,3,16,16]{3,2,1,0} broadcast(%constant_19_3), dimensions={}, metadata={op_name="jit(solve_rrtmg_lw_column_debug_stripped)/jit(_take)/broadcast_in_dim" stack_frame_id=33}
  ROOT %select.7 = f64[17,3,16,16]{3,2,1,0} select(%broadcast.119.1, %transpose.28.3, %broadcast.120.1), metadata={op_name="jit(solve_rrtmg_lw_column_debug_stripped)/jit(_take)/select_n" stack_frame_id=33}
}

%fused_multiply (param_0.77: f64[16,16], param_1.508: f64[16], param_2.848: f64[181,16], param_3.593: f64[3,16]) -> f64[17,3,16,16] {
  %constant_63_1 = s32[] constant(1), metadata={op_name="jit(solve_rrtmg_lw_column_debug_stripped)/jit(clip)/convert_element_type" stack_frame_id=122}
  %max.12.15 = s32[3,17]{1,0} broadcast(%constant_63_1), dimensions={}, metadata={op_name="jit(solve_rrtmg_lw_column_debug_stripped)/jit(clip)/max" stack_frame_id=122}
  %constant_176_1 = f64[] constant(160)
  %max.10.5 = f64[3,17]{1,0} broadcast(%constant_176_1), dimensions={}, metadata={op_name="jit(solve_rrtmg_lw_column_debug_stripped)/jit(clip)/max" stack_frame_id=125}
  %param_3.593 = f64[3,16]{1,0} parameter(3)
  %constant_187_1 = f64[] constant(120)
  %max.59.12 = f64[3,16]{1,0} broadcast(%constant_187_1), dimensions={}, metadata={op_name="jit(solve_rrtmg_lw_column_debug_stripped)/max" stack_frame_id=128}
  %max.60.12 = f64[3,16]{1,0} maximum(%param_3.593, %max.59.12), metadata={op_name="jit(solve_rrtmg_lw_column_debug_stripped)/max" stack_frame_id=128}
  %slice.138.7 = f64[3,1]{1,0} slice(%max.60.12), slice={[0:3], [15:16]}, metadata={op_name="jit(solve_rrtmg_lw_column_debug_stripped)/slice" stack_frame_id=127}
  %concatenate.16.5 = f64[3,17]{1,0} concatenate(%max.60.12, %slice.138.7), dimensions={1}, metadata={op_name="jit(solve_rrtmg_lw_column_debug_stripped)/concatenate" stack_frame_id=126}
  %constant_175_1 = f64[] constant(340)
  %min.18.5 = f64[3,17]{1,0} broadcast(%constant_175_1), dimensions={}, metadata={op_name="jit(solve_rrtmg_lw_column_debug_stripped)/jit(clip)/min" stack_frame_id=125}
  %clamp.4.5 = f64[3,17]{1,0} clamp(%max.10.5, %concatenate.16.5, %min.18.5), metadata={op_name="jit(solve_rrtmg_lw_column_debug_stripped)/jit(clip)/min" stack_frame_id=125}
  %constant_64_1 = f64[] constant(-159)
  %broadcast.24.3 = f64[3,17]{1,0} broadcast(%constant_64_1), dimensions={}
  %add.11.3 = f64[3,17]{1,0} add(%clamp.4.5, %broadcast.24.3), metadata={op_name="jit(solve_rrtmg_lw_column_debug_stripped)/sub" stack_frame_id=124}
  %convert_element_type.14.15 = s32[3,17]{1,0} convert(%add.11.3), metadata={op_name="jit(solve_rrtmg_lw_column_debug_stripped)/convert_element_type" stack_frame_id=123}
  %constant_23_1 = s32[] constant(180), metadata={op_name="jit(solve_rrtmg_lw_column_debug_stripped)/jit(_take)" stack_frame_id=118}
  %min.22.36 = s32[3,17]{1,0} broadcast(%constant_23_1), dimensions={}, metadata={op_name="jit(solve_rrtmg_lw_column_debug_stripped)/jit(clip)/min" stack_frame_id=122}
  %clamp.7.15 = s32[3,17]{1,0} clamp(%max.12.15, %convert_element_type.14.15, %min.22.36), metadata={op_name="jit(solve_rrtmg_lw_column_debug_stripped)/jit(clip)/min" stack_frame_id=122}
  %constant_65_1 = s32[] constant(-1)
  %broadcast.25.7 = s32[3,17]{1,0} broadcast(%constant_65_1), dimensions={}
  %add.12.7 = s32[3,17]{1,0} add(%clamp.7.15, %broadcast.25.7), metadata={op_name="jit(solve_rrtmg_lw_column_debug_stripped)/sub" stack_frame_id=121}
  %constant_16_1 = s32[] constant(0), metadata={op_name="jit(solve_rrtmg_lw_column_debug_stripped)/jit(_take)" stack_frame_id=33}
  %broadcast.103.33 = s32[3,17]{1,0} broadcast(%constant_16_1), dimensions={}, metadata={op_name="jit(solve_rrtmg_lw_column_debug_stripped)/jit(_take)/ge" stack_frame_id=33}
  %lt.12.7 = pred[3,17]{1,0} compare(%add.12.7, %broadcast.103.33), direction=LT, metadata={op_name="jit(solve_rrtmg_lw_column_debug_stripped)/jit(_take)/lt" stack_frame_id=118}
  %add.6.7 = s32[3,17]{1,0} add(%clamp.7.15, %min.22.36), metadata={op_name="jit(solve_rrtmg_lw_column_debug_stripped)/jit(_take)/add" stack_frame_id=118}
  %select_n.23.7 = s32[3,17]{1,0} select(%lt.12.7, %add.6.7, %add.12.7), metadata={op_name="jit(solve_rrtmg_lw_column_debug_stripped)/jit(_take)/jit(_where)/select_n" stack_frame_id=118}
  %ge.16.7 = pred[3,17]{1,0} compare(%select_n.23.7, %broadcast.103.33), direction=GE, metadata={op_name="jit(solve_rrtmg_lw_column_debug_stripped)/jit(_take)/ge" stack_frame_id=118}
  %le.16.7 = pred[3,17]{1,0} compare(%select_n.23.7, %min.22.36), direction=LE, metadata={op_name="jit(solve_rrtmg_lw_column_debug_stripped)/jit(_take)/le" stack_frame_id=118}
  %and.11.5 = pred[3,17]{1,0} and(%ge.16.7, %le.16.7), metadata={op_name="jit(solve_rrtmg_lw_column_debug_stripped)/jit(_take)/and" stack_frame_id=118}
  %transpose.31.3 = pred[17,3]{1,0} transpose(%and.11.5), dimensions={1,0}, metadata={op_name="jit(solve_rrtmg_lw_column_debug_stripped)/jit(_take)/and" stack_frame_id=118}
  %broadcast.129.3 = pred[17,3,16]{2,1,0} broadcast(%transpose.31.3), dimensions={0,1}, metadata={op_name="jit(solve_rrtmg_lw_column_debug_stripped)/jit(_take)/broadcast_in_dim" stack_frame_id=118}
  %param_2.848 = f64[181,16]{1,0} parameter(2)
  %bitcast.720.9 = s32[51,1]{0,1} bitcast(%select_n.23.7)
  %gather.11.9 = f64[51,1,16]{2,1,0} gather(%param_2.848, %bitcast.720.9), offset_dims={1,2}, collapsed_slice_dims={}, start_index_map={0}, index_vector_dim=1, slice_sizes={1,16}, metadata={op_name="jit(solve_rrtmg_lw_column_debug_stripped)/jit(_take)/gather" stack_frame_id=118}
  %bitcast.5.9 = f64[3,17,16]{2,1,0} bitcast(%gather.11.9), metadata={op_name="jit(solve_rrtmg_lw_column_debug_stripped)/jit(_take)/gather" stack_frame_id=118}
  %transpose.32.9 = f64[17,3,16]{2,1,0} transpose(%bitcast.5.9), dimensions={1,0,2}, metadata={op_name="jit(solve_rrtmg_lw_column_debug_stripped)/jit(_take)/gather" stack_frame_id=118}
  %constant_19_2 = f64[] constant(nan), metadata={op_name="jit(solve_rrtmg_lw_column_debug_stripped)/jit(_take)" stack_frame_id=33}
  %broadcast.130.16 = f64[17,3,16]{2,1,0} broadcast(%constant_19_2), dimensions={}, metadata={op_name="jit(solve_rrtmg_lw_column_debug_stripped)/jit(_take)/broadcast_in_dim" stack_frame_id=118}
  %select.2.7 = f64[17,3,16]{2,1,0} select(%broadcast.129.3, %transpose.32.9, %broadcast.130.16), metadata={op_name="jit(solve_rrtmg_lw_column_debug_stripped)/jit(_take)/select_n" stack_frame_id=118}
  %convert_element_type.15.3 = f64[3,17]{1,0} convert(%clamp.7.15), metadata={op_name="jit(solve_rrtmg_lw_column_debug_stripped)/convert_element_type" stack_frame_id=120}
  %sub.85.3 = f64[3,17]{1,0} subtract(%add.11.3, %convert_element_type.15.3), metadata={op_name="jit(solve_rrtmg_lw_column_debug_stripped)/sub" stack_frame_id=119}
  %transpose.33.3 = f64[17,3]{1,0} transpose(%sub.85.3), dimensions={1,0}, metadata={op_name="jit(solve_rrtmg_lw_column_debug_stripped)/sub" stack_frame_id=119}
  %broadcast.131.7 = f64[17,3,16]{2,1,0} broadcast(%transpose.33.3), dimensions={0,1}, metadata={op_name="jit(solve_rrtmg_lw_column_debug_stripped)/mul" stack_frame_id=113}
  %lt.15.7 = pred[3,17]{1,0} compare(%clamp.7.15, %broadcast.103.33), direction=LT, metadata={op_name="jit(solve_rrtmg_lw_column_debug_stripped)/jit(_take)/lt" stack_frame_id=117}
  %constant_21_1 = s32[] constant(181), metadata={op_name="jit(solve_rrtmg_lw_column_debug_stripped)/jit(_take)" stack_frame_id=118}
  %add.5.7 = s32[3,17]{1,0} broadcast(%constant_21_1), dimensions={}, metadata={op_name="jit(solve_rrtmg_lw_column_debug_stripped)/jit(_take)/add" stack_frame_id=118}
  %add.8.7 = s32[3,17]{1,0} add(%clamp.7.15, %add.5.7), metadata={op_name="jit(solve_rrtmg_lw_column_debug_stripped)/jit(_take)/add" stack_frame_id=117}
  %select_n.25.7 = s32[3,17]{1,0} select(%lt.15.7, %add.8.7, %clamp.7.15), metadata={op_name="jit(solve_rrtmg_lw_column_debug_stripped)/jit(_take)/jit(_where)/select_n" stack_frame_id=117}
  %ge.17.7 = pred[3,17]{1,0} compare(%select_n.25.7, %broadcast.103.33), direction=GE, metadata={op_name="jit(solve_rrtmg_lw_column_debug_stripped)/jit(_take)/ge" stack_frame_id=117}
  %le.17.7 = pred[3,17]{1,0} compare(%select_n.25.7, %min.22.36), direction=LE, metadata={op_name="jit(solve_rrtmg_lw_column_debug_stripped)/jit(_take)/le" stack_frame_id=117}
  %and.12.5 = pred[3,17]{1,0} and(%ge.17.7, %le.17.7), metadata={op_name="jit(solve_rrtmg_lw_column_debug_stripped)/jit(_take)/and" stack_frame_id=117}
  %transpose.34.3 = pred[17,3]{1,0} transpose(%and.12.5), dimensions={1,0}, metadata={op_name="jit(solve_rrtmg_lw_column_debug_stripped)/jit(_take)/and" stack_frame_id=117}
  %broadcast.132.3 = pred[17,3,16]{2,1,0} broadcast(%transpose.34.3), dimensions={0,1}, metadata={op_name="jit(solve_rrtmg_lw_column_debug_stripped)/jit(_take)/broadcast_in_dim" stack_frame_id=117}
  %bitcast.722.11 = s32[51,1]{0,1} bitcast(%select_n.25.7)
  %gather.12.11 = f64[51,1,16]{2,1,0} gather(%param_2.848, %bitcast.722.11), offset_dims={1,2}, collapsed_slice_dims={}, start_index_map={0}, index_vector_dim=1, slice_sizes={1,16}, metadata={op_name="jit(solve_rrtmg_lw_column_debug_stripped)/jit(_take)/gather" stack_frame_id=117}
  %bitcast.7.11 = f64[3,17,16]{2,1,0} bitcast(%gather.12.11), metadata={op_name="jit(solve_rrtmg_lw_column_debug_stripped)/jit(_take)/gather" stack_frame_id=117}
  %transpose.35.11 = f64[17,3,16]{2,1,0} transpose(%bitcast.7.11), dimensions={1,0,2}, metadata={op_name="jit(solve_rrtmg_lw_column_debug_stripped)/jit(_take)/gather" stack_frame_id=117}
  %select.3.9 = f64[17,3,16]{2,1,0} select(%broadcast.132.3, %transpose.35.11, %broadcast.130.16), metadata={op_name="jit(solve_rrtmg_lw_column_debug_stripped)/jit(_take)/select_n" stack_frame_id=117}
  %subtract.25 = f64[17,3,16]{2,1,0} subtract(%select.3.9, %select.2.7), metadata={op_name="jit(solve_rrtmg_lw_column_debug_stripped)/sub" stack_frame_id=114}
  %multiply.52.7 = f64[17,3,16]{2,1,0} multiply(%broadcast.131.7, %subtract.25), metadata={op_name="jit(solve_rrtmg_lw_column_debug_stripped)/mul" stack_frame_id=113}
  %add.46.5 = f64[17,3,16]{2,1,0} add(%select.2.7, %multiply.52.7), metadata={op_name="jit(solve_rrtmg_lw_column_debug_stripped)/add" stack_frame_id=112}
  %param_1.508 = f64[16]{0} parameter(1)
  %broadcast.133.3 = f64[17,3,16]{2,1,0} broadcast(%param_1.508), dimensions={2}, metadata={op_name="jit(solve_rrtmg_lw_column_debug_stripped)/mul" stack_frame_id=24}
  %multiply.53.3 = f64[17,3,16]{2,1,0} multiply(%add.46.5, %broadcast.133.3), metadata={op_name="jit(solve_rrtmg_lw_column_debug_stripped)/mul" stack_frame_id=24}
  %broadcast.134.1 = f64[17,3,16,16]{3,2,1,0} broadcast(%multiply.53.3), dimensions={0,1,3}, metadata={op_name="jit(solve_rrtmg_lw_column_debug_stripped)/mul" stack_frame_id=24}
  %param_0.77 = f64[16,16]{1,0} parameter(0)
  %broadcast.135.1 = f64[17,3,16,16]{3,2,1,0} broadcast(%param_0.77), dimensions={2,3}, metadata={op_name="jit(solve_rrtmg_lw_column_debug_stripped)/mul" stack_frame_id=24}
  ROOT %multiply.54.1 = f64[17,3,16,16]{3,2,1,0} multiply(%broadcast.134.1, %broadcast.135.1), metadata={op_name="jit(solve_rrtmg_lw_column_debug_stripped)/mul" stack_frame_id=24}
}

%region_2.5 (reduce.4: f64[], reduce.5: s64[], reduce.6: f64[], reduce.7: s64[]) -> (f64[], s64[]) {
  %reduce.4 = f64[] parameter(0), metadata={op_name="reduce"}
  %reduce.6 = f64[] parameter(2), metadata={op_name="reduce"}
  %lt.2.0 = pred[] compare(%reduce.4, %reduce.6), direction=LT, metadata={op_name="lt" stack_frame_id=12}
  %ne.1.0 = pred[] compare(%reduce.4, %reduce.4), direction=NE, metadata={op_name="ne" stack_frame_id=12}
  %or.2.0 = pred[] or(%lt.2.0, %ne.1.0), metadata={op_name="or" stack_frame_id=12}
  %eq.1.0 = pred[] compare(%reduce.4, %reduce.6), direction=EQ, metadata={op_name="eq" stack_frame_id=12}
  %reduce.5 = s64[] parameter(1), metadata={op_name="reduce"}
  %reduce.7 = s64[] parameter(3), metadata={op_name="reduce"}
  %lt.3.0 = pred[] compare(%reduce.5, %reduce.7), direction=LT, metadata={op_name="lt" stack_frame_id=12}
  %and.1.0 = pred[] and(%eq.1.0, %lt.3.0), metadata={op_name="and" stack_frame_id=12}
  %or.3.0 = pred[] or(%or.2.0, %and.1.0), metadata={op_name="or" stack_frame_id=12}
  %select_n.3.0 = s64[] select(%or.3.0, %reduce.5, %reduce.7), metadata={op_name="select_n" stack_frame_id=12}
  %select_n.2.0 = f64[] select(%or.2.0, %reduce.4, %reduce.6), metadata={op_name="select_n" stack_frame_id=12}
  ROOT %tuple.1.0 = (f64[], s64[]) tuple(%select_n.2.0, %select_n.3.0)
}

%fused_reduce.1 (param_0.753: f64[59], param_1.981: f64[3,16]) -> (f64[3,17], s64[3,17]) {
  %param_1.981 = f64[3,16]{1,0} parameter(1)
  %constant_172_2 = f64[] constant(1)
  %max.58.112 = f64[3,16]{1,0} broadcast(%constant_172_2), dimensions={}, metadata={op_name="jit(solve_rrtmg_lw_column_debug_stripped)/max" stack_frame_id=106}
  %max.61.109 = f64[3,16]{1,0} maximum(%param_1.981, %max.58.112), metadata={op_name="jit(solve_rrtmg_lw_column_debug_stripped)/max" stack_frame_id=106}
  %slice.147.25 = f64[3,1]{1,0} slice(%max.61.109), slice={[0:3], [15:16]}, metadata={op_name="jit(solve_rrtmg_lw_column_debug_stripped)/slice" stack_frame_id=94}
  %slice.145.25 = f64[3,1]{1,0} slice(%max.61.109), slice={[0:3], [14:15]}, metadata={op_name="jit(solve_rrtmg_lw_column_debug_stripped)/slice" stack_frame_id=97}
  %sub.5.20 = f64[3,1]{1,0} subtract(%slice.145.25, %slice.147.25), metadata={op_name="jit(solve_rrtmg_lw_column_debug_stripped)/sub" stack_frame_id=97}
  %constant_169_3 = f64[] constant(10)
  %broadcast.100.42 = f64[3,1]{1,0} broadcast(%constant_169_3), dimensions={}
  %max.26.20 = f64[3,1]{1,0} maximum(%sub.5.20, %broadcast.100.42), metadata={op_name="jit(solve_rrtmg_lw_column_debug_stripped)/max" stack_frame_id=96}
  %constant_168_2 = f64[] constant(0.5)
  %broadcast.111.37 = f64[3,1]{1,0} broadcast(%constant_168_2), dimensions={}
  %mul.10.20 = f64[3,1]{1,0} multiply(%max.26.20, %broadcast.111.37), metadata={op_name="jit(solve_rrtmg_lw_column_debug_stripped)/mul" stack_frame_id=95}
  %sub.71.20 = f64[3,1]{1,0} subtract(%slice.147.25, %mul.10.20), metadata={op_name="jit(solve_rrtmg_lw_column_debug_stripped)/sub" stack_frame_id=94}
  %constant_166_1 = f64[] constant(400)
  %broadcast.52.20 = f64[3,1]{1,0} broadcast(%constant_166_1), dimensions={}
  %max.73.20 = f64[3,1]{1,0} maximum(%sub.71.20, %broadcast.52.20), metadata={op_name="jit(solve_rrtmg_lw_column_debug_stripped)/max" stack_frame_id=93}
  %mul.213.7 = f64[3,1]{1,0} multiply(%max.73.20, %broadcast.111.37), metadata={op_name="jit(solve_rrtmg_lw_column_debug_stripped)/mul" stack_frame_id=133}
  %concatenate.15.7 = f64[3,17]{1,0} concatenate(%max.61.109, %mul.213.7), dimensions={1}, metadata={op_name="jit(solve_rrtmg_lw_column_debug_stripped)/concatenate" stack_frame_id=132}
  %broadcast.49.15 = f64[3,17]{1,0} broadcast(%constant_172_2), dimensions={}
  %max.78.5 = f64[3,17]{1,0} maximum(%concatenate.15.7, %broadcast.49.15), metadata={op_name="jit(solve_rrtmg_lw_column_debug_stripped)/max" stack_frame_id=131}
  %log.1.5 = f64[3,17]{1,0} log(%max.78.5), metadata={op_name="jit(solve_rrtmg_lw_column_debug_stripped)/log" stack_frame_id=130}
  %sub.78.5 = f64[3,17,59]{2,1,0} broadcast(%log.1.5), dimensions={0,1}, metadata={op_name="jit(solve_rrtmg_lw_column_debug_stripped)/sub" stack_frame_id=25}
  %param_0.753 = f64[59]{0} parameter(0)
  %broadcast.73.3 = f64[3,17,59]{2,1,0} broadcast(%param_0.753), dimensions={2}, metadata={op_name="jit(solve_rrtmg_lw_column_debug_stripped)/sub" stack_frame_id=25}
  %add.19.3 = f64[3,17,59]{2,1,0} add(%sub.78.5, %broadcast.73.3), metadata={op_name="jit(solve_rrtmg_lw_column_debug_stripped)/sub" stack_frame_id=25}
  %abs.1.3 = f64[3,17,59]{2,1,0} abs(%add.19.3), metadata={op_name="jit(solve_rrtmg_lw_column_debug_stripped)/abs" stack_frame_id=129}
  %iota.4.1 = s64[3,17,59]{2,1,0} iota(), iota_dimension=2, metadata={op_name="jit(solve_rrtmg_lw_column_debug_stripped)/iota" stack_frame_id=17}
  %constant_12_1 = f64[] constant(inf), metadata={op_name="jit(solve_rrtmg_lw_column_debug_stripped)" stack_frame_id=14}
  %constant_13_1 = s64[] constant(0), metadata={op_name="jit(solve_rrtmg_lw_column_debug_stripped)" stack_frame_id=14}
  ROOT %reduce.0.1 = (f64[3,17]{1,0}, s64[3,17]{1,0}) reduce(%abs.1.3, %iota.4.1, %constant_12_1, %constant_13_1), dimensions={2}, to_apply=%region_2.5, metadata={op_name="jit(solve_rrtmg_lw_column_debug_stripped)/reduce" stack_frame_id=17}
}

%fused_add (param_0.667: f64[17,3,16,16], param_1.967: f64[17,3,16,16], param_2.856: f64[16,16], param_3.613: f64[16], param_4.591: f64[3], param_5.565: f64[181,16], param_6.539: f64[3]) -> (f64[1,3,16,16], f64[3,16,16]) {
  %constant_63_2_clone_1 = s32[] constant(1), metadata={op_name="jit(solve_rrtmg_lw_column_debug_stripped)/jit(clip)/convert_element_type" stack_frame_id=122}
  %max.18.7.clone.1 = s32[3]{0} broadcast(%constant_63_2_clone_1), dimensions={}, metadata={op_name="jit(solve_rrtmg_lw_column_debug_stripped)/jit(clip)/max" stack_frame_id=149}
  %constant_176_2_clone_1 = f64[] constant(160)
  %max.14.3.clone.1 = f64[3]{0} broadcast(%constant_176_2_clone_1), dimensions={}, metadata={op_name="jit(solve_rrtmg_lw_column_debug_stripped)/jit(clip)/max" stack_frame_id=152}
  %param_6.539 = f64[3]{0} parameter(6)
  %constant_187_3_clone_1 = f64[] constant(120)
  %broadcast.56.7.clone.1 = f64[3]{0} broadcast(%constant_187_3_clone_1), dimensions={}
  %max.67.7.clone.1 = f64[3]{0} maximum(%param_6.539, %broadcast.56.7.clone.1), metadata={op_name="jit(solve_rrtmg_lw_column_debug_stripped)/max" stack_frame_id=153}
  %constant_175_2_clone_1 = f64[] constant(340)
  %min.28.3.clone.1 = f64[3]{0} broadcast(%constant_175_2_clone_1), dimensions={}, metadata={op_name="jit(solve_rrtmg_lw_column_debug_stripped)/jit(clip)/min" stack_frame_id=152}
  %clamp.5.3.clone.1 = f64[3]{0} clamp(%max.14.3.clone.1, %max.67.7.clone.1, %min.28.3.clone.1), metadata={op_name="jit(solve_rrtmg_lw_column_debug_stripped)/jit(clip)/min" stack_frame_id=152}
  %constant_64_2_clone_1 = f64[] constant(-159)
  %broadcast.28.3.clone.1 = f64[3]{0} broadcast(%constant_64_2_clone_1), dimensions={}
  %add.14.3.clone.1 = f64[3]{0} add(%clamp.5.3.clone.1, %broadcast.28.3.clone.1), metadata={op_name="jit(solve_rrtmg_lw_column_debug_stripped)/sub" stack_frame_id=151}
  %convert_element_type.16.7.clone.1 = s32[3]{0} convert(%add.14.3.clone.1), metadata={op_name="jit(solve_rrtmg_lw_column_debug_stripped)/convert_element_type" stack_frame_id=150}
  %constant_23_2_clone_1 = s32[] constant(180), metadata={op_name="jit(solve_rrtmg_lw_column_debug_stripped)/jit(_take)" stack_frame_id=118}
  %min.30.18.clone.1 = s32[3]{0} broadcast(%constant_23_2_clone_1), dimensions={}, metadata={op_name="jit(solve_rrtmg_lw_column_debug_stripped)/jit(clip)/min" stack_frame_id=149}
  %clamp.8.7.clone.1 = s32[3]{0} clamp(%max.18.7.clone.1, %convert_element_type.16.7.clone.1, %min.30.18.clone.1), metadata={op_name="jit(solve_rrtmg_lw_column_debug_stripped)/jit(clip)/min" stack_frame_id=149}
  %constant_65_2_clone_1 = s32[] constant(-1)
  %broadcast.58.11.clone.1 = s32[3]{0} broadcast(%constant_65_2_clone_1), dimensions={}
  %add.15.11.clone.1 = s32[3]{0} add(%clamp.8.7.clone.1, %broadcast.58.11.clone.1), metadata={op_name="jit(solve_rrtmg_lw_column_debug_stripped)/sub" stack_frame_id=148}
  %constant_16_3_clone_1 = s32[] constant(0), metadata={op_name="jit(solve_rrtmg_lw_column_debug_stripped)/jit(_take)" stack_frame_id=33}
  %broadcast.4.18.clone.1 = s32[3]{0} broadcast(%constant_16_3_clone_1), dimensions={}, metadata={op_name="jit(solve_rrtmg_lw_column_debug_stripped)/jit(_take)" stack_frame_id=145}
  %lt.16.11.clone.1 = pred[3]{0} compare(%add.15.11.clone.1, %broadcast.4.18.clone.1), direction=LT, metadata={op_name="jit(solve_rrtmg_lw_column_debug_stripped)/jit(_take)/lt" stack_frame_id=145}
  %add.9.11.clone.1 = s32[3]{0} add(%clamp.8.7.clone.1, %min.30.18.clone.1), metadata={op_name="jit(solve_rrtmg_lw_column_debug_stripped)/jit(_take)/add" stack_frame_id=145}
  %select_n.27.9.clone.1 = s32[3]{0} select(%lt.16.11.clone.1, %add.9.11.clone.1, %add.15.11.clone.1), metadata={op_name="jit(solve_rrtmg_lw_column_debug_stripped)/jit(_take)/jit(_where)/select_n" stack_frame_id=145}
  %bitcast.8.31.clone.1 = s32[3,1]{1,0} bitcast(%select_n.27.9.clone.1), metadata={op_name="jit(solve_rrtmg_lw_column_debug_stripped)/jit(_take)/jit(_where)/select_n" stack_frame_id=145}
  %broadcast.6.10.clone.1 = s32[3,1]{1,0} broadcast(%constant_16_3_clone_1), dimensions={}, metadata={op_name="jit(solve_rrtmg_lw_column_debug_stripped)/jit(_take)" stack_frame_id=145}
  %ge.14.5.clone.1 = pred[3,1]{1,0} compare(%bitcast.8.31.clone.1, %broadcast.6.10.clone.1), direction=GE, metadata={op_name="jit(solve_rrtmg_lw_column_debug_stripped)/jit(_take)/ge" stack_frame_id=145}
  %broadcast.7.10.clone.1 = s32[3,1]{1,0} broadcast(%constant_23_2_clone_1), dimensions={}, metadata={op_name="jit(solve_rrtmg_lw_column_debug_stripped)/jit(_take)" stack_frame_id=145}
  %le.14.5.clone.1 = pred[3,1]{1,0} compare(%bitcast.8.31.clone.1, %broadcast.7.10.clone.1), direction=LE, metadata={op_name="jit(solve_rrtmg_lw_column_debug_stripped)/jit(_take)/le" stack_frame_id=145}
  %and.9.3.clone.1 = pred[3,1]{1,0} and(%ge.14.5.clone.1, %le.14.5.clone.1), metadata={op_name="jit(solve_rrtmg_lw_column_debug_stripped)/jit(_take)/and" stack_frame_id=145}
  %bitcast.9.21.clone.1 = pred[3]{0} bitcast(%and.9.3.clone.1), metadata={op_name="jit(solve_rrtmg_lw_column_debug_stripped)/jit(_take)/and" stack_frame_id=145}
  %broadcast.137.21.clone.1 = pred[1,3,16]{2,1,0} broadcast(%bitcast.9.21.clone.1), dimensions={1}, metadata={op_name="jit(solve_rrtmg_lw_column_debug_stripped)/jit(_take)/broadcast_in_dim" stack_frame_id=145}
  %param_5.565 = f64[181,16]{1,0} parameter(5)
  %gather.13.21.clone.1 = f64[3,1,16]{2,0,1} gather(%param_5.565, %bitcast.8.31.clone.1), offset_dims={1,2}, collapsed_slice_dims={}, start_index_map={0}, index_vector_dim=1, slice_sizes={1,16}, metadata={op_name="jit(solve_rrtmg_lw_column_debug_stripped)/jit(_take)/gather" stack_frame_id=145}
  %bitcast.371.21.clone.1 = f64[1,3,16]{2,1,0} bitcast(%gather.13.21.clone.1)
  %constant_19_1_clone_1 = f64[] constant(nan), metadata={op_name="jit(solve_rrtmg_lw_column_debug_stripped)/jit(_take)" stack_frame_id=33}
  %broadcast.138.18.clone.1 = f64[1,3,16]{2,1,0} broadcast(%constant_19_1_clone_1), dimensions={}, metadata={op_name="jit(solve_rrtmg_lw_column_debug_stripped)/jit(_take)/broadcast_in_dim" stack_frame_id=145}
  %select.4.21.clone.1 = f64[1,3,16]{2,1,0} select(%broadcast.137.21.clone.1, %bitcast.371.21.clone.1, %broadcast.138.18.clone.1), metadata={op_name="jit(solve_rrtmg_lw_column_debug_stripped)/jit(_take)/select_n" stack_frame_id=145}
  %bitcast.10.18.clone.1 = f64[3,16]{1,0} bitcast(%select.4.21.clone.1), metadata={op_name="jit(solve_rrtmg_lw_column_debug_stripped)/jit(_take)/select_n" stack_frame_id=145}
  %convert_element_type.17.3.clone.1 = f64[3]{0} convert(%clamp.8.7.clone.1), metadata={op_name="jit(solve_rrtmg_lw_column_debug_stripped)/convert_element_type" stack_frame_id=147}
  %sub.90.3.clone.1 = f64[3]{0} subtract(%add.14.3.clone.1, %convert_element_type.17.3.clone.1), metadata={op_name="jit(solve_rrtmg_lw_column_debug_stripped)/sub" stack_frame_id=146}
  %mul.288.9.clone.1 = f64[3,16]{1,0} broadcast(%sub.90.3.clone.1), dimensions={0}, metadata={op_name="jit(solve_rrtmg_lw_column_debug_stripped)/mul" stack_frame_id=141}
  %lt.17.7.clone.1 = pred[3]{0} compare(%clamp.8.7.clone.1, %broadcast.4.18.clone.1), direction=LT, metadata={op_name="jit(solve_rrtmg_lw_column_debug_stripped)/jit(_take)/lt" stack_frame_id=144}
  %constant_21_2_clone_1 = s32[] constant(181), metadata={op_name="jit(solve_rrtmg_lw_column_debug_stripped)/jit(_take)" stack_frame_id=118}
  %broadcast.5.7.clone.1 = s32[3]{0} broadcast(%constant_21_2_clone_1), dimensions={}, metadata={op_name="jit(solve_rrtmg_lw_column_debug_stripped)/jit(_take)" stack_frame_id=145}
  %add.10.7.clone.1 = s32[3]{0} add(%clamp.8.7.clone.1, %broadcast.5.7.clone.1), metadata={op_name="jit(solve_rrtmg_lw_column_debug_stripped)/jit(_take)/add" stack_frame_id=144}
  %select_n.29.5.clone.1 = s32[3]{0} select(%lt.17.7.clone.1, %add.10.7.clone.1, %clamp.8.7.clone.1), metadata={op_name="jit(solve_rrtmg_lw_column_debug_stripped)/jit(_take)/jit(_where)/select_n" stack_frame_id=144}
  %bitcast.11.23.clone.1 = s32[3,1]{1,0} bitcast(%select_n.29.5.clone.1), metadata={op_name="jit(solve_rrtmg_lw_column_debug_stripped)/jit(_take)/jit(_where)/select_n" stack_frame_id=144}
  %ge.15.5.clone.1 = pred[3,1]{1,0} compare(%bitcast.11.23.clone.1, %broadcast.6.10.clone.1), direction=GE, metadata={op_name="jit(solve_rrtmg_lw_column_debug_stripped)/jit(_take)/ge" stack_frame_id=144}
  %le.15.5.clone.1 = pred[3,1]{1,0} compare(%bitcast.11.23.clone.1, %broadcast.7.10.clone.1), direction=LE, metadata={op_name="jit(solve_rrtmg_lw_column_debug_stripped)/jit(_take)/le" stack_frame_id=144}
  %and.10.3.clone.1 = pred[3,1]{1,0} and(%ge.15.5.clone.1, %le.15.5.clone.1), metadata={op_name="jit(solve_rrtmg_lw_column_debug_stripped)/jit(_take)/and" stack_frame_id=144}
  %bitcast.12.13.clone.1 = pred[3]{0} bitcast(%and.10.3.clone.1), metadata={op_name="jit(solve_rrtmg_lw_column_debug_stripped)/jit(_take)/and" stack_frame_id=144}
  %broadcast.139.13.clone.1 = pred[1,3,16]{2,1,0} broadcast(%bitcast.12.13.clone.1), dimensions={1}, metadata={op_name="jit(solve_rrtmg_lw_column_debug_stripped)/jit(_take)/broadcast_in_dim" stack_frame_id=144}
  %gather.14.13.clone.1 = f64[3,1,16]{2,0,1} gather(%param_5.565, %bitcast.11.23.clone.1), offset_dims={1,2}, collapsed_slice_dims={}, start_index_map={0}, index_vector_dim=1, slice_sizes={1,16}, metadata={op_name="jit(solve_rrtmg_lw_column_debug_stripped)/jit(_take)/gather" stack_frame_id=144}
  %bitcast.376.13.clone.1 = f64[1,3,16]{2,1,0} bitcast(%gather.14.13.clone.1)
  %select.5.13.clone.1 = f64[1,3,16]{2,1,0} select(%broadcast.139.13.clone.1, %bitcast.376.13.clone.1, %broadcast.138.18.clone.1), metadata={op_name="jit(solve_rrtmg_lw_column_debug_stripped)/jit(_take)/select_n" stack_frame_id=144}
  %bitcast.13.11.clone.1 = f64[3,16]{1,0} bitcast(%select.5.13.clone.1), metadata={op_name="jit(solve_rrtmg_lw_column_debug_stripped)/jit(_take)/select_n" stack_frame_id=144}
  %sub.92.11.clone.1 = f64[3,16]{1,0} subtract(%bitcast.13.11.clone.1, %bitcast.10.18.clone.1), metadata={op_name="jit(solve_rrtmg_lw_column_debug_stripped)/sub" stack_frame_id=142}
  %mul.289.9.clone.1 = f64[3,16]{1,0} multiply(%mul.288.9.clone.1, %sub.92.11.clone.1), metadata={op_name="jit(solve_rrtmg_lw_column_debug_stripped)/mul" stack_frame_id=141}
  %add.94.7.clone.1 = f64[3,16]{1,0} add(%bitcast.10.18.clone.1, %mul.289.9.clone.1), metadata={op_name="jit(solve_rrtmg_lw_column_debug_stripped)/add" stack_frame_id=140}
  %constant_171_2_clone_1 = f64[] constant(0)
  %max.20.9.clone.1 = f64[3]{0} broadcast(%constant_171_2_clone_1), dimensions={}, metadata={op_name="jit(solve_rrtmg_lw_column_debug_stripped)/jit(clip)/max" stack_frame_id=139}
  %param_4.591 = f64[3]{0} parameter(4)
  %constant_172_8 = f64[] constant(1)
  %min.32.12.clone.1 = f64[3]{0} broadcast(%constant_172_8), dimensions={}, metadata={op_name="jit(solve_rrtmg_lw_column_debug_stripped)/jit(clip)/min" stack_frame_id=139}
  %clamp.6.9.clone.1 = f64[3]{0} clamp(%max.20.9.clone.1, %param_4.591, %min.32.12.clone.1), metadata={op_name="jit(solve_rrtmg_lw_column_debug_stripped)/jit(clip)/min" stack_frame_id=139}
  %mul.292.5.clone.1 = f64[3,16]{1,0} broadcast(%clamp.6.9.clone.1), dimensions={0}, metadata={op_name="jit(solve_rrtmg_lw_column_debug_stripped)/mul" stack_frame_id=138}
  %mul.293.5.clone.1 = f64[3,16]{1,0} multiply(%add.94.7.clone.1, %mul.292.5.clone.1), metadata={op_name="jit(solve_rrtmg_lw_column_debug_stripped)/mul" stack_frame_id=138}
  %param_3.613 = f64[16]{0} parameter(3)
  %broadcast.94.3.clone.1 = f64[3,16]{1,0} broadcast(%param_3.613), dimensions={1}, metadata={op_name="jit(solve_rrtmg_lw_column_debug_stripped)/mul" stack_frame_id=137}
  %mul.3.3.clone.1 = f64[3,16]{1,0} multiply(%mul.293.5.clone.1, %broadcast.94.3.clone.1), metadata={op_name="jit(solve_rrtmg_lw_column_debug_stripped)/mul" stack_frame_id=137}
  %broadcast.140.3.clone.1 = f64[3,16,16]{2,1,0} broadcast(%mul.3.3.clone.1), dimensions={0,2}, metadata={op_name="jit(solve_rrtmg_lw_column_debug_stripped)/mul" stack_frame_id=137}
  %param_2.856 = f64[16,16]{1,0} parameter(2)
  %broadcast.141.3.clone.1 = f64[3,16,16]{2,1,0} broadcast(%param_2.856), dimensions={1,2}, metadata={op_name="jit(solve_rrtmg_lw_column_debug_stripped)/mul" stack_frame_id=137}
  %multiply.88.3.clone.1 = f64[3,16,16]{2,1,0} multiply(%broadcast.140.3.clone.1, %broadcast.141.3.clone.1), metadata={op_name="jit(solve_rrtmg_lw_column_debug_stripped)/mul" stack_frame_id=137}
  %sub.3.3.clone.1 = f64[3]{0} subtract(%min.32.12.clone.1, %clamp.6.9.clone.1), metadata={op_name="jit(solve_rrtmg_lw_column_debug_stripped)/sub" stack_frame_id=136}
  %broadcast.142.1.clone.1 = f64[3,1,16,16]{3,2,1,0} broadcast(%sub.3.3.clone.1), dimensions={0}, metadata={op_name="jit(solve_rrtmg_lw_column_debug_stripped)/mul" stack_frame_id=135}
  %param_0.667 = f64[17,3,16,16]{3,2,1,0} parameter(0)
  %slice.6.23.clone.1 = f64[1,3,16,16]{3,2,1,0} slice(%param_0.667), slice={[16:17], [0:3], [0:16], [0:16]}, metadata={op_name="jit(solve_rrtmg_lw_column_debug_stripped)/slice" stack_frame_id=43}
  %bitcast.541.11.clone.1 = f64[3,1,16,16]{3,2,1,0} bitcast(%slice.6.23.clone.1), metadata={op_name="jit(solve_rrtmg_lw_column_debug_stripped)/slice" stack_frame_id=43}
  %broadcast.128.12.clone.1 = f64[3,1,16,16]{3,2,1,0} broadcast(%constant_171_2_clone_1), dimensions={}, metadata={op_name="jit(solve_rrtmg_lw_column_debug_stripped)/broadcast_in_dim" stack_frame_id=48}
  %multiply.51.11.clone.1 = f64[3,1,16,16]{3,2,1,0} multiply(%bitcast.541.11.clone.1, %broadcast.128.12.clone.1), metadata={op_name="jit(solve_rrtmg_lw_column_debug_stripped)/mul;jit(solve_rrtmg_lw_column_debug_stripped)/broadcast_in_dim"}
  %param_1.967 = f64[17,3,16,16]{3,2,1,0} parameter(1)
  %slice.7.11.clone.1 = f64[1,3,16,16]{3,2,1,0} slice(%param_1.967), slice={[16:17], [0:3], [0:16], [0:16]}, metadata={op_name="jit(solve_rrtmg_lw_column_debug_stripped)/slice" stack_frame_id=44}
  %broadcast.136.55.clone.1 = f64[1,3,16,16]{3,2,1,0} broadcast(%constant_172_8), dimensions={}
  %subtract.1.11.clone.1 = f64[1,3,16,16]{3,2,1,0} subtract(%broadcast.136.55.clone.1, %slice.6.23.clone.1), metadata={op_name="jit(solve_rrtmg_lw_column_debug_stripped)/sub" stack_frame_id=45}
  %multiply.55.11.clone.1 = f64[1,3,16,16]{3,2,1,0} multiply(%slice.7.11.clone.1, %subtract.1.11.clone.1), metadata={op_name="jit(solve_rrtmg_lw_column_debug_stripped)/mul" stack_frame_id=44}
  %bitcast.669.9.clone.1 = f64[3,1,16,16]{3,2,1,0} bitcast(%multiply.55.11.clone.1), metadata={op_name="jit(solve_rrtmg_lw_column_debug_stripped)/mul" stack_frame_id=44}
  %add.47.9.clone.1 = f64[3,1,16,16]{3,2,1,0} add(%multiply.51.11.clone.1, %bitcast.669.9.clone.1), metadata={op_name="jit(solve_rrtmg_lw_column_debug_stripped)/add" stack_frame_id=47}
  %bitcast.670.7.clone.1 = f64[1,3,16,16]{3,2,1,0} bitcast(%add.47.9.clone.1), metadata={op_name="jit(solve_rrtmg_lw_column_debug_stripped)/add" stack_frame_id=47}
  %slice.8.17.clone.1 = f64[1,3,16,16]{3,2,1,0} slice(%param_0.667), slice={[15:16], [0:3], [0:16], [0:16]}, metadata={op_name="jit(solve_rrtmg_lw_column_debug_stripped)/slice" stack_frame_id=43}
  %multiply.56.7.clone.1 = f64[1,3,16,16]{3,2,1,0} multiply(%bitcast.670.7.clone.1, %slice.8.17.clone.1), metadata={op_name="jit(solve_rrtmg_lw_column_debug_stripped)/mul" stack_frame_id=47}
  %slice.9.9.clone.1 = f64[1,3,16,16]{3,2,1,0} slice(%param_1.967), slice={[15:16], [0:3], [0:16], [0:16]}, metadata={op_name="jit(solve_rrtmg_lw_column_debug_stripped)/slice" stack_frame_id=44}
  %subtract.2.9.clone.1 = f64[1,3,16,16]{3,2,1,0} subtract(%broadcast.136.55.clone.1, %slice.8.17.clone.1), metadata={op_name="jit(solve_rrtmg_lw_column_debug_stripped)/sub" stack_frame_id=45}
  %multiply.57.9.clone.1 = f64[1,3,16,16]{3,2,1,0} multiply(%slice.9.9.clone.1, %subtract.2.9.clone.1), metadata={op_name="jit(solve_rrtmg_lw_column_debug_stripped)/mul" stack_frame_id=44}
  %add.48.5.clone.1 = f64[1,3,16,16]{3,2,1,0} add(%multiply.56.7.clone.1, %multiply.57.9.clone.1), metadata={op_name="jit(solve_rrtmg_lw_column_debug_stripped)/add" stack_frame_id=47}
  %slice.10.61.clone.1 = f64[1,3,16,16]{3,2,1,0} slice(%param_0.667), slice={[14:15], [0:3], [0:16], [0:16]}, metadata={op_name="jit(solve_rrtmg_lw_column_debug_stripped)/slice" stack_frame_id=43}
  %multiply.58.59.clone.1 = f64[1,3,16,16]{3,2,1,0} multiply(%add.48.5.clone.1, %slice.10.61.clone.1), metadata={op_name="jit(solve_rrtmg_lw_column_debug_stripped)/mul" stack_frame_id=47}
  %slice.11.5.clone.1 = f64[1,3,16,16]{3,2,1,0} slice(%param_1.967), slice={[14:15], [0:3], [0:16], [0:16]}, metadata={op_name="jit(solve_rrtmg_lw_column_debug_stripped)/slice" stack_frame_id=44}
  %subtract.3.5.clone.1 = f64[1,3,16,16]{3,2,1,0} subtract(%broadcast.136.55.clone.1, %slice.10.61.clone.1), metadata={op_name="jit(solve_rrtmg_lw_column_debug_stripped)/sub" stack_frame_id=45}
  %multiply.59.5.clone.1 = f64[1,3,16,16]{3,2,1,0} multiply(%slice.11.5.clone.1, %subtract.3.5.clone.1), metadata={op_name="jit(solve_rrtmg_lw_column_debug_stripped)/mul" stack_frame_id=44}
  %add.49.59.clone.1 = f64[1,3,16,16]{3,2,1,0} add(%multiply.58.59.clone.1, %multiply.59.5.clone.1), metadata={op_name="jit(solve_rrtmg_lw_column_debug_stripped)/add" stack_frame_id=47}
  %slice.12.57.clone.1 = f64[1,3,16,16]{3,2,1,0} slice(%param_0.667), slice={[13:14], [0:3], [0:16], [0:16]}, metadata={op_name="jit(solve_rrtmg_lw_column_debug_stripped)/slice" stack_frame_id=43}
  %multiply.60.55.clone.1 = f64[1,3,16,16]{3,2,1,0} multiply(%add.49.59.clone.1, %slice.12.57.clone.1), metadata={op_name="jit(solve_rrtmg_lw_column_debug_stripped)/mul" stack_frame_id=47}
  %slice.13.5.clone.1 = f64[1,3,16,16]{3,2,1,0} slice(%param_1.967), slice={[13:14], [0:3], [0:16], [0:16]}, metadata={op_name="jit(solve_rrtmg_lw_column_debug_stripped)/slice" stack_frame_id=44}
  %subtract.4.5.clone.1 = f64[1,3,16,16]{3,2,1,0} subtract(%broadcast.136.55.clone.1, %slice.12.57.clone.1), metadata={op_name="jit(solve_rrtmg_lw_column_debug_stripped)/sub" stack_frame_id=45}
  %multiply.61.5.clone.1 = f64[1,3,16,16]{3,2,1,0} multiply(%slice.13.5.clone.1, %subtract.4.5.clone.1), metadata={op_name="jit(solve_rrtmg_lw_column_debug_stripped)/mul" stack_frame_id=44}
  %add.50.55.clone.1 = f64[1,3,16,16]{3,2,1,0} add(%multiply.60.55.clone.1, %multiply.61.5.clone.1), metadata={op_name="jit(solve_rrtmg_lw_column_debug_stripped)/add" stack_frame_id=47}
  %slice.14.53.clone.1 = f64[1,3,16,16]{3,2,1,0} slice(%param_0.667), slice={[12:13], [0:3], [0:16], [0:16]}, metadata={op_name="jit(solve_rrtmg_lw_column_debug_stripped)/slice" stack_frame_id=43}
  %multiply.62.51.clone.1 = f64[1,3,16,16]{3,2,1,0} multiply(%add.50.55.clone.1, %slice.14.53.clone.1), metadata={op_name="jit(solve_rrtmg_lw_column_debug_stripped)/mul" stack_frame_id=47}
  %slice.15.5.clone.1 = f64[1,3,16,16]{3,2,1,0} slice(%param_1.967), slice={[12:13], [0:3], [0:16], [0:16]}, metadata={op_name="jit(solve_rrtmg_lw_column_debug_stripped)/slice" stack_frame_id=44}
  %subtract.5.5.clone.1 = f64[1,3,16,16]{3,2,1,0} subtract(%broadcast.136.55.clone.1, %slice.14.53.clone.1), metadata={op_name="jit(solve_rrtmg_lw_column_debug_stripped)/sub" stack_frame_id=45}
  %multiply.63.5.clone.1 = f64[1,3,16,16]{3,2,1,0} multiply(%slice.15.5.clone.1, %subtract.5.5.clone.1), metadata={op_name="jit(solve_rrtmg_lw_column_debug_stripped)/mul" stack_frame_id=44}
  %add.51.51.clone.1 = f64[1,3,16,16]{3,2,1,0} add(%multiply.62.51.clone.1, %multiply.63.5.clone.1), metadata={op_name="jit(solve_rrtmg_lw_column_debug_stripped)/add" stack_frame_id=47}
  %slice.16.49.clone.1 = f64[1,3,16,16]{3,2,1,0} slice(%param_0.667), slice={[11:12], [0:3], [0:16], [0:16]}, metadata={op_name="jit(solve_rrtmg_lw_column_debug_stripped)/slice" stack_frame_id=43}
  %multiply.64.47.clone.1 = f64[1,3,16,16]{3,2,1,0} multiply(%add.51.51.clone.1, %slice.16.49.clone.1), metadata={op_name="jit(solve_rrtmg_lw_column_debug_stripped)/mul" stack_frame_id=47}
  %slice.17.5.clone.1 = f64[1,3,16,16]{3,2,1,0} slice(%param_1.967), slice={[11:12], [0:3], [0:16], [0:16]}, metadata={op_name="jit(solve_rrtmg_lw_column_debug_stripped)/slice" stack_frame_id=44}
  %subtract.6.5.clone.1 = f64[1,3,16,16]{3,2,1,0} subtract(%broadcast.136.55.clone.1, %slice.16.49.clone.1), metadata={op_name="jit(solve_rrtmg_lw_column_debug_stripped)/sub" stack_frame_id=45}
  %multiply.65.5.clone.1 = f64[1,3,16,16]{3,2,1,0} multiply(%slice.17.5.clone.1, %subtract.6.5.clone.1), metadata={op_name="jit(solve_rrtmg_lw_column_debug_stripped)/mul" stack_frame_id=44}
  %add.52.47.clone.1 = f64[1,3,16,16]{3,2,1,0} add(%multiply.64.47.clone.1, %multiply.65.5.clone.1), metadata={op_name="jit(solve_rrtmg_lw_column_debug_stripped)/add" stack_frame_id=47}
  %slice.18.45.clone.1 = f64[1,3,16,16]{3,2,1,0} slice(%param_0.667), slice={[10:11], [0:3], [0:16], [0:16]}, metadata={op_name="jit(solve_rrtmg_lw_column_debug_stripped)/slice" stack_frame_id=43}
  %multiply.66.43.clone.1 = f64[1,3,16,16]{3,2,1,0} multiply(%add.52.47.clone.1, %slice.18.45.clone.1), metadata={op_name="jit(solve_rrtmg_lw_column_debug_stripped)/mul" stack_frame_id=47}
  %slice.19.5.clone.1 = f64[1,3,16,16]{3,2,1,0} slice(%param_1.967), slice={[10:11], [0:3], [0:16], [0:16]}, metadata={op_name="jit(solve_rrtmg_lw_column_debug_stripped)/slice" stack_frame_id=44}
  %subtract.7.5.clone.1 = f64[1,3,16,16]{3,2,1,0} subtract(%broadcast.136.55.clone.1, %slice.18.45.clone.1), metadata={op_name="jit(solve_rrtmg_lw_column_debug_stripped)/sub" stack_frame_id=45}
  %multiply.67.5.clone.1 = f64[1,3,16,16]{3,2,1,0} multiply(%slice.19.5.clone.1, %subtract.7.5.clone.1), metadata={op_name="jit(solve_rrtmg_lw_column_debug_stripped)/mul" stack_frame_id=44}
  %add.53.43.clone.1 = f64[1,3,16,16]{3,2,1,0} add(%multiply.66.43.clone.1, %multiply.67.5.clone.1), metadata={op_name="jit(solve_rrtmg_lw_column_debug_stripped)/add" stack_frame_id=47}
  %slice.20.41.clone.1 = f64[1,3,16,16]{3,2,1,0} slice(%param_0.667), slice={[9:10], [0:3], [0:16], [0:16]}, metadata={op_name="jit(solve_rrtmg_lw_column_debug_stripped)/slice" stack_frame_id=43}
  %multiply.68.39.clone.1 = f64[1,3,16,16]{3,2,1,0} multiply(%add.53.43.clone.1, %slice.20.41.clone.1), metadata={op_name="jit(solve_rrtmg_lw_column_debug_stripped)/mul" stack_frame_id=47}
  %slice.21.5.clone.1 = f64[1,3,16,16]{3,2,1,0} slice(%param_1.967), slice={[9:10], [0:3], [0:16], [0:16]}, metadata={op_name="jit(solve_rrtmg_lw_column_debug_stripped)/slice" stack_frame_id=44}
  %subtract.8.5.clone.1 = f64[1,3,16,16]{3,2,1,0} subtract(%broadcast.136.55.clone.1, %slice.20.41.clone.1), metadata={op_name="jit(solve_rrtmg_lw_column_debug_stripped)/sub" stack_frame_id=45}
  %multiply.69.5.clone.1 = f64[1,3,16,16]{3,2,1,0} multiply(%slice.21.5.clone.1, %subtract.8.5.clone.1), metadata={op_name="jit(solve_rrtmg_lw_column_debug_stripped)/mul" stack_frame_id=44}

# Truncated for git hygiene; full HLO: /tmp/wrf_gpu2_s3y/data/scratch/m5/rrtmg_lw_debug_stripped_full.txt
