HloModule jit_solve_rrtmg_lw_column, is_scheduled=true, entry_computation_layout={(f64[3,16]{1,0}, f64[3,16]{1,0}, f64[3,16]{1,0}, f64[3,16]{1,0}, f64[3,16]{1,0}, /*index=5*/f64[3,16]{1,0}, f64[3,16]{1,0}, f64[3,16]{1,0}, f64[3]{0}, f64[3]{0})->(f64[3,16]{1,0}, f64[3,18]{1,0}, f64[3,18]{1,0}, f64[3]{0}, f64[3]{0}, /*index=5*/f64[3]{0}, f64[3]{0}, f64[3]{0}, f64[3]{0})}, allow_spmd_sharding_propagation_to_parameters={true,true,true,true,true,true,true,true,true,true}, allow_spmd_sharding_propagation_to_output={true,true,true,true,true,true,true,true,true}, frontend_attributes={fingerprint_before_lhs="559ddf96637fedee56ef7bc61f021337"}

FileNames
1 "/tmp/wrf_gpu2_s3z/scripts/m5_run_rrtmg.py"
2 "/tmp/wrf_gpu2_s3z/src/gpuwrf/validation/tier1_rrtmg.py"
3 "/tmp/wrf_gpu2_s3z/src/gpuwrf/physics/rrtmg_lw.py"

FunctionNames
1 "<module>"
2 "main"
3 "run_tier1_lw"
4 "solve_rrtmg_lw_column"
5 "_longwave_impl"
6 "_lw_solver_state"
7 "_rrtmg_column_amounts"
8 "_nearest_pressure_coefficients"
9 "_lw_diffusivity"
10 "_source_recurrence_down"
11 "_source_recurrence_up"
12 "_lw_planck_state"
13 "_interp_lw_planck"
14 "_lw_tfn_factor"
15 "_clip_state"
16 "_pressure_interfaces"
17 "_pressure_layer_mass"
18 "_temperature_interfaces"

FileLocations
1 {file_name_id=1 function_name_id=1 line=183 end_line=183 column=21 end_column=27}
2 {file_name_id=1 function_name_id=2 line=164 end_line=164 column=15 end_column=29}
3 {file_name_id=2 function_name_id=3 line=149 end_line=149 column=13 end_column=54}
4 {file_name_id=3 function_name_id=4 line=400 end_line=400 column=11 end_column=47}
5 {file_name_id=3 function_name_id=5 line=343 end_line=343 column=62 end_column=93}
6 {file_name_id=3 function_name_id=6 line=307 end_line=307 column=24 end_column=74}
7 {file_name_id=3 function_name_id=7 line=210 end_line=210 column=12 end_column=55}
8 {file_name_id=3 function_name_id=6 line=311 end_line=311 column=16 end_column=61}
9 {file_name_id=3 function_name_id=8 line=190 end_line=190 column=10 end_column=70}
10 {file_name_id=3 function_name_id=6 line=316 end_line=316 column=79 end_column=108}
11 {file_name_id=3 function_name_id=6 line=317 end_line=317 column=10 end_column=20}
12 {file_name_id=3 function_name_id=6 line=315 end_line=315 column=14 end_column=36}
13 {file_name_id=3 function_name_id=9 line=221 end_line=221 column=14 end_column=54}
14 {file_name_id=3 function_name_id=9 line=221 end_line=221 column=19 end_column=54}
15 {file_name_id=3 function_name_id=9 line=221 end_line=221 column=32 end_column=53}
16 {file_name_id=3 function_name_id=5 line=348 end_line=348 column=18 end_column=126}
17 {file_name_id=3 function_name_id=6 line=325 end_line=325 column=16 end_column=44}
18 {file_name_id=3 function_name_id=5 line=350 end_line=350 column=28 end_column=96}
19 {file_name_id=3 function_name_id=8 line=190 end_line=190 column=29 end_column=59}
20 {file_name_id=3 function_name_id=5 line=372 end_line=372 column=17 end_column=35}
21 {file_name_id=3 function_name_id=5 line=373 end_line=373 column=15 end_column=31}
22 {file_name_id=3 function_name_id=5 line=374 end_line=374 column=21 end_column=38}
23 {file_name_id=3 function_name_id=5 line=375 end_line=375 column=19 end_column=34}
24 {file_name_id=3 function_name_id=5 line=356 end_line=356 column=20 end_column=51}
25 {file_name_id=3 function_name_id=5 line=357 end_line=357 column=22 end_column=55}
26 {file_name_id=3 function_name_id=5 line=352 end_line=352 column=16 end_column=59}
27 {file_name_id=3 function_name_id=10 line=272 end_line=272 column=11 end_column=49}
28 {file_name_id=3 function_name_id=5 line=349 end_line=349 column=16 end_column=124}
29 {file_name_id=3 function_name_id=6 line=318 end_line=318 column=19 end_column=52}
30 {file_name_id=3 function_name_id=5 line=354 end_line=354 column=14 end_column=98}
31 {file_name_id=3 function_name_id=11 line=282 end_line=282 column=14 end_column=51}
32 {file_name_id=3 function_name_id=6 line=321 end_line=321 column=35 end_column=136}
33 {file_name_id=3 function_name_id=12 line=241 end_line=241 column=15 end_column=49}
34 {file_name_id=3 function_name_id=13 line=234 end_line=234 column=11 end_column=47}
35 {file_name_id=3 function_name_id=12 line=240 end_line=240 column=15 end_column=49}
36 {file_name_id=3 function_name_id=9 line=223 end_line=223 column=11 end_column=67}
37 {file_name_id=3 function_name_id=7 line=201 end_line=201 column=13 end_column=37}
38 {file_name_id=3 function_name_id=5 line=361 end_line=361 column=23 end_column=66}
39 {file_name_id=3 function_name_id=7 line=210 end_line=210 column=58 end_column=139}
40 {file_name_id=3 function_name_id=7 line=209 end_line=209 column=21 end_column=45}
41 {file_name_id=3 function_name_id=7 line=210 end_line=210 column=20 end_column=36}
42 {file_name_id=3 function_name_id=5 line=376 end_line=376 column=27 end_column=62}
43 {file_name_id=3 function_name_id=10 line=270 end_line=270 column=14 end_column=128}
44 {file_name_id=3 function_name_id=10 line=270 end_line=270 column=54 end_column=86}
45 {file_name_id=3 function_name_id=10 line=270 end_line=270 column=20 end_column=51}
46 {file_name_id=3 function_name_id=10 line=270 end_line=270 column=90 end_column=127}
47 {file_name_id=3 function_name_id=10 line=267 end_line=267 column=10 end_column=47}
48 {file_name_id=3 function_name_id=11 line=282 end_line=282 column=54 end_column=86}
49 {file_name_id=3 function_name_id=6 line=326 end_line=326 column=12 end_column=50}
50 {file_name_id=3 function_name_id=5 line=349 end_line=349 column=17 end_column=52}
51 {file_name_id=3 function_name_id=5 line=348 end_line=348 column=19 end_column=54}
52 {file_name_id=3 function_name_id=5 line=349 end_line=349 column=55 end_column=90}
53 {file_name_id=3 function_name_id=6 line=322 end_line=322 column=15 end_column=35}
54 {file_name_id=3 function_name_id=5 line=348 end_line=348 column=57 end_column=92}
55 {file_name_id=3 function_name_id=6 line=323 end_line=323 column=15 end_column=36}
56 {file_name_id=3 function_name_id=5 line=347 end_line=347 column=11 end_column=86}
57 {file_name_id=3 function_name_id=14 line=260 end_line=260 column=11 end_column=58}
58 {file_name_id=3 function_name_id=14 line=255 end_line=259 column=19 end_column=5}
59 {file_name_id=3 function_name_id=14 line=258 end_line=258 column=8 end_column=111}
60 {file_name_id=3 function_name_id=14 line=258 end_line=258 column=14 end_column=111}
61 {file_name_id=3 function_name_id=14 line=258 end_line=258 column=21 end_column=110}
62 {file_name_id=3 function_name_id=14 line=258 end_line=258 column=63 end_column=109}
63 {file_name_id=3 function_name_id=14 line=258 end_line=258 column=73 end_column=109}
64 {file_name_id=3 function_name_id=14 line=258 end_line=258 column=85 end_column=98}
65 {file_name_id=3 function_name_id=14 line=254 end_line=254 column=14 end_column=56}
66 {file_name_id=3 function_name_id=14 line=254 end_line=254 column=26 end_column=43}
67 {file_name_id=3 function_name_id=14 line=254 end_line=254 column=34 end_column=42}
68 {file_name_id=3 function_name_id=14 line=258 end_line=258 column=22 end_column=58}
69 {file_name_id=3 function_name_id=14 line=258 end_line=258 column=28 end_column=58}
70 {file_name_id=3 function_name_id=14 line=257 end_line=257 column=8 end_column=21}
71 {file_name_id=3 function_name_id=14 line=256 end_line=256 column=8 end_column=22}
72 {file_name_id=3 function_name_id=14 line=253 end_line=253 column=14 end_column=98}
73 {file_name_id=3 function_name_id=14 line=253 end_line=253 column=48 end_column=62}
74 {file_name_id=3 function_name_id=14 line=253 end_line=253 column=65 end_column=97}
75 {file_name_id=3 function_name_id=14 line=253 end_line=253 column=77 end_column=86}
76 {file_name_id=3 function_name_id=14 line=252 end_line=252 column=10 end_column=33}
77 {file_name_id=3 function_name_id=6 line=320 end_line=320 column=12 end_column=45}
78 {file_name_id=3 function_name_id=14 line=253 end_line=253 column=24 end_column=38}
79 {file_name_id=3 function_name_id=14 line=251 end_line=251 column=10 end_column=76}
80 {file_name_id=3 function_name_id=14 line=251 end_line=251 column=19 end_column=63}
81 {file_name_id=3 function_name_id=14 line=251 end_line=251 column=20 end_column=44}
82 {file_name_id=3 function_name_id=14 line=250 end_line=250 column=13 end_column=35}
83 {file_name_id=3 function_name_id=14 line=250 end_line=250 column=20 end_column=34}
84 {file_name_id=3 function_name_id=8 line=191 end_line=191 column=15 end_column=71}
85 {file_name_id=3 function_name_id=14 line=260 end_line=260 column=34 end_column=43}
86 {file_name_id=3 function_name_id=14 line=260 end_line=260 column=21 end_column=32}
87 {file_name_id=3 function_name_id=14 line=249 end_line=249 column=10 end_column=34}
88 {file_name_id=3 function_name_id=6 line=319 end_line=319 column=12 end_column=98}
89 {file_name_id=3 function_name_id=6 line=319 end_line=319 column=20 end_column=97}
90 {file_name_id=3 function_name_id=6 line=319 end_line=319 column=21 end_column=97}
91 {file_name_id=3 function_name_id=6 line=316 end_line=316 column=10 end_column=147}
92 {file_name_id=3 function_name_id=6 line=319 end_line=319 column=33 end_column=77}
93 {file_name_id=3 function_name_id=6 line=316 end_line=316 column=19 end_column=46}
94 {file_name_id=3 function_name_id=6 line=316 end_line=316 column=49 end_column=76}
95 {file_name_id=3 function_name_id=7 line=208 end_line=208 column=15 end_column=37}
96 {file_name_id=3 function_name_id=7 line=208 end_line=208 column=87 end_column=101}
97 {file_name_id=3 function_name_id=7 line=208 end_line=208 column=71 end_column=84}
98 {file_name_id=3 function_name_id=7 line=208 end_line=208 column=55 end_column=68}
99 {file_name_id=3 function_name_id=7 line=208 end_line=208 column=40 end_column=52}
100 {file_name_id=3 function_name_id=7 line=208 end_line=208 column=24 end_column=37}
101 {file_name_id=3 function_name_id=7 line=202 end_line=202 column=13 end_column=29}
102 {file_name_id=3 function_name_id=7 line=198 end_line=198 column=13 end_column=52}
103 {file_name_id=3 function_name_id=6 line=308 end_line=308 column=19 end_column=71}
104 {file_name_id=3 function_name_id=6 line=304 end_line=304 column=16 end_column=112}
105 {file_name_id=3 function_name_id=6 line=290 end_line=290 column=12 end_column=30}
106 {file_name_id=3 function_name_id=15 line=148 end_line=148 column=23 end_column=63}
107 {file_name_id=3 function_name_id=6 line=306 end_line=306 column=21 end_column=122}
108 {file_name_id=3 function_name_id=6 line=306 end_line=306 column=33 end_column=105}
109 {file_name_id=3 function_name_id=6 line=308 end_line=308 column=20 end_column=35}
110 {file_name_id=3 function_name_id=6 line=303 end_line=303 column=13 end_column=85}
111 {file_name_id=3 function_name_id=15 line=147 end_line=147 column=11 end_column=37}
112 {file_name_id=3 function_name_id=6 line=302 end_line=302 column=13 end_column=85}
113 {file_name_id=3 function_name_id=15 line=146 end_line=146 column=11 end_column=37}
114 {file_name_id=3 function_name_id=6 line=301 end_line=301 column=13 end_column=85}
115 {file_name_id=3 function_name_id=15 line=145 end_line=145 column=11 end_column=37}
116 {file_name_id=3 function_name_id=6 line=300 end_line=300 column=13 end_column=85}
117 {file_name_id=3 function_name_id=15 line=144 end_line=144 column=11 end_column=37}
118 {file_name_id=3 function_name_id=6 line=299 end_line=299 column=13 end_column=69}
119 {file_name_id=3 function_name_id=6 line=299 end_line=299 column=40 end_column=58}
120 {file_name_id=3 function_name_id=15 line=143 end_line=143 column=11 end_column=37}
121 {file_name_id=3 function_name_id=7 line=200 end_line=200 column=25 end_column=85}
122 {file_name_id=3 function_name_id=6 line=294 end_line=294 column=26 end_column=110}
123 {file_name_id=3 function_name_id=6 line=292 end_line=292 column=26 end_column=55}
124 {file_name_id=3 function_name_id=16 line=165 end_line=165 column=11 end_column=58}
125 {file_name_id=3 function_name_id=6 line=305 end_line=305 column=17 end_column=46}
126 {file_name_id=3 function_name_id=17 line=181 end_line=181 column=17 end_column=40}
127 {file_name_id=3 function_name_id=16 line=164 end_line=164 column=10 end_column=67}
128 {file_name_id=3 function_name_id=16 line=164 end_line=164 column=29 end_column=40}
129 {file_name_id=3 function_name_id=16 line=164 end_line=164 column=43 end_column=66}
130 {file_name_id=3 function_name_id=16 line=163 end_line=163 column=13 end_column=55}
131 {file_name_id=3 function_name_id=16 line=163 end_line=163 column=31 end_column=41}
132 {file_name_id=3 function_name_id=16 line=162 end_line=162 column=13 end_column=45}
133 {file_name_id=3 function_name_id=16 line=162 end_line=162 column=20 end_column=31}
134 {file_name_id=3 function_name_id=16 line=162 end_line=162 column=34 end_column=44}
135 {file_name_id=3 function_name_id=16 line=161 end_line=161 column=13 end_column=23}
136 {file_name_id=3 function_name_id=16 line=161 end_line=161 column=26 end_column=52}
137 {file_name_id=3 function_name_id=16 line=160 end_line=160 column=16 end_column=56}
138 {file_name_id=3 function_name_id=16 line=160 end_line=160 column=34 end_column=43}
139 {file_name_id=3 function_name_id=16 line=160 end_line=160 column=46 end_column=55}
140 {file_name_id=3 function_name_id=15 line=142 end_line=142 column=10 end_column=35}
141 {file_name_id=3 function_name_id=8 line=190 end_line=190 column=21 end_column=60}
142 {file_name_id=3 function_name_id=8 line=189 end_line=189 column=16 end_column=50}
143 {file_name_id=3 function_name_id=8 line=189 end_line=189 column=24 end_column=49}
144 {file_name_id=3 function_name_id=6 line=295 end_line=295 column=12 end_column=61}
145 {file_name_id=3 function_name_id=6 line=293 end_line=293 column=19 end_column=54}
146 {file_name_id=3 function_name_id=5 line=354 end_line=354 column=54 end_column=97}
147 {file_name_id=3 function_name_id=5 line=353 end_line=353 column=26 end_column=101}
148 {file_name_id=3 function_name_id=5 line=353 end_line=353 column=27 end_column=74}
149 {file_name_id=3 function_name_id=12 line=242 end_line=242 column=15 end_column=51}
150 {file_name_id=3 function_name_id=15 line=150 end_line=150 column=27 end_column=71}
151 {file_name_id=3 function_name_id=13 line=234 end_line=234 column=17 end_column=32}
152 {file_name_id=3 function_name_id=13 line=234 end_line=234 column=36 end_column=46}
153 {file_name_id=3 function_name_id=13 line=233 end_line=233 column=11 end_column=51}
154 {file_name_id=3 function_name_id=13 line=232 end_line=232 column=10 end_column=54}
155 {file_name_id=3 function_name_id=13 line=231 end_line=231 column=11 end_column=26}
156 {file_name_id=3 function_name_id=13 line=231 end_line=231 column=29 end_column=52}
157 {file_name_id=3 function_name_id=13 line=232 end_line=232 column=38 end_column=45}
158 {file_name_id=3 function_name_id=13 line=230 end_line=230 column=10 end_column=63}
159 {file_name_id=3 function_name_id=13 line=230 end_line=230 column=19 end_column=54}
160 {file_name_id=3 function_name_id=13 line=230 end_line=230 column=20 end_column=35}
161 {file_name_id=3 function_name_id=13 line=229 end_line=229 column=14 end_column=44}
162 {file_name_id=3 function_name_id=15 line=149 end_line=149 column=28 end_column=73}
163 {file_name_id=3 function_name_id=6 line=298 end_line=298 column=22 end_column=84}
164 {file_name_id=3 function_name_id=6 line=296 end_line=296 column=38 end_column=55}
165 {file_name_id=3 function_name_id=6 line=297 end_line=297 column=18 end_column=50}
166 {file_name_id=3 function_name_id=18 line=172 end_line=172 column=13 end_column=45}
167 {file_name_id=3 function_name_id=18 line=172 end_line=172 column=20 end_column=31}
168 {file_name_id=3 function_name_id=18 line=172 end_line=172 column=34 end_column=44}
169 {file_name_id=3 function_name_id=18 line=171 end_line=171 column=13 end_column=23}
170 {file_name_id=3 function_name_id=15 line=141 end_line=141 column=10 end_column=37}
171 {file_name_id=3 function_name_id=6 line=296 end_line=296 column=12 end_column=66}
172 {file_name_id=3 function_name_id=9 line=223 end_line=223 column=31 end_column=60}
173 {file_name_id=3 function_name_id=9 line=221 end_line=221 column=24 end_column=54}
174 {file_name_id=3 function_name_id=7 line=211 end_line=211 column=12 end_column=84}
175 {file_name_id=3 function_name_id=7 line=211 end_line=211 column=21 end_column=63}
176 {file_name_id=3 function_name_id=7 line=200 end_line=200 column=12 end_column=102}
177 {file_name_id=3 function_name_id=7 line=200 end_line=200 column=24 end_column=93}
178 {file_name_id=3 function_name_id=7 line=201 end_line=201 column=41 end_column=62}
179 {file_name_id=3 function_name_id=7 line=201 end_line=201 column=66 end_column=78}
180 {file_name_id=3 function_name_id=7 line=199 end_line=199 column=10 end_column=51}
181 {file_name_id=3 function_name_id=7 line=199 end_line=199 column=11 end_column=23}
182 {file_name_id=3 function_name_id=7 line=199 end_line=199 column=54 end_column=70}
183 {file_name_id=3 function_name_id=5 line=361 end_line=361 column=69 end_column=97}
184 {file_name_id=3 function_name_id=7 line=210 end_line=210 column=70 end_column=129}
185 {file_name_id=3 function_name_id=7 line=210 end_line=210 column=97 end_column=129}
186 {file_name_id=3 function_name_id=7 line=209 end_line=209 column=30 end_column=45}
187 {file_name_id=3 function_name_id=5 line=359 end_line=359 column=24 end_column=62}
188 {file_name_id=3 function_name_id=5 line=359 end_line=359 column=65 end_column=96}
189 {file_name_id=3 function_name_id=5 line=358 end_line=358 column=15 end_column=46}
190 {file_name_id=3 function_name_id=5 line=360 end_line=360 column=19 end_column=60}
191 {file_name_id=3 function_name_id=5 line=360 end_line=360 column=40 end_column=59}
192 {file_name_id=3 function_name_id=17 line=182 end_line=182 column=11 end_column=102}
193 {file_name_id=3 function_name_id=17 line=182 end_line=182 column=23 end_column=85}
194 {file_name_id=3 function_name_id=17 line=182 end_line=182 column=24 end_column=44}

StackFrames
1 {file_location_id=1 parent_frame_id=1}
2 {file_location_id=2 parent_frame_id=2}
3 {file_location_id=3 parent_frame_id=3}
4 {file_location_id=4 parent_frame_id=4}
5 {file_location_id=5 parent_frame_id=5}
6 {file_location_id=6 parent_frame_id=6}
7 {file_location_id=7 parent_frame_id=7}
8 {file_location_id=4 parent_frame_id=1}
9 {file_location_id=5 parent_frame_id=9}
10 {file_location_id=8 parent_frame_id=10}
11 {file_location_id=9 parent_frame_id=11}
12 {file_location_id=4 parent_frame_id=12}
13 {file_location_id=5 parent_frame_id=13}
14 {file_location_id=8 parent_frame_id=14}
15 {file_location_id=9 parent_frame_id=15}
16 {file_location_id=8 parent_frame_id=6}
17 {file_location_id=9 parent_frame_id=17}
18 {file_location_id=4 parent_frame_id=18}
19 {file_location_id=5 parent_frame_id=19}
20 {file_location_id=8 parent_frame_id=20}
21 {file_location_id=9 parent_frame_id=21}
22 {file_location_id=10 parent_frame_id=6}
23 {file_location_id=11 parent_frame_id=6}
24 {file_location_id=12 parent_frame_id=6}
25 {file_location_id=13 parent_frame_id=25}
26 {file_location_id=14 parent_frame_id=25}
27 {file_location_id=15 parent_frame_id=25}
28 {file_location_id=16 parent_frame_id=5}
29 {file_location_id=17 parent_frame_id=6}
30 {file_location_id=18 parent_frame_id=5}
31 {file_location_id=19 parent_frame_id=17}
32 {file_location_id=20 parent_frame_id=5}
33 {file_location_id=21 parent_frame_id=5}
34 {file_location_id=22 parent_frame_id=5}
35 {file_location_id=23 parent_frame_id=5}
36 {file_location_id=24 parent_frame_id=5}
37 {file_location_id=25 parent_frame_id=5}
38 {file_location_id=26 parent_frame_id=5}
39 {file_location_id=27 parent_frame_id=39}
40 {file_location_id=28 parent_frame_id=5}
41 {file_location_id=29 parent_frame_id=6}
42 {file_location_id=30 parent_frame_id=5}
43 {file_location_id=31 parent_frame_id=43}
44 {file_location_id=32 parent_frame_id=6}
45 {file_location_id=33 parent_frame_id=45}
46 {file_location_id=34 parent_frame_id=46}
47 {file_location_id=35 parent_frame_id=45}
48 {file_location_id=34 parent_frame_id=48}
49 {file_location_id=12 parent_frame_id=10}
50 {file_location_id=36 parent_frame_id=50}
51 {file_location_id=37 parent_frame_id=7}
52 {file_location_id=38 parent_frame_id=5}
53 {file_location_id=39 parent_frame_id=7}
54 {file_location_id=40 parent_frame_id=7}
55 {file_location_id=41 parent_frame_id=7}
56 {file_location_id=42 parent_frame_id=5}
57 {file_location_id=43 parent_frame_id=39}
58 {file_location_id=44 parent_frame_id=39}
59 {file_location_id=45 parent_frame_id=39}
60 {file_location_id=46 parent_frame_id=39}
61 {file_location_id=47 parent_frame_id=39}
62 {file_location_id=48 parent_frame_id=43}
63 {file_location_id=49 parent_frame_id=6}
64 {file_location_id=50 parent_frame_id=5}
65 {file_location_id=51 parent_frame_id=5}
66 {file_location_id=52 parent_frame_id=5}
67 {file_location_id=53 parent_frame_id=6}
68 {file_location_id=54 parent_frame_id=5}
69 {file_location_id=55 parent_frame_id=6}
70 {file_location_id=56 parent_frame_id=9}
71 {file_location_id=57 parent_frame_id=71}
72 {file_location_id=58 parent_frame_id=71}
73 {file_location_id=56 parent_frame_id=5}
74 {file_location_id=59 parent_frame_id=74}
75 {file_location_id=60 parent_frame_id=74}
76 {file_location_id=61 parent_frame_id=74}
77 {file_location_id=62 parent_frame_id=74}
78 {file_location_id=63 parent_frame_id=74}
79 {file_location_id=64 parent_frame_id=74}
80 {file_location_id=65 parent_frame_id=74}
81 {file_location_id=66 parent_frame_id=74}
82 {file_location_id=67 parent_frame_id=74}
83 {file_location_id=68 parent_frame_id=74}
84 {file_location_id=69 parent_frame_id=74}
85 {file_location_id=70 parent_frame_id=74}
86 {file_location_id=71 parent_frame_id=74}
87 {file_location_id=72 parent_frame_id=71}
88 {file_location_id=73 parent_frame_id=74}
89 {file_location_id=74 parent_frame_id=74}
90 {file_location_id=75 parent_frame_id=74}
91 {file_location_id=76 parent_frame_id=74}
92 {file_location_id=77 parent_frame_id=10}
93 {file_location_id=78 parent_frame_id=74}
94 {file_location_id=79 parent_frame_id=71}
95 {file_location_id=80 parent_frame_id=74}
96 {file_location_id=81 parent_frame_id=74}
97 {file_location_id=82 parent_frame_id=74}
98 {file_location_id=83 parent_frame_id=74}
99 {file_location_id=84 parent_frame_id=11}
100 {file_location_id=85 parent_frame_id=74}
101 {file_location_id=86 parent_frame_id=74}
102 {file_location_id=87 parent_frame_id=74}
103 {file_location_id=88 parent_frame_id=6}
104 {file_location_id=89 parent_frame_id=6}
105 {file_location_id=90 parent_frame_id=6}
106 {file_location_id=91 parent_frame_id=10}
107 {file_location_id=92 parent_frame_id=6}
108 {file_location_id=93 parent_frame_id=6}
109 {file_location_id=94 parent_frame_id=6}
110 {file_location_id=95 parent_frame_id=7}
111 {file_location_id=96 parent_frame_id=7}
112 {file_location_id=97 parent_frame_id=7}
113 {file_location_id=98 parent_frame_id=7}
114 {file_location_id=99 parent_frame_id=7}
115 {file_location_id=100 parent_frame_id=7}
116 {file_location_id=101 parent_frame_id=7}
117 {file_location_id=102 parent_frame_id=7}
118 {file_location_id=103 parent_frame_id=6}
119 {file_location_id=104 parent_frame_id=6}
120 {file_location_id=105 parent_frame_id=10}
121 {file_location_id=106 parent_frame_id=121}
122 {file_location_id=107 parent_frame_id=6}
123 {file_location_id=108 parent_frame_id=6}
124 {file_location_id=109 parent_frame_id=6}
125 {file_location_id=110 parent_frame_id=6}
126 {file_location_id=105 parent_frame_id=6}
127 {file_location_id=111 parent_frame_id=127}
128 {file_location_id=112 parent_frame_id=6}
129 {file_location_id=113 parent_frame_id=127}
130 {file_location_id=114 parent_frame_id=6}
131 {file_location_id=115 parent_frame_id=127}
132 {file_location_id=116 parent_frame_id=6}
133 {file_location_id=117 parent_frame_id=127}
134 {file_location_id=118 parent_frame_id=6}
135 {file_location_id=119 parent_frame_id=6}
136 {file_location_id=120 parent_frame_id=127}
137 {file_location_id=121 parent_frame_id=7}
138 {file_location_id=122 parent_frame_id=6}
139 {file_location_id=123 parent_frame_id=6}
140 {file_location_id=124 parent_frame_id=140}
141 {file_location_id=125 parent_frame_id=6}
142 {file_location_id=126 parent_frame_id=142}
143 {file_location_id=127 parent_frame_id=143}
144 {file_location_id=128 parent_frame_id=143}
145 {file_location_id=129 parent_frame_id=143}
146 {file_location_id=130 parent_frame_id=143}
147 {file_location_id=131 parent_frame_id=143}
148 {file_location_id=132 parent_frame_id=143}
149 {file_location_id=133 parent_frame_id=143}
150 {file_location_id=134 parent_frame_id=143}
151 {file_location_id=135 parent_frame_id=143}
152 {file_location_id=136 parent_frame_id=143}
153 {file_location_id=137 parent_frame_id=143}
154 {file_location_id=138 parent_frame_id=143}
155 {file_location_id=139 parent_frame_id=143}
156 {file_location_id=140 parent_frame_id=127}
157 {file_location_id=141 parent_frame_id=17}
158 {file_location_id=142 parent_frame_id=17}
159 {file_location_id=143 parent_frame_id=17}
160 {file_location_id=144 parent_frame_id=6}
161 {file_location_id=145 parent_frame_id=6}
162 {file_location_id=146 parent_frame_id=5}
163 {file_location_id=147 parent_frame_id=5}
164 {file_location_id=148 parent_frame_id=5}
165 {file_location_id=149 parent_frame_id=45}
166 {file_location_id=150 parent_frame_id=121}
167 {file_location_id=34 parent_frame_id=166}
168 {file_location_id=151 parent_frame_id=166}
169 {file_location_id=152 parent_frame_id=166}
170 {file_location_id=32 parent_frame_id=10}
171 {file_location_id=149 parent_frame_id=171}
172 {file_location_id=153 parent_frame_id=172}
173 {file_location_id=154 parent_frame_id=172}
174 {file_location_id=35 parent_frame_id=171}
175 {file_location_id=154 parent_frame_id=175}
176 {file_location_id=155 parent_frame_id=166}
177 {file_location_id=156 parent_frame_id=166}
178 {file_location_id=157 parent_frame_id=166}
179 {file_location_id=158 parent_frame_id=172}
180 {file_location_id=159 parent_frame_id=166}
181 {file_location_id=160 parent_frame_id=166}
182 {file_location_id=161 parent_frame_id=172}
183 {file_location_id=162 parent_frame_id=127}
184 {file_location_id=158 parent_frame_id=175}
185 {file_location_id=151 parent_frame_id=46}
186 {file_location_id=152 parent_frame_id=46}
187 {file_location_id=33 parent_frame_id=171}
188 {file_location_id=153 parent_frame_id=188}
189 {file_location_id=154 parent_frame_id=188}
190 {file_location_id=155 parent_frame_id=46}
191 {file_location_id=156 parent_frame_id=46}
192 {file_location_id=157 parent_frame_id=46}
193 {file_location_id=158 parent_frame_id=188}
194 {file_location_id=159 parent_frame_id=46}
195 {file_location_id=160 parent_frame_id=46}
196 {file_location_id=161 parent_frame_id=188}
197 {file_location_id=163 parent_frame_id=6}
198 {file_location_id=164 parent_frame_id=6}
199 {file_location_id=165 parent_frame_id=6}
200 {file_location_id=166 parent_frame_id=200}
201 {file_location_id=167 parent_frame_id=200}
202 {file_location_id=168 parent_frame_id=200}
203 {file_location_id=169 parent_frame_id=200}
204 {file_location_id=170 parent_frame_id=127}
205 {file_location_id=151 parent_frame_id=48}
206 {file_location_id=152 parent_frame_id=48}
207 {file_location_id=153 parent_frame_id=175}
208 {file_location_id=155 parent_frame_id=48}
209 {file_location_id=156 parent_frame_id=48}
210 {file_location_id=157 parent_frame_id=48}
211 {file_location_id=159 parent_frame_id=48}
212 {file_location_id=160 parent_frame_id=48}
213 {file_location_id=161 parent_frame_id=175}
214 {file_location_id=171 parent_frame_id=6}
215 {file_location_id=172 parent_frame_id=50}
216 {file_location_id=173 parent_frame_id=25}
217 {file_location_id=174 parent_frame_id=7}
218 {file_location_id=175 parent_frame_id=7}
219 {file_location_id=176 parent_frame_id=7}
220 {file_location_id=177 parent_frame_id=7}
221 {file_location_id=178 parent_frame_id=7}
222 {file_location_id=179 parent_frame_id=7}
223 {file_location_id=180 parent_frame_id=7}
224 {file_location_id=181 parent_frame_id=7}
225 {file_location_id=182 parent_frame_id=7}
226 {file_location_id=183 parent_frame_id=5}
227 {file_location_id=4 parent_frame_id=227}
228 {file_location_id=183 parent_frame_id=228}
229 {file_location_id=184 parent_frame_id=7}
230 {file_location_id=185 parent_frame_id=7}
231 {file_location_id=186 parent_frame_id=7}
232 {file_location_id=187 parent_frame_id=5}
233 {file_location_id=188 parent_frame_id=5}
234 {file_location_id=189 parent_frame_id=5}
235 {file_location_id=190 parent_frame_id=5}
236 {file_location_id=191 parent_frame_id=5}
237 {file_location_id=192 parent_frame_id=142}
238 {file_location_id=193 parent_frame_id=142}
239 {file_location_id=194 parent_frame_id=142}
240 {file_location_id=124 parent_frame_id=143}


%region_0.3.clone.1 (reduce_sum.6: f64[], reduce_sum.7: f64[]) -> f64[] {
  %reduce_sum.6 = f64[] parameter(0), metadata={op_name="reduce_sum"}
  %reduce_sum.7 = f64[] parameter(1), metadata={op_name="reduce_sum"}
  ROOT %reduce_sum.8.0 = f64[] add(%reduce_sum.6, %reduce_sum.7), metadata={op_name="jit(solve_rrtmg_lw_column)/reduce_sum" stack_frame_id=7}
}

%fused_reduce (param_0.989: f64[3,18,16,16]) -> f64[3,18] {
  %param_0.989 = f64[3,18,16,16]{3,2,1,0} parameter(0)
  %bitcast.961.1 = f64[3,18,256]{2,1,0} bitcast(%param_0.989), metadata={op_name="jit(solve_rrtmg_lw_column)/concatenate" stack_frame_id=39}
  %constant_212_7 = f64[] constant(0)
  ROOT %reduce_sum.54.1 = f64[3,18]{1,0} reduce(%bitcast.961.1, %constant_212_7), dimensions={2}, to_apply=%region_0.3.clone.1, metadata={op_name="jit(solve_rrtmg_lw_column)/reduce_sum" stack_frame_id=37}
}

%fused_slice (param_0.11: f64[18,3]) -> (f64[3,1], f64[3,1]) {
  %param_0.11 = f64[18,3]{0,1} parameter(0)
  %bitcast.958.2 = f64[3,18]{1,0} bitcast(%param_0.11), metadata={op_name="jit(solve_rrtmg_lw_column)/reduce_sum" stack_frame_id=36}
  %slice.269.1 = f64[3,1]{1,0} slice(%bitcast.958.2), slice={[0:3], [17:18]}, metadata={op_name="jit(solve_rrtmg_lw_column)/slice" stack_frame_id=33}
  %slice.271.1.clone.1 = f64[3,1]{1,0} slice(%bitcast.958.2), slice={[0:3], [0:1]}, metadata={op_name="jit(solve_rrtmg_lw_column)/slice" stack_frame_id=35}
  ROOT %tuple.2 = (f64[3,1]{1,0}, f64[3,1]{1,0}) tuple(%slice.269.1, %slice.271.1.clone.1)
}

%region_0.3.clone.2 (reduce_sum.9: f64[], reduce_sum.13: f64[]) -> f64[] {
  %reduce_sum.13 = f64[] parameter(1), metadata={op_name="reduce_sum"}
  %reduce_sum.9 = f64[] parameter(0), metadata={op_name="reduce_sum"}
  ROOT %reduce_sum.14.0 = f64[] add(%reduce_sum.9, %reduce_sum.13), metadata={op_name="jit(solve_rrtmg_lw_column)/reduce_sum" stack_frame_id=7}
}

%fused_concatenate_reduce (param_0.991: f64[17,3,16,16], param_1.1319: f64[17,3,16,16], param_2.917: f64[1,3,16,16], param_3.914: f64[17,3,16,16], param_4.895: f64[3,16,16]) -> (f64[3,18,16,16], f64[18,3]) {
  %param_1.1319 = f64[17,3,16,16]{3,2,1,0} parameter(1)
  %slice.6.21 = f64[1,3,16,16]{3,2,1,0} slice(%param_1.1319), slice={[16:17], [0:3], [0:16], [0:16]}, metadata={op_name="jit(solve_rrtmg_lw_column)/slice" stack_frame_id=59}
  %bitcast.906.9 = f64[3,1,16,16]{3,2,1,0} bitcast(%slice.6.21), metadata={op_name="jit(solve_rrtmg_lw_column)/slice" stack_frame_id=59}
  %constant_212_9 = f64[] constant(0)
  %broadcast.152.10 = f64[3,1,16,16]{3,2,1,0} broadcast(%constant_212_9), dimensions={}, metadata={op_name="jit(solve_rrtmg_lw_column)/broadcast_in_dim" stack_frame_id=61}
  %multiply.59.9 = f64[3,1,16,16]{3,2,1,0} multiply(%bitcast.906.9, %broadcast.152.10), metadata={op_name="jit(solve_rrtmg_lw_column)/mul;jit(solve_rrtmg_lw_column)/broadcast_in_dim"}
  %param_0.991 = f64[17,3,16,16]{3,2,1,0} parameter(0)
  %slice.8.9 = f64[1,3,16,16]{3,2,1,0} slice(%param_0.991), slice={[16:17], [0:3], [0:16], [0:16]}, metadata={op_name="jit(solve_rrtmg_lw_column)/slice" stack_frame_id=58}
  %constant_213_9 = f64[] constant(1)
  %broadcast.178.487 = f64[1,3,16,16]{3,2,1,0} broadcast(%constant_213_9), dimensions={}
  %subtract.9.9 = f64[1,3,16,16]{3,2,1,0} subtract(%broadcast.178.487, %slice.6.21), metadata={op_name="jit(solve_rrtmg_lw_column)/sub" stack_frame_id=60}
  %multiply.71.9 = f64[1,3,16,16]{3,2,1,0} multiply(%slice.8.9, %subtract.9.9), metadata={op_name="jit(solve_rrtmg_lw_column)/mul" stack_frame_id=58}
  %bitcast.907.7 = f64[3,1,16,16]{3,2,1,0} bitcast(%multiply.71.9), metadata={op_name="jit(solve_rrtmg_lw_column)/mul" stack_frame_id=58}
  %add.64.7 = f64[3,1,16,16]{3,2,1,0} add(%multiply.59.9, %bitcast.907.7), metadata={op_name="jit(solve_rrtmg_lw_column)/add" stack_frame_id=57}
  %bitcast.908.5 = f64[1,3,16,16]{3,2,1,0} bitcast(%add.64.7), metadata={op_name="jit(solve_rrtmg_lw_column)/add" stack_frame_id=57}
  %slice.9.17 = f64[1,3,16,16]{3,2,1,0} slice(%param_1.1319), slice={[15:16], [0:3], [0:16], [0:16]}, metadata={op_name="jit(solve_rrtmg_lw_column)/slice" stack_frame_id=59}
  %multiply.72.5 = f64[1,3,16,16]{3,2,1,0} multiply(%bitcast.908.5, %slice.9.17), metadata={op_name="jit(solve_rrtmg_lw_column)/mul" stack_frame_id=57}
  %slice.10.5 = f64[1,3,16,16]{3,2,1,0} slice(%param_0.991), slice={[15:16], [0:3], [0:16], [0:16]}, metadata={op_name="jit(solve_rrtmg_lw_column)/slice" stack_frame_id=58}
  %subtract.10.9 = f64[1,3,16,16]{3,2,1,0} subtract(%broadcast.178.487, %slice.9.17), metadata={op_name="jit(solve_rrtmg_lw_column)/sub" stack_frame_id=60}
  %multiply.73.5 = f64[1,3,16,16]{3,2,1,0} multiply(%slice.10.5, %subtract.10.9), metadata={op_name="jit(solve_rrtmg_lw_column)/mul" stack_frame_id=58}
  %add.65.3 = f64[1,3,16,16]{3,2,1,0} add(%multiply.72.5, %multiply.73.5), metadata={op_name="jit(solve_rrtmg_lw_column)/add" stack_frame_id=57}
  %slice.11.67 = f64[1,3,16,16]{3,2,1,0} slice(%param_1.1319), slice={[14:15], [0:3], [0:16], [0:16]}, metadata={op_name="jit(solve_rrtmg_lw_column)/slice" stack_frame_id=59}
  %multiply.74.63 = f64[1,3,16,16]{3,2,1,0} multiply(%add.65.3, %slice.11.67), metadata={op_name="jit(solve_rrtmg_lw_column)/mul" stack_frame_id=57}
  %slice.12.61 = f64[1,3,16,16]{3,2,1,0} slice(%param_0.991), slice={[14:15], [0:3], [0:16], [0:16]}, metadata={op_name="jit(solve_rrtmg_lw_column)/slice" stack_frame_id=58}
  %subtract.11.7 = f64[1,3,16,16]{3,2,1,0} subtract(%broadcast.178.487, %slice.11.67), metadata={op_name="jit(solve_rrtmg_lw_column)/sub" stack_frame_id=60}
  %multiply.75.61 = f64[1,3,16,16]{3,2,1,0} multiply(%slice.12.61, %subtract.11.7), metadata={op_name="jit(solve_rrtmg_lw_column)/mul" stack_frame_id=58}
  %add.66.61 = f64[1,3,16,16]{3,2,1,0} add(%multiply.74.63, %multiply.75.61), metadata={op_name="jit(solve_rrtmg_lw_column)/add" stack_frame_id=57}
  %slice.13.63 = f64[1,3,16,16]{3,2,1,0} slice(%param_1.1319), slice={[13:14], [0:3], [0:16], [0:16]}, metadata={op_name="jit(solve_rrtmg_lw_column)/slice" stack_frame_id=59}
  %multiply.76.59 = f64[1,3,16,16]{3,2,1,0} multiply(%add.66.61, %slice.13.63), metadata={op_name="jit(solve_rrtmg_lw_column)/mul" stack_frame_id=57}
  %slice.14.57 = f64[1,3,16,16]{3,2,1,0} slice(%param_0.991), slice={[13:14], [0:3], [0:16], [0:16]}, metadata={op_name="jit(solve_rrtmg_lw_column)/slice" stack_frame_id=58}
  %subtract.12.7 = f64[1,3,16,16]{3,2,1,0} subtract(%broadcast.178.487, %slice.13.63), metadata={op_name="jit(solve_rrtmg_lw_column)/sub" stack_frame_id=60}
  %multiply.77.57 = f64[1,3,16,16]{3,2,1,0} multiply(%slice.14.57, %subtract.12.7), metadata={op_name="jit(solve_rrtmg_lw_column)/mul" stack_frame_id=58}
  %add.67.57 = f64[1,3,16,16]{3,2,1,0} add(%multiply.76.59, %multiply.77.57), metadata={op_name="jit(solve_rrtmg_lw_column)/add" stack_frame_id=57}
  %slice.15.59 = f64[1,3,16,16]{3,2,1,0} slice(%param_1.1319), slice={[12:13], [0:3], [0:16], [0:16]}, metadata={op_name="jit(solve_rrtmg_lw_column)/slice" stack_frame_id=59}
  %multiply.78.55 = f64[1,3,16,16]{3,2,1,0} multiply(%add.67.57, %slice.15.59), metadata={op_name="jit(solve_rrtmg_lw_column)/mul" stack_frame_id=57}
  %slice.16.53 = f64[1,3,16,16]{3,2,1,0} slice(%param_0.991), slice={[12:13], [0:3], [0:16], [0:16]}, metadata={op_name="jit(solve_rrtmg_lw_column)/slice" stack_frame_id=58}
  %subtract.13.7 = f64[1,3,16,16]{3,2,1,0} subtract(%broadcast.178.487, %slice.15.59), metadata={op_name="jit(solve_rrtmg_lw_column)/sub" stack_frame_id=60}
  %multiply.79.53 = f64[1,3,16,16]{3,2,1,0} multiply(%slice.16.53, %subtract.13.7), metadata={op_name="jit(solve_rrtmg_lw_column)/mul" stack_frame_id=58}
  %add.68.53 = f64[1,3,16,16]{3,2,1,0} add(%multiply.78.55, %multiply.79.53), metadata={op_name="jit(solve_rrtmg_lw_column)/add" stack_frame_id=57}
  %slice.17.55 = f64[1,3,16,16]{3,2,1,0} slice(%param_1.1319), slice={[11:12], [0:3], [0:16], [0:16]}, metadata={op_name="jit(solve_rrtmg_lw_column)/slice" stack_frame_id=59}
  %multiply.80.51 = f64[1,3,16,16]{3,2,1,0} multiply(%add.68.53, %slice.17.55), metadata={op_name="jit(solve_rrtmg_lw_column)/mul" stack_frame_id=57}
  %slice.18.49 = f64[1,3,16,16]{3,2,1,0} slice(%param_0.991), slice={[11:12], [0:3], [0:16], [0:16]}, metadata={op_name="jit(solve_rrtmg_lw_column)/slice" stack_frame_id=58}
  %subtract.14.7 = f64[1,3,16,16]{3,2,1,0} subtract(%broadcast.178.487, %slice.17.55), metadata={op_name="jit(solve_rrtmg_lw_column)/sub" stack_frame_id=60}
  %multiply.81.49 = f64[1,3,16,16]{3,2,1,0} multiply(%slice.18.49, %subtract.14.7), metadata={op_name="jit(solve_rrtmg_lw_column)/mul" stack_frame_id=58}
  %add.69.49 = f64[1,3,16,16]{3,2,1,0} add(%multiply.80.51, %multiply.81.49), metadata={op_name="jit(solve_rrtmg_lw_column)/add" stack_frame_id=57}
  %slice.19.51 = f64[1,3,16,16]{3,2,1,0} slice(%param_1.1319), slice={[10:11], [0:3], [0:16], [0:16]}, metadata={op_name="jit(solve_rrtmg_lw_column)/slice" stack_frame_id=59}
  %multiply.82.47 = f64[1,3,16,16]{3,2,1,0} multiply(%add.69.49, %slice.19.51), metadata={op_name="jit(solve_rrtmg_lw_column)/mul" stack_frame_id=57}
  %slice.20.45 = f64[1,3,16,16]{3,2,1,0} slice(%param_0.991), slice={[10:11], [0:3], [0:16], [0:16]}, metadata={op_name="jit(solve_rrtmg_lw_column)/slice" stack_frame_id=58}
  %subtract.15.7 = f64[1,3,16,16]{3,2,1,0} subtract(%broadcast.178.487, %slice.19.51), metadata={op_name="jit(solve_rrtmg_lw_column)/sub" stack_frame_id=60}
  %multiply.83.45 = f64[1,3,16,16]{3,2,1,0} multiply(%slice.20.45, %subtract.15.7), metadata={op_name="jit(solve_rrtmg_lw_column)/mul" stack_frame_id=58}
  %add.70.45 = f64[1,3,16,16]{3,2,1,0} add(%multiply.82.47, %multiply.83.45), metadata={op_name="jit(solve_rrtmg_lw_column)/add" stack_frame_id=57}
  %slice.21.47 = f64[1,3,16,16]{3,2,1,0} slice(%param_1.1319), slice={[9:10], [0:3], [0:16], [0:16]}, metadata={op_name="jit(solve_rrtmg_lw_column)/slice" stack_frame_id=59}
  %multiply.84.43 = f64[1,3,16,16]{3,2,1,0} multiply(%add.70.45, %slice.21.47), metadata={op_name="jit(solve_rrtmg_lw_column)/mul" stack_frame_id=57}
  %slice.22.41 = f64[1,3,16,16]{3,2,1,0} slice(%param_0.991), slice={[9:10], [0:3], [0:16], [0:16]}, metadata={op_name="jit(solve_rrtmg_lw_column)/slice" stack_frame_id=58}
  %subtract.16.7 = f64[1,3,16,16]{3,2,1,0} subtract(%broadcast.178.487, %slice.21.47), metadata={op_name="jit(solve_rrtmg_lw_column)/sub" stack_frame_id=60}
  %multiply.85.41 = f64[1,3,16,16]{3,2,1,0} multiply(%slice.22.41, %subtract.16.7), metadata={op_name="jit(solve_rrtmg_lw_column)/mul" stack_frame_id=58}
  %add.71.41 = f64[1,3,16,16]{3,2,1,0} add(%multiply.84.43, %multiply.85.41), metadata={op_name="jit(solve_rrtmg_lw_column)/add" stack_frame_id=57}
  %slice.23.43 = f64[1,3,16,16]{3,2,1,0} slice(%param_1.1319), slice={[8:9], [0:3], [0:16], [0:16]}, metadata={op_name="jit(solve_rrtmg_lw_column)/slice" stack_frame_id=59}
  %multiply.86.39 = f64[1,3,16,16]{3,2,1,0} multiply(%add.71.41, %slice.23.43), metadata={op_name="jit(solve_rrtmg_lw_column)/mul" stack_frame_id=57}
  %slice.24.37 = f64[1,3,16,16]{3,2,1,0} slice(%param_0.991), slice={[8:9], [0:3], [0:16], [0:16]}, metadata={op_name="jit(solve_rrtmg_lw_column)/slice" stack_frame_id=58}
  %subtract.17.7 = f64[1,3,16,16]{3,2,1,0} subtract(%broadcast.178.487, %slice.23.43), metadata={op_name="jit(solve_rrtmg_lw_column)/sub" stack_frame_id=60}
  %multiply.87.37 = f64[1,3,16,16]{3,2,1,0} multiply(%slice.24.37, %subtract.17.7), metadata={op_name="jit(solve_rrtmg_lw_column)/mul" stack_frame_id=58}
  %add.72.37 = f64[1,3,16,16]{3,2,1,0} add(%multiply.86.39, %multiply.87.37), metadata={op_name="jit(solve_rrtmg_lw_column)/add" stack_frame_id=57}
  %slice.25.39 = f64[1,3,16,16]{3,2,1,0} slice(%param_1.1319), slice={[7:8], [0:3], [0:16], [0:16]}, metadata={op_name="jit(solve_rrtmg_lw_column)/slice" stack_frame_id=59}
  %multiply.88.35 = f64[1,3,16,16]{3,2,1,0} multiply(%add.72.37, %slice.25.39), metadata={op_name="jit(solve_rrtmg_lw_column)/mul" stack_frame_id=57}
  %slice.26.33 = f64[1,3,16,16]{3,2,1,0} slice(%param_0.991), slice={[7:8], [0:3], [0:16], [0:16]}, metadata={op_name="jit(solve_rrtmg_lw_column)/slice" stack_frame_id=58}
  %subtract.18.7 = f64[1,3,16,16]{3,2,1,0} subtract(%broadcast.178.487, %slice.25.39), metadata={op_name="jit(solve_rrtmg_lw_column)/sub" stack_frame_id=60}
  %multiply.89.33 = f64[1,3,16,16]{3,2,1,0} multiply(%slice.26.33, %subtract.18.7), metadata={op_name="jit(solve_rrtmg_lw_column)/mul" stack_frame_id=58}
  %add.73.33 = f64[1,3,16,16]{3,2,1,0} add(%multiply.88.35, %multiply.89.33), metadata={op_name="jit(solve_rrtmg_lw_column)/add" stack_frame_id=57}
  %slice.27.35 = f64[1,3,16,16]{3,2,1,0} slice(%param_1.1319), slice={[6:7], [0:3], [0:16], [0:16]}, metadata={op_name="jit(solve_rrtmg_lw_column)/slice" stack_frame_id=59}
  %multiply.90.31 = f64[1,3,16,16]{3,2,1,0} multiply(%add.73.33, %slice.27.35), metadata={op_name="jit(solve_rrtmg_lw_column)/mul" stack_frame_id=57}
  %slice.28.29 = f64[1,3,16,16]{3,2,1,0} slice(%param_0.991), slice={[6:7], [0:3], [0:16], [0:16]}, metadata={op_name="jit(solve_rrtmg_lw_column)/slice" stack_frame_id=58}
  %subtract.19.7 = f64[1,3,16,16]{3,2,1,0} subtract(%broadcast.178.487, %slice.27.35), metadata={op_name="jit(solve_rrtmg_lw_column)/sub" stack_frame_id=60}
  %multiply.91.29 = f64[1,3,16,16]{3,2,1,0} multiply(%slice.28.29, %subtract.19.7), metadata={op_name="jit(solve_rrtmg_lw_column)/mul" stack_frame_id=58}
  %add.74.29 = f64[1,3,16,16]{3,2,1,0} add(%multiply.90.31, %multiply.91.29), metadata={op_name="jit(solve_rrtmg_lw_column)/add" stack_frame_id=57}
  %slice.29.31 = f64[1,3,16,16]{3,2,1,0} slice(%param_1.1319), slice={[5:6], [0:3], [0:16], [0:16]}, metadata={op_name="jit(solve_rrtmg_lw_column)/slice" stack_frame_id=59}
  %multiply.92.27 = f64[1,3,16,16]{3,2,1,0} multiply(%add.74.29, %slice.29.31), metadata={op_name="jit(solve_rrtmg_lw_column)/mul" stack_frame_id=57}
  %slice.30.25 = f64[1,3,16,16]{3,2,1,0} slice(%param_0.991), slice={[5:6], [0:3], [0:16], [0:16]}, metadata={op_name="jit(solve_rrtmg_lw_column)/slice" stack_frame_id=58}
  %subtract.20.7 = f64[1,3,16,16]{3,2,1,0} subtract(%broadcast.178.487, %slice.29.31), metadata={op_name="jit(solve_rrtmg_lw_column)/sub" stack_frame_id=60}
  %multiply.93.25 = f64[1,3,16,16]{3,2,1,0} multiply(%slice.30.25, %subtract.20.7), metadata={op_name="jit(solve_rrtmg_lw_column)/mul" stack_frame_id=58}
  %add.75.25 = f64[1,3,16,16]{3,2,1,0} add(%multiply.92.27, %multiply.93.25), metadata={op_name="jit(solve_rrtmg_lw_column)/add" stack_frame_id=57}
  %slice.31.27 = f64[1,3,16,16]{3,2,1,0} slice(%param_1.1319), slice={[4:5], [0:3], [0:16], [0:16]}, metadata={op_name="jit(solve_rrtmg_lw_column)/slice" stack_frame_id=59}
  %multiply.94.23 = f64[1,3,16,16]{3,2,1,0} multiply(%add.75.25, %slice.31.27), metadata={op_name="jit(solve_rrtmg_lw_column)/mul" stack_frame_id=57}
  %slice.32.21 = f64[1,3,16,16]{3,2,1,0} slice(%param_0.991), slice={[4:5], [0:3], [0:16], [0:16]}, metadata={op_name="jit(solve_rrtmg_lw_column)/slice" stack_frame_id=58}
  %subtract.21.7 = f64[1,3,16,16]{3,2,1,0} subtract(%broadcast.178.487, %slice.31.27), metadata={op_name="jit(solve_rrtmg_lw_column)/sub" stack_frame_id=60}
  %multiply.95.21 = f64[1,3,16,16]{3,2,1,0} multiply(%slice.32.21, %subtract.21.7), metadata={op_name="jit(solve_rrtmg_lw_column)/mul" stack_frame_id=58}
  %add.76.21 = f64[1,3,16,16]{3,2,1,0} add(%multiply.94.23, %multiply.95.21), metadata={op_name="jit(solve_rrtmg_lw_column)/add" stack_frame_id=57}
  %slice.33.23 = f64[1,3,16,16]{3,2,1,0} slice(%param_1.1319), slice={[3:4], [0:3], [0:16], [0:16]}, metadata={op_name="jit(solve_rrtmg_lw_column)/slice" stack_frame_id=59}
  %multiply.96.19 = f64[1,3,16,16]{3,2,1,0} multiply(%add.76.21, %slice.33.23), metadata={op_name="jit(solve_rrtmg_lw_column)/mul" stack_frame_id=57}
  %slice.34.17 = f64[1,3,16,16]{3,2,1,0} slice(%param_0.991), slice={[3:4], [0:3], [0:16], [0:16]}, metadata={op_name="jit(solve_rrtmg_lw_column)/slice" stack_frame_id=58}
  %subtract.22.7 = f64[1,3,16,16]{3,2,1,0} subtract(%broadcast.178.487, %slice.33.23), metadata={op_name="jit(solve_rrtmg_lw_column)/sub" stack_frame_id=60}
  %multiply.97.17 = f64[1,3,16,16]{3,2,1,0} multiply(%slice.34.17, %subtract.22.7), metadata={op_name="jit(solve_rrtmg_lw_column)/mul" stack_frame_id=58}
  %add.77.17 = f64[1,3,16,16]{3,2,1,0} add(%multiply.96.19, %multiply.97.17), metadata={op_name="jit(solve_rrtmg_lw_column)/add" stack_frame_id=57}
  %slice.35.19 = f64[1,3,16,16]{3,2,1,0} slice(%param_1.1319), slice={[2:3], [0:3], [0:16], [0:16]}, metadata={op_name="jit(solve_rrtmg_lw_column)/slice" stack_frame_id=59}
  %multiply.98.15 = f64[1,3,16,16]{3,2,1,0} multiply(%add.77.17, %slice.35.19), metadata={op_name="jit(solve_rrtmg_lw_column)/mul" stack_frame_id=57}
  %slice.36.13 = f64[1,3,16,16]{3,2,1,0} slice(%param_0.991), slice={[2:3], [0:3], [0:16], [0:16]}, metadata={op_name="jit(solve_rrtmg_lw_column)/slice" stack_frame_id=58}
  %subtract.23.7 = f64[1,3,16,16]{3,2,1,0} subtract(%broadcast.178.487, %slice.35.19), metadata={op_name="jit(solve_rrtmg_lw_column)/sub" stack_frame_id=60}
  %multiply.99.13 = f64[1,3,16,16]{3,2,1,0} multiply(%slice.36.13, %subtract.23.7), metadata={op_name="jit(solve_rrtmg_lw_column)/mul" stack_frame_id=58}
  %add.78.13 = f64[1,3,16,16]{3,2,1,0} add(%multiply.98.15, %multiply.99.13), metadata={op_name="jit(solve_rrtmg_lw_column)/add" stack_frame_id=57}
  %slice.37.15 = f64[1,3,16,16]{3,2,1,0} slice(%param_1.1319), slice={[1:2], [0:3], [0:16], [0:16]}, metadata={op_name="jit(solve_rrtmg_lw_column)/slice" stack_frame_id=59}
  %multiply.100.11 = f64[1,3,16,16]{3,2,1,0} multiply(%add.78.13, %slice.37.15), metadata={op_name="jit(solve_rrtmg_lw_column)/mul" stack_frame_id=57}
  %slice.38.9 = f64[1,3,16,16]{3,2,1,0} slice(%param_0.991), slice={[1:2], [0:3], [0:16], [0:16]}, metadata={op_name="jit(solve_rrtmg_lw_column)/slice" stack_frame_id=58}
  %subtract.24.7 = f64[1,3,16,16]{3,2,1,0} subtract(%broadcast.178.487, %slice.37.15), metadata={op_name="jit(solve_rrtmg_lw_column)/sub" stack_frame_id=60}
  %multiply.101.9 = f64[1,3,16,16]{3,2,1,0} multiply(%slice.38.9, %subtract.24.7), metadata={op_name="jit(solve_rrtmg_lw_column)/mul" stack_frame_id=58}
  %add.79.9 = f64[1,3,16,16]{3,2,1,0} add(%multiply.100.11, %multiply.101.9), metadata={op_name="jit(solve_rrtmg_lw_column)/add" stack_frame_id=57}
  %slice.39.9 = f64[1,3,16,16]{3,2,1,0} slice(%param_1.1319), slice={[0:1], [0:3], [0:16], [0:16]}, metadata={op_name="jit(solve_rrtmg_lw_column)/slice" stack_frame_id=59}
  %multiply.102.7 = f64[1,3,16,16]{3,2,1,0} multiply(%add.79.9, %slice.39.9), metadata={op_name="jit(solve_rrtmg_lw_column)/mul" stack_frame_id=57}
  %slice.40.5 = f64[1,3,16,16]{3,2,1,0} slice(%param_0.991), slice={[0:1], [0:3], [0:16], [0:16]}, metadata={op_name="jit(solve_rrtmg_lw_column)/slice" stack_frame_id=58}
  %subtract.25.5 = f64[1,3,16,16]{3,2,1,0} subtract(%broadcast.178.487, %slice.39.9), metadata={op_name="jit(solve_rrtmg_lw_column)/sub" stack_frame_id=60}
  %multiply.103.5 = f64[1,3,16,16]{3,2,1,0} multiply(%slice.40.5, %subtract.25.5), metadata={op_name="jit(solve_rrtmg_lw_column)/mul" stack_frame_id=58}
  %add.80.5 = f64[1,3,16,16]{3,2,1,0} add(%multiply.102.7, %multiply.103.5), metadata={op_name="jit(solve_rrtmg_lw_column)/add" stack_frame_id=57}
  %bitcast.826.1 = f64[3,1,16,16]{3,2,1,0} bitcast(%add.80.5), metadata={op_name="jit(solve_rrtmg_lw_column)/add" stack_frame_id=57}
  %bitcast.909.1 = f64[3,1,16,16]{3,2,1,0} bitcast(%add.79.9), metadata={op_name="jit(solve_rrtmg_lw_column)/add" stack_frame_id=57}
  %bitcast.910.1 = f64[3,1,16,16]{3,2,1,0} bitcast(%add.78.13), metadata={op_name="jit(solve_rrtmg_lw_column)/add" stack_frame_id=57}
  %bitcast.911.1 = f64[3,1,16,16]{3,2,1,0} bitcast(%add.77.17), metadata={op_name="jit(solve_rrtmg_lw_column)/add" stack_frame_id=57}
  %bitcast.912.1 = f64[3,1,16,16]{3,2,1,0} bitcast(%add.76.21), metadata={op_name="jit(solve_rrtmg_lw_column)/add" stack_frame_id=57}
  %bitcast.913.1 = f64[3,1,16,16]{3,2,1,0} bitcast(%add.75.25), metadata={op_name="jit(solve_rrtmg_lw_column)/add" stack_frame_id=57}
  %bitcast.914.1 = f64[3,1,16,16]{3,2,1,0} bitcast(%add.74.29), metadata={op_name="jit(solve_rrtmg_lw_column)/add" stack_frame_id=57}
  %bitcast.915.1 = f64[3,1,16,16]{3,2,1,0} bitcast(%add.73.33), metadata={op_name="jit(solve_rrtmg_lw_column)/add" stack_frame_id=57}
  %bitcast.916.1 = f64[3,1,16,16]{3,2,1,0} bitcast(%add.72.37), metadata={op_name="jit(solve_rrtmg_lw_column)/add" stack_frame_id=57}
  %bitcast.917.1 = f64[3,1,16,16]{3,2,1,0} bitcast(%add.71.41), metadata={op_name="jit(solve_rrtmg_lw_column)/add" stack_frame_id=57}
  %bitcast.918.1 = f64[3,1,16,16]{3,2,1,0} bitcast(%add.70.45), metadata={op_name="jit(solve_rrtmg_lw_column)/add" stack_frame_id=57}
  %bitcast.919.1 = f64[3,1,16,16]{3,2,1,0} bitcast(%add.69.49), metadata={op_name="jit(solve_rrtmg_lw_column)/add" stack_frame_id=57}
  %bitcast.920.1 = f64[3,1,16,16]{3,2,1,0} bitcast(%add.68.53), metadata={op_name="jit(solve_rrtmg_lw_column)/add" stack_frame_id=57}
  %bitcast.921.1 = f64[3,1,16,16]{3,2,1,0} bitcast(%add.67.57), metadata={op_name="jit(solve_rrtmg_lw_column)/add" stack_frame_id=57}
  %bitcast.922.1 = f64[3,1,16,16]{3,2,1,0} bitcast(%add.66.61), metadata={op_name="jit(solve_rrtmg_lw_column)/add" stack_frame_id=57}
  %bitcast.923.1 = f64[3,1,16,16]{3,2,1,0} bitcast(%add.65.3), metadata={op_name="jit(solve_rrtmg_lw_column)/add" stack_frame_id=57}
  %concatenate.6.1 = f64[3,18,16,16]{3,2,1,0} concatenate(%bitcast.826.1, %bitcast.909.1, %bitcast.910.1, %bitcast.911.1, %bitcast.912.1, /*index=5*/%bitcast.913.1, %bitcast.914.1, %bitcast.915.1, %bitcast.916.1, %bitcast.917.1, /*index=10*/%bitcast.918.1, %bitcast.919.1, %bitcast.920.1, %bitcast.921.1, %bitcast.922.1, /*index=15*/%bitcast.923.1, %add.64.7, %broadcast.152.10), dimensions={1}, metadata={op_name="jit(solve_rrtmg_lw_column)/concatenate" stack_frame_id=39}
  %param_4.895 = f64[3,16,16]{2,1,0} parameter(4)
  %bitcast.512.4.clone.1 = f64[1,3,16,16]{3,2,1,0} bitcast(%param_4.895)
  %multiply.107.7.clone.1 = f64[1,3,16,16]{3,2,1,0} multiply(%bitcast.512.4.clone.1, %slice.39.9), metadata={op_name="jit(solve_rrtmg_lw_column)/mul" stack_frame_id=43}
  %param_3.914 = f64[17,3,16,16]{3,2,1,0} parameter(3)
  %slice.42.7.clone.1 = f64[1,3,16,16]{3,2,1,0} slice(%param_3.914), slice={[0:1], [0:3], [0:16], [0:16]}, metadata={op_name="jit(solve_rrtmg_lw_column)/slice" stack_frame_id=62}
  %multiply.111.7.clone.1 = f64[1,3,16,16]{3,2,1,0} multiply(%slice.42.7.clone.1, %subtract.25.5), metadata={op_name="jit(solve_rrtmg_lw_column)/mul" stack_frame_id=62}
  %add.83.5.clone.1 = f64[1,3,16,16]{3,2,1,0} add(%multiply.107.7.clone.1, %multiply.111.7.clone.1), metadata={op_name="jit(solve_rrtmg_lw_column)/add" stack_frame_id=43}
  %multiply.112.7.clone.1 = f64[1,3,16,16]{3,2,1,0} multiply(%add.83.5.clone.1, %slice.37.15), metadata={op_name="jit(solve_rrtmg_lw_column)/mul" stack_frame_id=43}
  %slice.43.5.clone.1 = f64[1,3,16,16]{3,2,1,0} slice(%param_3.914), slice={[1:2], [0:3], [0:16], [0:16]}, metadata={op_name="jit(solve_rrtmg_lw_column)/slice" stack_frame_id=62}
  %multiply.113.5.clone.1 = f64[1,3,16,16]{3,2,1,0} multiply(%slice.43.5.clone.1, %subtract.24.7), metadata={op_name="jit(solve_rrtmg_lw_column)/mul" stack_frame_id=62}
  %add.84.5.clone.1 = f64[1,3,16,16]{3,2,1,0} add(%multiply.112.7.clone.1, %multiply.113.5.clone.1), metadata={op_name="jit(solve_rrtmg_lw_column)/add" stack_frame_id=43}
  %multiply.114.7.clone.1 = f64[1,3,16,16]{3,2,1,0} multiply(%add.84.5.clone.1, %slice.35.19), metadata={op_name="jit(solve_rrtmg_lw_column)/mul" stack_frame_id=43}
  %slice.44.5.clone.1 = f64[1,3,16,16]{3,2,1,0} slice(%param_3.914), slice={[2:3], [0:3], [0:16], [0:16]}, metadata={op_name="jit(solve_rrtmg_lw_column)/slice" stack_frame_id=62}
  %multiply.115.5.clone.1 = f64[1,3,16,16]{3,2,1,0} multiply(%slice.44.5.clone.1, %subtract.23.7), metadata={op_name="jit(solve_rrtmg_lw_column)/mul" stack_frame_id=62}
  %add.85.5.clone.1 = f64[1,3,16,16]{3,2,1,0} add(%multiply.114.7.clone.1, %multiply.115.5.clone.1), metadata={op_name="jit(solve_rrtmg_lw_column)/add" stack_frame_id=43}
  %multiply.116.7.clone.1 = f64[1,3,16,16]{3,2,1,0} multiply(%add.85.5.clone.1, %slice.33.23), metadata={op_name="jit(solve_rrtmg_lw_column)/mul" stack_frame_id=43}
  %slice.45.5.clone.1 = f64[1,3,16,16]{3,2,1,0} slice(%param_3.914), slice={[3:4], [0:3], [0:16], [0:16]}, metadata={op_name="jit(solve_rrtmg_lw_column)/slice" stack_frame_id=62}
  %multiply.117.5.clone.1 = f64[1,3,16,16]{3,2,1,0} multiply(%slice.45.5.clone.1, %subtract.22.7), metadata={op_name="jit(solve_rrtmg_lw_column)/mul" stack_frame_id=62}
  %add.86.5.clone.1 = f64[1,3,16,16]{3,2,1,0} add(%multiply.116.7.clone.1, %multiply.117.5.clone.1), metadata={op_name="jit(solve_rrtmg_lw_column)/add" stack_frame_id=43}
  %multiply.118.7.clone.1 = f64[1,3,16,16]{3,2,1,0} multiply(%add.86.5.clone.1, %slice.31.27), metadata={op_name="jit(solve_rrtmg_lw_column)/mul" stack_frame_id=43}
  %slice.46.5.clone.1 = f64[1,3,16,16]{3,2,1,0} slice(%param_3.914), slice={[4:5], [0:3], [0:16], [0:16]}, metadata={op_name="jit(solve_rrtmg_lw_column)/slice" stack_frame_id=62}
  %multiply.119.5.clone.1 = f64[1,3,16,16]{3,2,1,0} multiply(%slice.46.5.clone.1, %subtract.21.7), metadata={op_name="jit(solve_rrtmg_lw_column)/mul" stack_frame_id=62}
  %add.160.5.clone.1 = f64[1,3,16,16]{3,2,1,0} add(%multiply.118.7.clone.1, %multiply.119.5.clone.1), metadata={op_name="jit(solve_rrtmg_lw_column)/add" stack_frame_id=43}
  %multiply.120.7.clone.1 = f64[1,3,16,16]{3,2,1,0} multiply(%add.160.5.clone.1, %slice.29.31), metadata={op_name="jit(solve_rrtmg_lw_column)/mul" stack_frame_id=43}
  %slice.47.5.clone.1 = f64[1,3,16,16]{3,2,1,0} slice(%param_3.914), slice={[5:6], [0:3], [0:16], [0:16]}, metadata={op_name="jit(solve_rrtmg_lw_column)/slice" stack_frame_id=62}
  %multiply.121.5.clone.1 = f64[1,3,16,16]{3,2,1,0} multiply(%slice.47.5.clone.1, %subtract.20.7), metadata={op_name="jit(solve_rrtmg_lw_column)/mul" stack_frame_id=62}
  %add.161.5.clone.1 = f64[1,3,16,16]{3,2,1,0} add(%multiply.120.7.clone.1, %multiply.121.5.clone.1), metadata={op_name="jit(solve_rrtmg_lw_column)/add" stack_frame_id=43}
  %multiply.122.7.clone.1 = f64[1,3,16,16]{3,2,1,0} multiply(%add.161.5.clone.1, %slice.27.35), metadata={op_name="jit(solve_rrtmg_lw_column)/mul" stack_frame_id=43}
  %slice.48.5.clone.1 = f64[1,3,16,16]{3,2,1,0} slice(%param_3.914), slice={[6:7], [0:3], [0:16], [0:16]}, metadata={op_name="jit(solve_rrtmg_lw_column)/slice" stack_frame_id=62}
  %multiply.123.5.clone.1 = f64[1,3,16,16]{3,2,1,0} multiply(%slice.48.5.clone.1, %subtract.19.7), metadata={op_name="jit(solve_rrtmg_lw_column)/mul" stack_frame_id=62}
  %add.162.5.clone.1 = f64[1,3,16,16]{3,2,1,0} add(%multiply.122.7.clone.1, %multiply.123.5.clone.1), metadata={op_name="jit(solve_rrtmg_lw_column)/add" stack_frame_id=43}
  %multiply.124.7.clone.1 = f64[1,3,16,16]{3,2,1,0} multiply(%add.162.5.clone.1, %slice.25.39), metadata={op_name="jit(solve_rrtmg_lw_column)/mul" stack_frame_id=43}
  %slice.49.5.clone.1 = f64[1,3,16,16]{3,2,1,0} slice(%param_3.914), slice={[7:8], [0:3], [0:16], [0:16]}, metadata={op_name="jit(solve_rrtmg_lw_column)/slice" stack_frame_id=62}
  %multiply.125.5.clone.1 = f64[1,3,16,16]{3,2,1,0} multiply(%slice.49.5.clone.1, %subtract.18.7), metadata={op_name="jit(solve_rrtmg_lw_column)/mul" stack_frame_id=62}
  %add.163.5.clone.1 = f64[1,3,16,16]{3,2,1,0} add(%multiply.124.7.clone.1, %multiply.125.5.clone.1), metadata={op_name="jit(solve_rrtmg_lw_column)/add" stack_frame_id=43}
  %multiply.126.7.clone.1 = f64[1,3,16,16]{3,2,1,0} multiply(%add.163.5.clone.1, %slice.23.43), metadata={op_name="jit(solve_rrtmg_lw_column)/mul" stack_frame_id=43}
  %slice.50.5.clone.1 = f64[1,3,16,16]{3,2,1,0} slice(%param_3.914), slice={[8:9], [0:3], [0:16], [0:16]}, metadata={op_name="jit(solve_rrtmg_lw_column)/slice" stack_frame_id=62}
  %multiply.127.5.clone.1 = f64[1,3,16,16]{3,2,1,0} multiply(%slice.50.5.clone.1, %subtract.17.7), metadata={op_name="jit(solve_rrtmg_lw_column)/mul" stack_frame_id=62}
  %add.164.5.clone.1 = f64[1,3,16,16]{3,2,1,0} add(%multiply.126.7.clone.1, %multiply.127.5.clone.1), metadata={op_name="jit(solve_rrtmg_lw_column)/add" stack_frame_id=43}
  %multiply.128.7.clone.1 = f64[1,3,16,16]{3,2,1,0} multiply(%add.164.5.clone.1, %slice.21.47), metadata={op_name="jit(solve_rrtmg_lw_column)/mul" stack_frame_id=43}
  %slice.51.5.clone.1 = f64[1,3,16,16]{3,2,1,0} slice(%param_3.914), slice={[9:10], [0:3], [0:16], [0:16]}, metadata={op_name="jit(solve_rrtmg_lw_column)/slice" stack_frame_id=62}
  %multiply.129.5.clone.1 = f64[1,3,16,16]{3,2,1,0} multiply(%slice.51.5.clone.1, %subtract.16.7), metadata={op_name="jit(solve_rrtmg_lw_column)/mul" stack_frame_id=62}
  %add.165.5.clone.1 = f64[1,3,16,16]{3,2,1,0} add(%multiply.128.7.clone.1, %multiply.129.5.clone.1), metadata={op_name="jit(solve_rrtmg_lw_column)/add" stack_frame_id=43}
  %multiply.130.7.clone.1 = f64[1,3,16,16]{3,2,1,0} multiply(%add.165.5.clone.1, %slice.19.51), metadata={op_name="jit(solve_rrtmg_lw_column)/mul" stack_frame_id=43}
  %slice.52.5.clone.1 = f64[1,3,16,16]{3,2,1,0} slice(%param_3.914), slice={[10:11], [0:3], [0:16], [0:16]}, metadata={op_name="jit(solve_rrtmg_lw_column)/slice" stack_frame_id=62}
  %multiply.131.5.clone.1 = f64[1,3,16,16]{3,2,1,0} multiply(%slice.52.5.clone.1, %subtract.15.7), metadata={op_name="jit(solve_rrtmg_lw_column)/mul" stack_frame_id=62}
  %add.166.5.clone.1 = f64[1,3,16,16]{3,2,1,0} add(%multiply.130.7.clone.1, %multiply.131.5.clone.1), metadata={op_name="jit(solve_rrtmg_lw_column)/add" stack_frame_id=43}
  %multiply.132.7.clone.1 = f64[1,3,16,16]{3,2,1,0} multiply(%add.166.5.clone.1, %slice.17.55), metadata={op_name="jit(solve_rrtmg_lw_column)/mul" stack_frame_id=43}
  %slice.53.5.clone.1 = f64[1,3,16,16]{3,2,1,0} slice(%param_3.914), slice={[11:12], [0:3], [0:16], [0:16]}, metadata={op_name="jit(solve_rrtmg_lw_column)/slice" stack_frame_id=62}
  %multiply.133.5.clone.1 = f64[1,3,16,16]{3,2,1,0} multiply(%slice.53.5.clone.1, %subtract.14.7), metadata={op_name="jit(solve_rrtmg_lw_column)/mul" stack_frame_id=62}
  %add.167.5.clone.1 = f64[1,3,16,16]{3,2,1,0} add(%multiply.132.7.clone.1, %multiply.133.5.clone.1), metadata={op_name="jit(solve_rrtmg_lw_column)/add" stack_frame_id=43}
  %multiply.134.7.clone.1 = f64[1,3,16,16]{3,2,1,0} multiply(%add.167.5.clone.1, %slice.15.59), metadata={op_name="jit(solve_rrtmg_lw_column)/mul" stack_frame_id=43}
  %slice.54.5.clone.1 = f64[1,3,16,16]{3,2,1,0} slice(%param_3.914), slice={[12:13], [0:3], [0:16], [0:16]}, metadata={op_name="jit(solve_rrtmg_lw_column)/slice" stack_frame_id=62}
  %multiply.135.5.clone.1 = f64[1,3,16,16]{3,2,1,0} multiply(%slice.54.5.clone.1, %subtract.13.7), metadata={op_name="jit(solve_rrtmg_lw_column)/mul" stack_frame_id=62}
  %add.168.5.clone.1 = f64[1,3,16,16]{3,2,1,0} add(%multiply.134.7.clone.1, %multiply.135.5.clone.1), metadata={op_name="jit(solve_rrtmg_lw_column)/add" stack_frame_id=43}
  %multiply.136.7.clone.1 = f64[1,3,16,16]{3,2,1,0} multiply(%add.168.5.clone.1, %slice.13.63), metadata={op_name="jit(solve_rrtmg_lw_column)/mul" stack_frame_id=43}
  %slice.55.5.clone.1 = f64[1,3,16,16]{3,2,1,0} slice(%param_3.914), slice={[13:14], [0:3], [0:16], [0:16]}, metadata={op_name="jit(solve_rrtmg_lw_column)/slice" stack_frame_id=62}
  %multiply.137.5.clone.1 = f64[1,3,16,16]{3,2,1,0} multiply(%slice.55.5.clone.1, %subtract.12.7), metadata={op_name="jit(solve_rrtmg_lw_column)/mul" stack_frame_id=62}
  %add.169.5.clone.1 = f64[1,3,16,16]{3,2,1,0} add(%multiply.136.7.clone.1, %multiply.137.5.clone.1), metadata={op_name="jit(solve_rrtmg_lw_column)/add" stack_frame_id=43}
  %param_2.917 = f64[1,3,16,16]{3,2,1,0} parameter(2)
  %multiply.140.5.clone.1 = f64[1,3,16,16]{3,2,1,0} multiply(%param_2.917, %slice.9.17), metadata={op_name="jit(solve_rrtmg_lw_column)/mul" stack_frame_id=43}
  %slice.57.3.clone.1 = f64[1,3,16,16]{3,2,1,0} slice(%param_3.914), slice={[15:16], [0:3], [0:16], [0:16]}, metadata={op_name="jit(solve_rrtmg_lw_column)/slice" stack_frame_id=62}
  %multiply.141.3.clone.1 = f64[1,3,16,16]{3,2,1,0} multiply(%slice.57.3.clone.1, %subtract.10.9), metadata={op_name="jit(solve_rrtmg_lw_column)/mul" stack_frame_id=62}
  %add.171.3.clone.1 = f64[1,3,16,16]{3,2,1,0} add(%multiply.140.5.clone.1, %multiply.141.3.clone.1), metadata={op_name="jit(solve_rrtmg_lw_column)/add" stack_frame_id=43}
  %multiply.142.5.clone.1 = f64[1,3,16,16]{3,2,1,0} multiply(%add.171.3.clone.1, %slice.6.21), metadata={op_name="jit(solve_rrtmg_lw_column)/mul" stack_frame_id=43}
  %slice.58.3.clone.1 = f64[1,3,16,16]{3,2,1,0} slice(%param_3.914), slice={[16:17], [0:3], [0:16], [0:16]}, metadata={op_name="jit(solve_rrtmg_lw_column)/slice" stack_frame_id=62}
  %multiply.143.3.clone.1 = f64[1,3,16,16]{3,2,1,0} multiply(%slice.58.3.clone.1, %subtract.9.9), metadata={op_name="jit(solve_rrtmg_lw_column)/mul" stack_frame_id=62}
  %add.172.3.clone.1 = f64[1,3,16,16]{3,2,1,0} add(%multiply.142.5.clone.1, %multiply.143.3.clone.1), metadata={op_name="jit(solve_rrtmg_lw_column)/add" stack_frame_id=43}
  %concatenate.7.3.clone.1 = f64[18,3,16,16]{3,2,1,0} concatenate(%bitcast.512.4.clone.1, %add.83.5.clone.1, %add.84.5.clone.1, %add.85.5.clone.1, %add.86.5.clone.1, /*index=5*/%add.160.5.clone.1, %add.161.5.clone.1, %add.162.5.clone.1, %add.163.5.clone.1, %add.164.5.clone.1, /*index=10*/%add.165.5.clone.1, %add.166.5.clone.1, %add.167.5.clone.1, %add.168.5.clone.1, %add.169.5.clone.1, /*index=15*/%param_2.917, %add.171.3.clone.1, %add.172.3.clone.1), dimensions={0}
  %bitcast.962.1.clone.1 = f64[18,3,256]{2,1,0} bitcast(%concatenate.7.3.clone.1)
  %reduce.9.1.clone.1 = f64[18,3]{0,1} reduce(%bitcast.962.1.clone.1, %constant_212_9), dimensions={2}, to_apply=%region_0.3.clone.2
  ROOT %tuple.5 = (f64[3,18,16,16]{3,2,1,0}, f64[18,3]{0,1}) tuple(%concatenate.6.1, %reduce.9.1.clone.1)
}

%fused_multiply_select (param_0.129: f64[16,16], param_1.149: f64[16], param_2.61: f64[17,3,16], param_3.915: f64[18,3,16], param_4.899: f64[17,3,16,16], param_5.733: pred[16,16]) -> (f64[17,3,16,16], f64[17,3,16,16], f64[17,3,16,16]) {
  %param_2.61 = f64[17,3,16]{2,1,0} parameter(2)
  %broadcast.157.8 = f64[17,3,16,16]{3,2,1,0} broadcast(%param_2.61), dimensions={0,1,3}, metadata={op_name="jit(solve_rrtmg_lw_column)/add" stack_frame_id=65}
  %param_3.915 = f64[18,3,16]{2,1,0} parameter(3)
  %slice.41.3 = f64[17,3,16]{2,1,0} slice(%param_3.915), slice={[1:18], [0:3], [0:16]}, metadata={op_name="jit(solve_rrtmg_lw_column)/slice" stack_frame_id=67}
  %subtract.26.3 = f64[17,3,16]{2,1,0} subtract(%slice.41.3, %param_2.61), metadata={op_name="jit(solve_rrtmg_lw_column)/sub" stack_frame_id=67}
  %broadcast.186.1 = f64[17,3,16,16]{3,2,1,0} broadcast(%subtract.26.3), dimensions={0,1,3}, metadata={op_name="jit(solve_rrtmg_lw_column)/mul" stack_frame_id=66}
  %param_4.899 = f64[17,3,16,16]{3,2,1,0} parameter(4)
  %constant_212_4_clone_1 = f64[] constant(0)
  %broadcast.188.25.clone.1 = f64[17,3,16,16]{3,2,1,0} broadcast(%constant_212_4_clone_1), dimensions={}
  %maximum.1.9.clone.1 = f64[17,3,16,16]{3,2,1,0} maximum(%param_4.899, %broadcast.188.25.clone.1), metadata={op_name="jit(solve_rrtmg_lw_column)/max" stack_frame_id=102}
  %constant_152_1_clone_1 = f64[] constant(0.06)
  %broadcast.163.4.clone.1 = f64[17,3,16,16]{3,2,1,0} broadcast(%constant_152_1_clone_1), dimensions={}
  %compare.6.clone.1 = pred[17,3,16,16]{3,2,1,0} compare(%maximum.1.9.clone.1, %broadcast.163.4.clone.1), direction=LE, metadata={op_name="jit(solve_rrtmg_lw_column)/le" stack_frame_id=101}
  %constant_64_1_clone_1 = f64[] constant(0.16666666666666666)
  %broadcast.164.8.clone.1 = f64[17,3,16,16]{3,2,1,0} broadcast(%constant_64_1_clone_1), dimensions={}
  %multiply.62.3.clone.1 = f64[17,3,16,16]{3,2,1,0} multiply(%maximum.1.9.clone.1, %broadcast.164.8.clone.1), metadata={op_name="jit(solve_rrtmg_lw_column)/div" stack_frame_id=100}
  %constant_22_3_clone_1 = s32[] constant(0), metadata={op_name="jit(solve_rrtmg_lw_column)/jit(_take)" stack_frame_id=99}
  %broadcast.165.3.clone.1 = s32[17,3,16,16]{3,2,1,0} broadcast(%constant_22_3_clone_1), dimensions={}, metadata={op_name="jit(solve_rrtmg_lw_column)/jit(clip)/max" stack_frame_id=94}
  %constant_159_1_clone_1 = f64[] constant(3.5971223021582732)
  %broadcast.166.3.clone.1 = f64[17,3,16,16]{3,2,1,0} broadcast(%constant_159_1_clone_1), dimensions={}
  %add.61.11.clone.1 = f64[17,3,16,16]{3,2,1,0} add(%maximum.1.9.clone.1, %broadcast.166.3.clone.1), metadata={op_name="jit(solve_rrtmg_lw_column)/add" stack_frame_id=98}
  %divide.15.clone.1 = f64[17,3,16,16]{3,2,1,0} divide(%maximum.1.9.clone.1, %add.61.11.clone.1), metadata={op_name="jit(solve_rrtmg_lw_column)/div" stack_frame_id=97}
  %constant_158_1_clone_1 = f64[] constant(10000)
  %broadcast.167.3.clone.1 = f64[17,3,16,16]{3,2,1,0} broadcast(%constant_158_1_clone_1), dimensions={}
  %multiply.63.9.clone.1 = f64[17,3,16,16]{3,2,1,0} multiply(%divide.15.clone.1, %broadcast.167.3.clone.1), metadata={op_name="jit(solve_rrtmg_lw_column)/mul" stack_frame_id=96}
  %constant_209_3_clone_1 = f64[] constant(0.5)
  %broadcast.168.3.clone.1 = f64[17,3,16,16]{3,2,1,0} broadcast(%constant_209_3_clone_1), dimensions={}, metadata={op_name="jit(solve_rrtmg_lw_column)/add" stack_frame_id=96}
  %add.62.7.clone.1 = f64[17,3,16,16]{3,2,1,0} add(%multiply.63.9.clone.1, %broadcast.168.3.clone.1), metadata={op_name="jit(solve_rrtmg_lw_column)/add" stack_frame_id=96}
  %convert.7.clone.1 = s32[17,3,16,16]{3,2,1,0} convert(%add.62.7.clone.1), metadata={op_name="jit(solve_rrtmg_lw_column)/convert_element_type" stack_frame_id=95}
  %constant_156_1_clone_1 = s32[] constant(10000)
  %broadcast.169.6.clone.1 = s32[17,3,16,16]{3,2,1,0} broadcast(%constant_156_1_clone_1), dimensions={}, metadata={op_name="jit(solve_rrtmg_lw_column)/jit(clip)/min" stack_frame_id=94}
  %clamp.14.3.clone.1 = s32[17,3,16,16]{3,2,1,0} clamp(%broadcast.165.3.clone.1, %convert.7.clone.1, %broadcast.169.6.clone.1), metadata={op_name="jit(solve_rrtmg_lw_column)/jit(clip)/min" stack_frame_id=94}
  %compare.1.3.clone.1 = pred[17,3,16,16]{3,2,1,0} compare(%clamp.14.3.clone.1, %broadcast.169.6.clone.1), direction=EQ, metadata={op_name="jit(solve_rrtmg_lw_column)/eq" stack_frame_id=93}
  %constant_214_1_clone_1 = f64[] constant(10000000000)
  %broadcast.170.3.clone.1 = f64[17,3,16,16]{3,2,1,0} broadcast(%constant_214_1_clone_1), dimensions={}, metadata={op_name="jit(solve_rrtmg_lw_column)/jit(_where)/broadcast_in_dim" stack_frame_id=87}
  %convert.1.10.clone.1 = f64[17,3,16,16]{3,2,1,0} convert(%clamp.14.3.clone.1), metadata={op_name="jit(solve_rrtmg_lw_column)/convert_element_type" stack_frame_id=91}
  %constant_97_1_clone_1 = f64[] constant(0.00035971223021582735)
  %broadcast.171.3.clone.1 = f64[17,3,16,16]{3,2,1,0} broadcast(%constant_97_1_clone_1), dimensions={}, metadata={op_name="jit(solve_rrtmg_lw_column)/mul" stack_frame_id=88}
  %multiply.64.3.clone.1 = f64[17,3,16,16]{3,2,1,0} multiply(%convert.1.10.clone.1, %broadcast.171.3.clone.1), metadata={op_name="jit(solve_rrtmg_lw_column)/mul" stack_frame_id=88}
  %constant_213_8_clone_1 = f64[] constant(1)
  %broadcast.151.21.clone.1 = f64[17,3,16,16]{3,2,1,0} broadcast(%constant_213_8_clone_1), dimensions={}, metadata={op_name="jit(solve_rrtmg_lw_column)/jit(_where)/broadcast_in_dim" stack_frame_id=92}
  %constant_182_1_clone_1 = f64[] constant(0.0001)
  %broadcast.172.3.clone.1 = f64[17,3,16,16]{3,2,1,0} broadcast(%constant_182_1_clone_1), dimensions={}
  %multiply.65.7.clone.1 = f64[17,3,16,16]{3,2,1,0} multiply(%convert.1.10.clone.1, %broadcast.172.3.clone.1), metadata={op_name="jit(solve_rrtmg_lw_column)/div" stack_frame_id=91}
  %subtract.5.5.clone.1 = f64[17,3,16,16]{3,2,1,0} subtract(%broadcast.151.21.clone.1, %multiply.65.7.clone.1), metadata={op_name="jit(solve_rrtmg_lw_column)/sub" stack_frame_id=90}
  %constant_154_1_clone_1 = f64[] constant(1e-300)
  %broadcast.173.15.clone.1 = f64[17,3,16,16]{3,2,1,0} broadcast(%constant_154_1_clone_1), dimensions={}
  %maximum.2.5.clone.1 = f64[17,3,16,16]{3,2,1,0} maximum(%subtract.5.5.clone.1, %broadcast.173.15.clone.1), metadata={op_name="jit(solve_rrtmg_lw_column)/max" stack_frame_id=89}
  %divide.1.3.clone.1 = f64[17,3,16,16]{3,2,1,0} divide(%multiply.64.3.clone.1, %maximum.2.5.clone.1), metadata={op_name="jit(solve_rrtmg_lw_column)/div" stack_frame_id=88}
  %select.6.3.clone.1 = f64[17,3,16,16]{3,2,1,0} select(%compare.1.3.clone.1, %broadcast.170.3.clone.1, %divide.1.3.clone.1), metadata={op_name="jit(solve_rrtmg_lw_column)/jit(_where)/select_n" stack_frame_id=87}
  %compare.2.3.clone.1 = pred[17,3,16,16]{3,2,1,0} compare(%select.6.3.clone.1, %broadcast.163.4.clone.1), direction=LT, metadata={op_name="jit(solve_rrtmg_lw_column)/lt" stack_frame_id=86}
  %multiply.66.5.clone.1 = f64[17,3,16,16]{3,2,1,0} multiply(%select.6.3.clone.1, %broadcast.164.8.clone.1), metadata={op_name="jit(solve_rrtmg_lw_column)/div" stack_frame_id=85}
  %maximum.3.5.clone.1 = f64[17,3,16,16]{3,2,1,0} maximum(%select.6.3.clone.1, %broadcast.173.15.clone.1), metadata={op_name="jit(solve_rrtmg_lw_column)/max" stack_frame_id=84}
  %divide.2.7.clone.1 = f64[17,3,16,16]{3,2,1,0} divide(%broadcast.151.21.clone.1, %maximum.3.5.clone.1), metadata={op_name="jit(solve_rrtmg_lw_column)/div" stack_frame_id=83}
  %negate.11.3.clone.1 = f64[17,3,16,16]{3,2,1,0} negate(%select.6.3.clone.1), metadata={op_name="jit(solve_rrtmg_lw_column)/neg" stack_frame_id=82}
  %exponential.1.3.clone.1 = f64[17,3,16,16]{3,2,1,0} exponential(%negate.11.3.clone.1), metadata={op_name="jit(solve_rrtmg_lw_column)/exp" stack_frame_id=81}
  %constant_191_2_clone_1 = f64[] constant(1e-20)
  %broadcast.174.3.clone.1 = f64[17,3,16,16]{3,2,1,0} broadcast(%constant_191_2_clone_1), dimensions={}, metadata={op_name="jit(solve_rrtmg_lw_column)/max" stack_frame_id=80}
  %maximum.4.3.clone.1 = f64[17,3,16,16]{3,2,1,0} maximum(%exponential.1.3.clone.1, %broadcast.174.3.clone.1), metadata={op_name="jit(solve_rrtmg_lw_column)/max" stack_frame_id=80}
  %subtract.6.5.clone.1 = f64[17,3,16,16]{3,2,1,0} subtract(%broadcast.151.21.clone.1, %maximum.4.3.clone.1), metadata={op_name="jit(solve_rrtmg_lw_column)/sub" stack_frame_id=79}
  %maximum.5.5.clone.1 = f64[17,3,16,16]{3,2,1,0} maximum(%subtract.6.5.clone.1, %broadcast.173.15.clone.1), metadata={op_name="jit(solve_rrtmg_lw_column)/max" stack_frame_id=78}
  %divide.3.3.clone.1 = f64[17,3,16,16]{3,2,1,0} divide(%maximum.4.3.clone.1, %maximum.5.5.clone.1), metadata={op_name="jit(solve_rrtmg_lw_column)/div" stack_frame_id=77}
  %subtract.7.5.clone.1 = f64[17,3,16,16]{3,2,1,0} subtract(%divide.2.7.clone.1, %divide.3.3.clone.1), metadata={op_name="jit(solve_rrtmg_lw_column)/sub" stack_frame_id=76}
  %constant_150_1_clone_1 = f64[] constant(2)
  %broadcast.175.1.clone.1 = f64[17,3,16,16]{3,2,1,0} broadcast(%constant_150_1_clone_1), dimensions={}, metadata={op_name="jit(solve_rrtmg_lw_column)/mul" stack_frame_id=75}
  %multiply.67.3.clone.1 = f64[17,3,16,16]{3,2,1,0} multiply(%subtract.7.5.clone.1, %broadcast.175.1.clone.1), metadata={op_name="jit(solve_rrtmg_lw_column)/mul" stack_frame_id=75}
  %subtract.8.3.clone.1 = f64[17,3,16,16]{3,2,1,0} subtract(%broadcast.151.21.clone.1, %multiply.67.3.clone.1), metadata={op_name="jit(solve_rrtmg_lw_column)/sub" stack_frame_id=74}
  %select.7.3.clone.1 = f64[17,3,16,16]{3,2,1,0} select(%compare.2.3.clone.1, %multiply.66.5.clone.1, %subtract.8.3.clone.1), metadata={op_name="jit(solve_rrtmg_lw_column)/jit(_where)/select_n" stack_frame_id=72}
  %select.8.1.clone.1 = f64[17,3,16,16]{3,2,1,0} select(%compare.6.clone.1, %multiply.62.3.clone.1, %select.7.3.clone.1), metadata={op_name="jit(solve_rrtmg_lw_column)/jit(_where)/select_n" stack_frame_id=71}
  %multiply.108.1 = f64[17,3,16,16]{3,2,1,0} multiply(%broadcast.186.1, %select.8.1.clone.1), metadata={op_name="jit(solve_rrtmg_lw_column)/mul" stack_frame_id=66}
  %add.82.5 = f64[17,3,16,16]{3,2,1,0} add(%broadcast.157.8, %multiply.108.1), metadata={op_name="jit(solve_rrtmg_lw_column)/add" stack_frame_id=64}
  %param_1.149 = f64[16]{0} parameter(1)
  %broadcast.176.4 = f64[17,3,16,16]{3,2,1,0} broadcast(%param_1.149), dimensions={3}, metadata={op_name="jit(solve_rrtmg_lw_column)/mul" stack_frame_id=28}
  %multiply.109.3 = f64[17,3,16,16]{3,2,1,0} multiply(%add.82.5, %broadcast.176.4), metadata={op_name="jit(solve_rrtmg_lw_column)/mul" stack_frame_id=40}
  %param_0.129 = f64[16,16]{1,0} parameter(0)
  %broadcast.177.1 = f64[17,3,16,16]{3,2,1,0} broadcast(%param_0.129), dimensions={2,3}, metadata={op_name="jit(solve_rrtmg_lw_column)/broadcast_in_dim" stack_frame_id=63}
  %multiply.110.1 = f64[17,3,16,16]{3,2,1,0} multiply(%multiply.109.3, %broadcast.177.1), metadata={op_name="jit(solve_rrtmg_lw_column)/mul" stack_frame_id=40}
  %slice.7.3.clone.1 = f64[17,3,16]{2,1,0} slice(%param_3.915), slice={[0:17], [0:3], [0:16]}, metadata={op_name="jit(solve_rrtmg_lw_column)/slice" stack_frame_id=69}
  %subtract.4.3.clone.1 = f64[17,3,16]{2,1,0} subtract(%slice.7.3.clone.1, %param_2.61), metadata={op_name="jit(solve_rrtmg_lw_column)/sub" stack_frame_id=69}
  %broadcast.162.1.clone.1 = f64[17,3,16,16]{3,2,1,0} broadcast(%subtract.4.3.clone.1), dimensions={0,1,3}, metadata={op_name="jit(solve_rrtmg_lw_column)/mul" stack_frame_id=68}
  %multiply.68.1.clone.1 = f64[17,3,16,16]{3,2,1,0} multiply(%broadcast.162.1.clone.1, %select.8.1.clone.1), metadata={op_name="jit(solve_rrtmg_lw_column)/mul" stack_frame_id=68}
  %add.63.5.clone.1 = f64[17,3,16,16]{3,2,1,0} add(%broadcast.157.8, %multiply.68.1.clone.1), metadata={op_name="jit(solve_rrtmg_lw_column)/add" stack_frame_id=65}
  %multiply.69.3.clone.1 = f64[17,3,16,16]{3,2,1,0} multiply(%add.63.5.clone.1, %broadcast.176.4), metadata={op_name="jit(solve_rrtmg_lw_column)/mul" stack_frame_id=28}
  %multiply.70.1.clone.1 = f64[17,3,16,16]{3,2,1,0} multiply(%multiply.69.3.clone.1, %broadcast.177.1), metadata={op_name="jit(solve_rrtmg_lw_column)/mul" stack_frame_id=28}
  %param_5.733 = pred[16,16]{1,0} parameter(5)
  %broadcast.139.1.clone.1 = pred[17,3,16,16]{3,2,1,0} broadcast(%param_5.733), dimensions={2,3}, metadata={op_name="jit(solve_rrtmg_lw_column)/jit(_where)/broadcast_in_dim" stack_frame_id=92}
  %constant_169_1_clone_1 = f64[] constant(1e-10)
  %broadcast.140.1.clone.1 = f64[17,3,16,16]{3,2,1,0} broadcast(%constant_169_1_clone_1), dimensions={}, metadata={op_name="jit(solve_rrtmg_lw_column)/max" stack_frame_id=107}
  %constant_221_2_clone_1 = f64[] constant(80)
  %broadcast.148.6.clone.1 = f64[17,3,16,16]{3,2,1,0} broadcast(%constant_221_2_clone_1), dimensions={}, metadata={op_name="jit(solve_rrtmg_lw_column)/jit(clip)/min" stack_frame_id=106}
  %clamp.13.5.clone.1 = f64[17,3,16,16]{3,2,1,0} clamp(%broadcast.140.1.clone.1, %param_4.899, %broadcast.148.6.clone.1), metadata={op_name="jit(solve_rrtmg_lw_column)/min" stack_frame_id=105}
  %negate.10.3.clone.1 = f64[17,3,16,16]{3,2,1,0} negate(%clamp.13.5.clone.1), metadata={op_name="jit(solve_rrtmg_lw_column)/neg" stack_frame_id=104}
  %exponential.3.clone.1 = f64[17,3,16,16]{3,2,1,0} exponential(%negate.10.3.clone.1), metadata={op_name="jit(solve_rrtmg_lw_column)/exp" stack_frame_id=103}
  %select.1.1.clone.1 = f64[17,3,16,16]{3,2,1,0} select(%broadcast.139.1.clone.1, %exponential.3.clone.1, %broadcast.151.21.clone.1), metadata={op_name="jit(solve_rrtmg_lw_column)/jit(_where)/select_n" stack_frame_id=92}
  ROOT %tuple.7 = (f64[17,3,16,16]{3,2,1,0}, f64[17,3,16,16]{3,2,1,0}, f64[17,3,16,16]{3,2,1,0}) tuple(%multiply.110.1, %multiply.70.1.clone.1, %select.1.1.clone.1)
}

%fused_transpose (param_0.992: f64[3,16], param_1.1325: f64[16,16], param_2.898: f64[16,59,16], param_3.883: f64[16], param_4.859: s64[3,17], param_5.688: f64[3,17], param_6.538: f64[3,16], param_7.388: f64[3,16], param_8.418: f64[3,16], param_9.417: f64[3,16], param_10.402: f64[3,16], param_11.330: f64[3,16], param_12.284: f64[3,16]) -> f64[17,3,16,16] {
  %constant_212_1 = f64[] constant(0)
  %broadcast.188.17 = f64[17,3,16,16]{3,2,1,0} broadcast(%constant_212_1), dimensions={}
  %param_5.688 = f64[3,17]{1,0} parameter(5)
  %constant_191_1 = f64[] constant(1e-20)
  %broadcast.62.15 = f64[3,17]{1,0} broadcast(%constant_191_1), dimensions={}
  %mul.247.15 = f64[3,17]{1,0} multiply(%param_5.688, %broadcast.62.15), metadata={op_name="jit(solve_rrtmg_lw_column)/mul" stack_frame_id=116}
  %param_11.330 = f64[3,16]{1,0} parameter(11)
  %broadcast.73.44 = f64[3,16]{1,0} broadcast(%constant_212_1), dimensions={}
  %max.80.8 = f64[3,16]{1,0} maximum(%param_11.330, %broadcast.73.44), metadata={op_name="jit(solve_rrtmg_lw_column)/max" stack_frame_id=136}
  %slice.149.5 = f64[3,1]{1,0} slice(%max.80.8), slice={[0:3], [15:16]}, metadata={op_name="jit(solve_rrtmg_lw_column)/slice" stack_frame_id=135}
  %concatenate.19.3 = f64[3,17]{1,0} concatenate(%max.80.8, %slice.149.5), dimensions={1}, metadata={op_name="jit(solve_rrtmg_lw_column)/concatenate" stack_frame_id=134}
  %constant_200_1 = f64[] constant(1.607793)
  %mul.230.11 = f64[3,17]{1,0} broadcast(%constant_200_1), dimensions={}, metadata={op_name="jit(solve_rrtmg_lw_column)/mul" stack_frame_id=117}
  %mul.239.11 = f64[3,17]{1,0} multiply(%concatenate.19.3, %mul.230.11), metadata={op_name="jit(solve_rrtmg_lw_column)/mul" stack_frame_id=117}
  %mul.248.13 = f64[3,17]{1,0} multiply(%mul.247.15, %mul.239.11), metadata={op_name="jit(solve_rrtmg_lw_column)/mul" stack_frame_id=116}
  %constant_232_1 = f64[] constant(1.2941474654186991e-25)
  %broadcast.80.13 = f64[3,17]{1,0} broadcast(%constant_232_1), dimensions={}, metadata={op_name="jit(solve_rrtmg_lw_column)/mul" stack_frame_id=115}
  %mul.259.13 = f64[3,17]{1,0} multiply(%param_5.688, %broadcast.80.13), metadata={op_name="jit(solve_rrtmg_lw_column)/mul" stack_frame_id=115}
  %add.95.11 = f64[3,17]{1,0} add(%mul.248.13, %mul.259.13), metadata={op_name="jit(solve_rrtmg_lw_column)/add" stack_frame_id=110}
  %constant_233_1 = f64[] constant(4.0000000000000003e-29)
  %broadcast.81.11 = f64[3,17]{1,0} broadcast(%constant_233_1), dimensions={}, metadata={op_name="jit(solve_rrtmg_lw_column)/mul" stack_frame_id=114}
  %mul.260.11 = f64[3,17]{1,0} multiply(%param_5.688, %broadcast.81.11), metadata={op_name="jit(solve_rrtmg_lw_column)/mul" stack_frame_id=114}
  %add.96.9 = f64[3,17]{1,0} add(%add.95.11, %mul.260.11), metadata={op_name="jit(solve_rrtmg_lw_column)/add" stack_frame_id=110}
  %constant_234_1 = f64[] constant(6.38e-29)
  %broadcast.82.9 = f64[3,17]{1,0} broadcast(%constant_234_1), dimensions={}, metadata={op_name="jit(solve_rrtmg_lw_column)/mul" stack_frame_id=113}
  %mul.261.9 = f64[3,17]{1,0} multiply(%param_5.688, %broadcast.82.9), metadata={op_name="jit(solve_rrtmg_lw_column)/mul" stack_frame_id=113}
  %add.97.7 = f64[3,17]{1,0} add(%add.96.9, %mul.261.9), metadata={op_name="jit(solve_rrtmg_lw_column)/add" stack_frame_id=110}
  %constant_235_1 = f64[] constant(3.548e-28)
  %broadcast.83.7 = f64[3,17]{1,0} broadcast(%constant_235_1), dimensions={}, metadata={op_name="jit(solve_rrtmg_lw_column)/mul" stack_frame_id=112}
  %mul.262.7 = f64[3,17]{1,0} multiply(%param_5.688, %broadcast.83.7), metadata={op_name="jit(solve_rrtmg_lw_column)/mul" stack_frame_id=112}
  %add.98.5 = f64[3,17]{1,0} add(%add.97.7, %mul.262.7), metadata={op_name="jit(solve_rrtmg_lw_column)/add" stack_frame_id=110}
  %constant_236_1 = f64[] constant(2.09488e-25)
  %broadcast.84.5 = f64[3,17]{1,0} broadcast(%constant_236_1), dimensions={}, metadata={op_name="jit(solve_rrtmg_lw_column)/mul" stack_frame_id=111}
  %mul.263.5 = f64[3,17]{1,0} multiply(%param_5.688, %broadcast.84.5), metadata={op_name="jit(solve_rrtmg_lw_column)/mul" stack_frame_id=111}
  %add.99.3 = f64[3,17]{1,0} add(%add.98.5, %mul.263.5), metadata={op_name="jit(solve_rrtmg_lw_column)/add" stack_frame_id=110}
  %transpose.26.1 = f64[17,3]{1,0} transpose(%add.99.3), dimensions={1,0}, metadata={op_name="jit(solve_rrtmg_lw_column)/add" stack_frame_id=110}
  %broadcast.142.1 = f64[17,3,16,16]{3,2,1,0} broadcast(%transpose.26.1), dimensions={0,1}, metadata={op_name="jit(solve_rrtmg_lw_column)/mul" stack_frame_id=108}
  %param_4.859 = s64[3,17]{1,0} parameter(4)
  %constant_19_2 = s64[] constant(0), metadata={op_name="jit(solve_rrtmg_lw_column)" stack_frame_id=17}
  %lt.9.7 = s64[3,17]{1,0} broadcast(%constant_19_2), dimensions={}, metadata={op_name="jit(solve_rrtmg_lw_column)/jit(_take)/lt" stack_frame_id=99}
  %lt.12.9 = pred[3,17]{1,0} compare(%param_4.859, %lt.9.7), direction=LT, metadata={op_name="jit(solve_rrtmg_lw_column)/jit(_take)/lt" stack_frame_id=99}
  %constant_21_1 = s64[] constant(59), metadata={op_name="jit(solve_rrtmg_lw_column)/jit(_take)" stack_frame_id=99}
  %add.5.7 = s64[3,17]{1,0} broadcast(%constant_21_1), dimensions={}, metadata={op_name="jit(solve_rrtmg_lw_column)/jit(_take)/add" stack_frame_id=99}
  %add.6.9 = s64[3,17]{1,0} add(%param_4.859, %add.5.7), metadata={op_name="jit(solve_rrtmg_lw_column)/jit(_take)/add" stack_frame_id=99}
  %select_n.28.9 = s64[3,17]{1,0} select(%lt.12.9, %add.6.9, %param_4.859), metadata={op_name="jit(solve_rrtmg_lw_column)/jit(_take)/jit(_where)/select_n" stack_frame_id=99}
  %convert_element_type.14.7 = s32[3,17]{1,0} convert(%select_n.28.9), metadata={op_name="jit(solve_rrtmg_lw_column)/jit(_take)/convert_element_type" stack_frame_id=99}
  %constant_22_2 = s32[] constant(0), metadata={op_name="jit(solve_rrtmg_lw_column)/jit(_take)" stack_frame_id=99}
  %broadcast.125.33 = s32[3,17]{1,0} broadcast(%constant_22_2), dimensions={}, metadata={op_name="jit(solve_rrtmg_lw_column)/jit(_take)/ge" stack_frame_id=99}
  %ge.28.5 = pred[3,17]{1,0} compare(%convert_element_type.14.7, %broadcast.125.33), direction=GE, metadata={op_name="jit(solve_rrtmg_lw_column)/jit(_take)/ge" stack_frame_id=99}
  %constant_23_1 = s32[] constant(58), metadata={op_name="jit(solve_rrtmg_lw_column)/jit(_take)" stack_frame_id=99}
  %broadcast.127.5 = s32[3,17]{1,0} broadcast(%constant_23_1), dimensions={}, metadata={op_name="jit(solve_rrtmg_lw_column)/jit(_take)/le" stack_frame_id=99}
  %le.29.5 = pred[3,17]{1,0} compare(%convert_element_type.14.7, %broadcast.127.5), direction=LE, metadata={op_name="jit(solve_rrtmg_lw_column)/jit(_take)/le" stack_frame_id=99}
  %and.19.3 = pred[3,17]{1,0} and(%ge.28.5, %le.29.5), metadata={op_name="jit(solve_rrtmg_lw_column)/jit(_take)/and" stack_frame_id=99}
  %transpose.27.1 = pred[17,3]{1,0} transpose(%and.19.3), dimensions={1,0}, metadata={op_name="jit(solve_rrtmg_lw_column)/jit(_take)/and" stack_frame_id=99}
  %broadcast.143.1 = pred[17,3,16,16]{3,2,1,0} broadcast(%transpose.27.1), dimensions={0,1}, metadata={op_name="jit(solve_rrtmg_lw_column)/jit(_take)/broadcast_in_dim" stack_frame_id=99}
  %param_2.898 = f64[16,59,16]{2,1,0} parameter(2)
  %bitcast.964.5 = s32[51,1]{0,1} bitcast(%convert_element_type.14.7)
  %gather.14.5 = f64[51,16,1,16]{3,2,1,0} gather(%param_2.898, %bitcast.964.5), offset_dims={1,2,3}, collapsed_slice_dims={}, start_index_map={1}, index_vector_dim=1, slice_sizes={16,1,16}, metadata={op_name="jit(solve_rrtmg_lw_column)/jit(_take)/gather" stack_frame_id=99}
  %bitcast.1.5 = f64[3,17,16,16]{3,2,1,0} bitcast(%gather.14.5), metadata={op_name="jit(solve_rrtmg_lw_column)/jit(_take)/gather" stack_frame_id=99}
  %transpose.28.5 = f64[17,3,16,16]{3,2,1,0} transpose(%bitcast.1.5), dimensions={1,0,3,2}, metadata={op_name="jit(solve_rrtmg_lw_column)/jit(_take)/gather" stack_frame_id=99}
  %constant_25_3 = f64[] constant(nan), metadata={op_name="jit(solve_rrtmg_lw_column)/jit(_take)" stack_frame_id=99}
  %broadcast.144.3 = f64[17,3,16,16]{3,2,1,0} broadcast(%constant_25_3), dimensions={}, metadata={op_name="jit(solve_rrtmg_lw_column)/jit(_take)/broadcast_in_dim" stack_frame_id=99}
  %select.14 = f64[17,3,16,16]{3,2,1,0} select(%broadcast.143.1, %transpose.28.5, %broadcast.144.3), metadata={op_name="jit(solve_rrtmg_lw_column)/jit(_take)/select_n" stack_frame_id=99}
  %maximum.17 = f64[17,3,16,16]{3,2,1,0} maximum(%select.14, %broadcast.188.17), metadata={op_name="jit(solve_rrtmg_lw_column)/max" stack_frame_id=109}
  %multiply.55.9 = f64[17,3,16,16]{3,2,1,0} multiply(%broadcast.142.1, %maximum.17), metadata={op_name="jit(solve_rrtmg_lw_column)/mul" stack_frame_id=108}
  %param_10.402 = f64[3,16]{1,0} parameter(10)
  %max.81.13 = f64[3,16]{1,0} maximum(%param_10.402, %broadcast.73.44), metadata={op_name="jit(solve_rrtmg_lw_column)/max" stack_frame_id=133}
  %pad.18 = f64[3,17]{1,0} pad(%max.81.13, %constant_212_1), padding=0_0x0_1, metadata={op_name="jit(solve_rrtmg_lw_column)/concatenate" stack_frame_id=132}
  %param_9.417 = f64[3,16]{1,0} parameter(9)
  %max.82.13 = f64[3,16]{1,0} maximum(%param_9.417, %broadcast.73.44), metadata={op_name="jit(solve_rrtmg_lw_column)/max" stack_frame_id=131}
  %pad.1.13 = f64[3,17]{1,0} pad(%max.82.13, %constant_212_1), padding=0_0x0_1, metadata={op_name="jit(solve_rrtmg_lw_column)/concatenate" stack_frame_id=130}
  %add.101.13 = f64[3,17]{1,0} add(%pad.18, %pad.1.13), metadata={op_name="jit(solve_rrtmg_lw_column)/add" stack_frame_id=124}
  %param_8.418 = f64[3,16]{1,0} parameter(8)
  %max.83.11 = f64[3,16]{1,0} maximum(%param_8.418, %broadcast.73.44), metadata={op_name="jit(solve_rrtmg_lw_column)/max" stack_frame_id=129}
  %pad.2.11 = f64[3,17]{1,0} pad(%max.83.11, %constant_212_1), padding=0_0x0_1, metadata={op_name="jit(solve_rrtmg_lw_column)/concatenate" stack_frame_id=128}
  %add.102.11 = f64[3,17]{1,0} add(%add.101.13, %pad.2.11), metadata={op_name="jit(solve_rrtmg_lw_column)/add" stack_frame_id=124}
  %param_7.388 = f64[3,16]{1,0} parameter(7)
  %max.84.9 = f64[3,16]{1,0} maximum(%param_7.388, %broadcast.73.44), metadata={op_name="jit(solve_rrtmg_lw_column)/max" stack_frame_id=127}
  %pad.3.9 = f64[3,17]{1,0} pad(%max.84.9, %constant_212_1), padding=0_0x0_1, metadata={op_name="jit(solve_rrtmg_lw_column)/concatenate" stack_frame_id=125}
  %add.103.9 = f64[3,17]{1,0} add(%add.102.11, %pad.3.9), metadata={op_name="jit(solve_rrtmg_lw_column)/add" stack_frame_id=124}
  %param_12.284 = f64[3,16]{1,0} parameter(12)
  %constant_213_1 = f64[] constant(1)
  %max.76.102 = f64[3,16]{1,0} broadcast(%constant_213_1), dimensions={}, metadata={op_name="jit(solve_rrtmg_lw_column)/max" stack_frame_id=156}
  %max.79.99 = f64[3,16]{1,0} maximum(%param_12.284, %max.76.102), metadata={op_name="jit(solve_rrtmg_lw_column)/max" stack_frame_id=156}
  %slice.152.15 = f64[3,1]{1,0} slice(%max.79.99), slice={[0:3], [0:1]}, metadata={op_name="jit(solve_rrtmg_lw_column)/slice" stack_frame_id=151}
  %slice.151.19 = f64[3,1]{1,0} slice(%max.79.99), slice={[0:3], [1:2]}, metadata={op_name="jit(solve_rrtmg_lw_column)/slice" stack_frame_id=155}
  %sub.4.17 = f64[3,1]{1,0} subtract(%slice.152.15, %slice.151.19), metadata={op_name="jit(solve_rrtmg_lw_column)/sub" stack_frame_id=154}
  %constant_210_1 = f64[] constant(10)
  %broadcast.122.38 = f64[3,1]{1,0} broadcast(%constant_210_1), dimensions={}
  %max.31.15 = f64[3,1]{1,0} maximum(%sub.4.17, %broadcast.122.38), metadata={op_name="jit(solve_rrtmg_lw_column)/max" stack_frame_id=153}
  %constant_209_6 = f64[] constant(0.5)
  %broadcast.135.33 = f64[3,1]{1,0} broadcast(%constant_209_6), dimensions={}
  %mul.8.15 = f64[3,1]{1,0} multiply(%max.31.15, %broadcast.135.33), metadata={op_name="jit(solve_rrtmg_lw_column)/mul" stack_frame_id=152}
  %add.91.13 = f64[3,1]{1,0} add(%slice.152.15, %mul.8.15), metadata={op_name="jit(solve_rrtmg_lw_column)/add" stack_frame_id=151}
  %slice.153.11 = f64[3,15]{1,0} slice(%max.79.99), slice={[0:3], [0:15]}, metadata={op_name="jit(solve_rrtmg_lw_column)/slice" stack_frame_id=149}
  %slice.154.11 = f64[3,15]{1,0} slice(%max.79.99), slice={[0:3], [1:16]}, metadata={op_name="jit(solve_rrtmg_lw_column)/slice" stack_frame_id=150}
  %add.92.11 = f64[3,15]{1,0} add(%slice.153.11, %slice.154.11), metadata={op_name="jit(solve_rrtmg_lw_column)/add" stack_frame_id=149}
  %broadcast.69.16 = f64[3,15]{1,0} broadcast(%constant_209_6), dimensions={}
  %mul.237.9 = f64[3,15]{1,0} multiply(%add.92.11, %broadcast.69.16), metadata={op_name="jit(solve_rrtmg_lw_column)/mul" stack_frame_id=148}
  %slice.157.23 = f64[3,1]{1,0} slice(%max.79.99), slice={[0:3], [15:16]}, metadata={op_name="jit(solve_rrtmg_lw_column)/slice" stack_frame_id=144}
  %slice.155.23 = f64[3,1]{1,0} slice(%max.79.99), slice={[0:3], [14:15]}, metadata={op_name="jit(solve_rrtmg_lw_column)/slice" stack_frame_id=147}
  %sub.5.18 = f64[3,1]{1,0} subtract(%slice.155.23, %slice.157.23), metadata={op_name="jit(solve_rrtmg_lw_column)/sub" stack_frame_id=147}
  %max.32.18 = f64[3,1]{1,0} maximum(%sub.5.18, %broadcast.122.38), metadata={op_name="jit(solve_rrtmg_lw_column)/max" stack_frame_id=146}
  %mul.9.18 = f64[3,1]{1,0} multiply(%max.32.18, %broadcast.135.33), metadata={op_name="jit(solve_rrtmg_lw_column)/mul" stack_frame_id=145}
  %sub.84.18 = f64[3,1]{1,0} subtract(%slice.157.23, %mul.9.18), metadata={op_name="jit(solve_rrtmg_lw_column)/sub" stack_frame_id=144}
  %constant_207_2 = f64[] constant(400)
  %broadcast.68.18 = f64[3,1]{1,0} broadcast(%constant_207_2), dimensions={}
  %max.91.18 = f64[3,1]{1,0} maximum(%sub.84.18, %broadcast.68.18), metadata={op_name="jit(solve_rrtmg_lw_column)/max" stack_frame_id=143}
  %concatenate.14.7 = f64[3,17]{1,0} concatenate(%add.91.13, %mul.237.9, %max.91.18), dimensions={1}, metadata={op_name="jit(solve_rrtmg_lw_column)/concatenate" stack_frame_id=140}
  %constant_206_1 = f64[] constant(0.001)
  %broadcast.67.7 = f64[3,1]{1,0} broadcast(%constant_206_1), dimensions={}
  %concatenate.1.7 = f64[3,17]{1,0} concatenate(%mul.237.9, %max.91.18, %broadcast.67.7), dimensions={1}, metadata={op_name="jit(solve_rrtmg_lw_column)/concatenate" stack_frame_id=138}
  %sub.88.5 = f64[3,17]{1,0} subtract(%concatenate.14.7, %concatenate.1.7), metadata={op_name="jit(solve_rrtmg_lw_column)/sub" stack_frame_id=137}
  %constant_62_1 = f64[] constant(0.10197162129779283)
  %broadcast.19.5 = f64[3,17]{1,0} broadcast(%constant_62_1), dimensions={}, metadata={op_name="jit(solve_rrtmg_lw_column)/div" stack_frame_id=123}
  %multiply.14.5 = f64[3,17]{1,0} multiply(%sub.88.5, %broadcast.19.5), metadata={op_name="jit(solve_rrtmg_lw_column)/div" stack_frame_id=123}
  %constant_201_1 = f64[] constant(1e-06)
  %max.74.5 = f64[3,17]{1,0} broadcast(%constant_201_1), dimensions={}, metadata={op_name="jit(solve_rrtmg_lw_column)/max" stack_frame_id=122}
  %max.93.5 = f64[3,17]{1,0} maximum(%multiply.14.5, %max.74.5), metadata={op_name="jit(solve_rrtmg_lw_column)/max" stack_frame_id=122}
  %mul.271.7 = f64[3,17]{1,0} multiply(%add.103.9, %max.93.5), metadata={op_name="jit(solve_rrtmg_lw_column)/mul" stack_frame_id=118}
  %constant_194_1 = f64[] constant(1000)
  %broadcast.63.5 = f64[3,17]{1,0} broadcast(%constant_194_1), dimensions={}
  %mul.272.5 = f64[3,17]{1,0} multiply(%mul.271.7, %broadcast.63.5), metadata={op_name="jit(solve_rrtmg_lw_column)/mul" stack_frame_id=118}
  %param_6.538 = f64[3,16]{1,0} parameter(6)
  %clamp.18 = f64[3,16]{1,0} clamp(%broadcast.73.44, %param_6.538, %max.76.102), metadata={op_name="jit(solve_rrtmg_lw_column)/jit(clip)/min" stack_frame_id=121}
  %pad.4.3 = f64[3,17]{1,0} pad(%clamp.18, %constant_212_1), padding=0_0x0_1, metadata={op_name="jit(solve_rrtmg_lw_column)/concatenate" stack_frame_id=119}
  %mul.273.3 = f64[3,17]{1,0} multiply(%mul.272.5, %pad.4.3), metadata={op_name="jit(solve_rrtmg_lw_column)/mul" stack_frame_id=118}
  %transpose.29.3 = f64[17,3]{1,0} transpose(%mul.273.3), dimensions={1,0}, metadata={op_name="jit(solve_rrtmg_lw_column)/mul" stack_frame_id=118}
  %broadcast.145.3 = f64[1,17,3,16]{3,2,1,0} broadcast(%transpose.29.3), dimensions={1,2}, metadata={op_name="jit(solve_rrtmg_lw_column)/mul" stack_frame_id=22}
  %param_3.883 = f64[16]{0} parameter(3)
  %broadcast.146.3 = f64[1,17,3,16]{3,2,1,0} broadcast(%param_3.883), dimensions={3}, metadata={op_name="jit(solve_rrtmg_lw_column)/mul" stack_frame_id=22}
  %multiply.56.3 = f64[1,17,3,16]{3,2,1,0} multiply(%broadcast.145.3, %broadcast.146.3), metadata={op_name="jit(solve_rrtmg_lw_column)/mul" stack_frame_id=22}
  %bitcast.45.3 = f64[17,3,16]{2,1,0} bitcast(%multiply.56.3)
  %broadcast.147.3 = f64[17,3,16,16]{3,2,1,0} broadcast(%bitcast.45.3), dimensions={0,1,3}, metadata={op_name="jit(solve_rrtmg_lw_column)/add" stack_frame_id=108}
  %add.58.7 = f64[17,3,16,16]{3,2,1,0} add(%multiply.55.9, %broadcast.147.3), metadata={op_name="jit(solve_rrtmg_lw_column)/add" stack_frame_id=108}
  %constant_221_1 = f64[] constant(80)
  %broadcast.148.10 = f64[17,3,16,16]{3,2,1,0} broadcast(%constant_221_1), dimensions={}, metadata={op_name="jit(solve_rrtmg_lw_column)/jit(clip)/min" stack_frame_id=106}
  %clamp.12.5 = f64[17,3,16,16]{3,2,1,0} clamp(%broadcast.188.17, %add.58.7, %broadcast.148.10), metadata={op_name="jit(solve_rrtmg_lw_column)/jit(clip)/min" stack_frame_id=106}
  %param_1.1325 = f64[16,16]{1,0} parameter(1)
  %broadcast.149.1 = f64[17,3,16,16]{3,2,1,0} broadcast(%param_1.1325), dimensions={2,3}, metadata={op_name="jit(solve_rrtmg_lw_column)/mul" stack_frame_id=23}
  %multiply.57.3 = f64[17,3,16,16]{3,2,1,0} multiply(%clamp.12.5, %broadcast.149.1), metadata={op_name="jit(solve_rrtmg_lw_column)/mul" stack_frame_id=23}
  %param_0.992 = f64[3,16]{1,0} parameter(0)
  %broadcast.150.1 = f64[17,3,16,16]{3,2,1,0} broadcast(%param_0.992), dimensions={1,3}, metadata={op_name="jit(solve_rrtmg_lw_column)/mul" stack_frame_id=41}
  ROOT %multiply.58.1 = f64[17,3,16,16]{3,2,1,0} multiply(%multiply.57.3, %broadcast.150.1), metadata={op_name="jit(solve_rrtmg_lw_column)/mul" stack_frame_id=41}
}

%region_2.5 (reduce.4: f64[], reduce.5: s64[], reduce.6: f64[], reduce.7: s64[]) -> (f64[], s64[]) {
  %reduce.4 = f64[] parameter(0), metadata={op_name="reduce"}
  %reduce.6 = f64[] parameter(2), metadata={op_name="reduce"}
  %lt.2.0 = pred[] compare(%reduce.4, %reduce.6), direction=LT, metadata={op_name="lt" stack_frame_id=15}
  %ne.1.0 = pred[] compare(%reduce.4, %reduce.4), direction=NE, metadata={op_name="ne" stack_frame_id=15}
  %or.2.0 = pred[] or(%lt.2.0, %ne.1.0), metadata={op_name="or" stack_frame_id=15}
  %eq.2.0 = pred[] compare(%reduce.4, %reduce.6), direction=EQ, metadata={op_name="eq" stack_frame_id=15}
  %reduce.5 = s64[] parameter(1), metadata={op_name="reduce"}
  %reduce.7 = s64[] parameter(3), metadata={op_name="reduce"}
  %lt.3.0 = pred[] compare(%reduce.5, %reduce.7), direction=LT, metadata={op_name="lt" stack_frame_id=15}
  %and.1.0 = pred[] and(%eq.2.0, %lt.3.0), metadata={op_name="and" stack_frame_id=15}
  %or.3.0 = pred[] or(%or.2.0, %and.1.0), metadata={op_name="or" stack_frame_id=15}
  %select_n.3.0 = s64[] select(%or.3.0, %reduce.5, %reduce.7), metadata={op_name="select_n" stack_frame_id=15}
  %select_n.2.0 = f64[] select(%or.2.0, %reduce.4, %reduce.6), metadata={op_name="select_n" stack_frame_id=15}
  ROOT %tuple.1.0 = (f64[], s64[]) tuple(%select_n.2.0, %select_n.3.0)
}

%fused_reduce.1 (param_0.998: f64[59], param_1.1335: f64[3,16]) -> (f64[3,17], s64[3,17]) {
  %param_1.1335 = f64[3,16]{1,0} parameter(1)
  %constant_213_2 = f64[] constant(1)
  %max.76.108 = f64[3,16]{1,0} broadcast(%constant_213_2), dimensions={}, metadata={op_name="jit(solve_rrtmg_lw_column)/max" stack_frame_id=156}
  %max.79.105 = f64[3,16]{1,0} maximum(%param_1.1335, %max.76.108), metadata={op_name="jit(solve_rrtmg_lw_column)/max" stack_frame_id=156}
  %slice.157.25 = f64[3,1]{1,0} slice(%max.79.105), slice={[0:3], [15:16]}, metadata={op_name="jit(solve_rrtmg_lw_column)/slice" stack_frame_id=144}
  %slice.155.25 = f64[3,1]{1,0} slice(%max.79.105), slice={[0:3], [14:15]}, metadata={op_name="jit(solve_rrtmg_lw_column)/slice" stack_frame_id=147}
  %sub.5.20 = f64[3,1]{1,0} subtract(%slice.155.25, %slice.157.25), metadata={op_name="jit(solve_rrtmg_lw_column)/sub" stack_frame_id=147}
  %constant_210_3 = f64[] constant(10)
  %broadcast.122.40 = f64[3,1]{1,0} broadcast(%constant_210_3), dimensions={}
  %max.32.20 = f64[3,1]{1,0} maximum(%sub.5.20, %broadcast.122.40), metadata={op_name="jit(solve_rrtmg_lw_column)/max" stack_frame_id=146}
  %constant_209_4 = f64[] constant(0.5)
  %broadcast.135.35 = f64[3,1]{1,0} broadcast(%constant_209_4), dimensions={}
  %mul.9.20 = f64[3,1]{1,0} multiply(%max.32.20, %broadcast.135.35), metadata={op_name="jit(solve_rrtmg_lw_column)/mul" stack_frame_id=145}
  %sub.84.20 = f64[3,1]{1,0} subtract(%slice.157.25, %mul.9.20), metadata={op_name="jit(solve_rrtmg_lw_column)/sub" stack_frame_id=144}
  %constant_207_1 = f64[] constant(400)
  %broadcast.68.20 = f64[3,1]{1,0} broadcast(%constant_207_1), dimensions={}
  %max.91.20 = f64[3,1]{1,0} maximum(%sub.84.20, %broadcast.68.20), metadata={op_name="jit(solve_rrtmg_lw_column)/max" stack_frame_id=143}
  %mul.234.7 = f64[3,1]{1,0} multiply(%max.91.20, %broadcast.135.35), metadata={op_name="jit(solve_rrtmg_lw_column)/mul" stack_frame_id=161}
  %concatenate.16.7 = f64[3,17]{1,0} concatenate(%max.79.105, %mul.234.7), dimensions={1}, metadata={op_name="jit(solve_rrtmg_lw_column)/concatenate" stack_frame_id=160}
  %broadcast.65.15 = f64[3,17]{1,0} broadcast(%constant_213_2), dimensions={}
  %max.96.5 = f64[3,17]{1,0} maximum(%concatenate.16.7, %broadcast.65.15), metadata={op_name="jit(solve_rrtmg_lw_column)/max" stack_frame_id=159}
  %log.1.5 = f64[3,17]{1,0} log(%max.96.5), metadata={op_name="jit(solve_rrtmg_lw_column)/log" stack_frame_id=158}
  %sub.91.5 = f64[3,17,59]{2,1,0} broadcast(%log.1.5), dimensions={0,1}, metadata={op_name="jit(solve_rrtmg_lw_column)/sub" stack_frame_id=31}
  %param_0.998 = f64[59]{0} parameter(0)
  %broadcast.87.3 = f64[3,17,59]{2,1,0} broadcast(%param_0.998), dimensions={2}, metadata={op_name="jit(solve_rrtmg_lw_column)/sub" stack_frame_id=31}
  %add.28.3 = f64[3,17,59]{2,1,0} add(%sub.91.5, %broadcast.87.3), metadata={op_name="jit(solve_rrtmg_lw_column)/sub" stack_frame_id=31}
  %abs.1.3 = f64[3,17,59]{2,1,0} abs(%add.28.3), metadata={op_name="jit(solve_rrtmg_lw_column)/abs" stack_frame_id=157}
  %iota.4.1 = s64[3,17,59]{2,1,0} iota(), iota_dimension=2, metadata={op_name="jit(solve_rrtmg_lw_column)/iota" stack_frame_id=21}
  %constant_18_1 = f64[] constant(inf), metadata={op_name="jit(solve_rrtmg_lw_column)" stack_frame_id=17}
  %constant_19_1 = s64[] constant(0), metadata={op_name="jit(solve_rrtmg_lw_column)" stack_frame_id=17}
  ROOT %reduce.0.1 = (f64[3,17]{1,0}, s64[3,17]{1,0}) reduce(%abs.1.3, %iota.4.1, %constant_18_1, %constant_19_1), dimensions={2}, to_apply=%region_2.5, metadata={op_name="jit(solve_rrtmg_lw_column)/reduce" stack_frame_id=21}
}

%fused_add (param_0.916: f64[17,3,16,16], param_1.1288: f64[17,3,16,16], param_2.913: f64[17,3,16,16], param_3.910: f64[16], param_4.890: f64[16,16], param_5.715: f64[16], param_6.615: f64[3], param_7.477: f64[181,16], param_8.479: f64[3]) -> (f64[1,3,16,16], f64[3,16,16]) {
  %constant_84_3_clone_1 = s32[] constant(1), metadata={op_name="jit(solve_rrtmg_lw_column)/jit(clip)/convert_element_type" stack_frame_id=184}
  %max.26.9.clone.1 = s32[3]{0} broadcast(%constant_84_3_clone_1), dimensions={}, metadata={op_name="jit(solve_rrtmg_lw_column)/jit(clip)/max" stack_frame_id=179}
  %constant_220_3_clone_1 = f64[] constant(160)
  %max.24.3.clone.1 = f64[3]{0} broadcast(%constant_220_3_clone_1), dimensions={}, metadata={op_name="jit(solve_rrtmg_lw_column)/jit(clip)/max" stack_frame_id=182}
  %param_8.479 = f64[3]{0} parameter(8)
  %constant_231_4_clone_1 = f64[] constant(120)
  %broadcast.72.7.clone.1 = f64[3]{0} broadcast(%constant_231_4_clone_1), dimensions={}

# Truncated for git hygiene; full HLO: /tmp/wrf_gpu2_s3z/data/scratch/m5/rrtmg_lw_production_full.txt
